utests/models/attention_block_fixed.onnx (onnx, 1739 bytes, 2 tensors)

conv01.weight f4 [6, 5, 3, 3]
00000000: 633f 51bd e805 e43d 846e cabd 7d01 eebc
00000010: 0d3b 4bbe d649 67bc 06c0 4fbe 7a3f 203e
00000020: b0c4 29be d43e 18be 70b2 bd3d c689 0a3e
00000030: 4e3a d5bd b4c5 bd3d 3f38 0c3e a1ab 02be
00000040: 52f5 e7bd a093 013e 8384 b93c ad4f 6b3e
00000050: 72aa 0b3d 4eb4 74be 7325 e73d d137 8cbd
00000060: b327 2e3e 5c36 223d 366e 69bc d356 243c
00000070: 4868 55bd eadf afbc 6c2f 1cbe 1c1e e43d
00000080: 9f4a 163e cc9d 93bd 8ad1 65be f5fd 1abd
00000090: b200 193b c10f 643e 1c20 233e f9c2 0cbd
000000a0: e9f5 7abd 075c bcbd f26b 4bbe 18d0 34bd
000000b0: 4a7f 2b3e 6409 1abe e7d7 02be f9c4 c93d
000000c0: 16eb 573e a955 47be afe6 70be dd5e 983d
000000d0: cf2c 5bbe 76b2 5dbe ac94 4fbe d107 553e
000000e0: 1382 a7bd 0a84 53bd 75cb 6dbe 356a eebd
000000f0: 9bbd 65bb e070 823c d119 033e 9497 143d
00000100: 94d4 153e 4545 85bc 4892 3d3e e208 5abe
00000110: fed1 22be a71e fcbc e567 3abd e0bb 233e
00000120: c914 293d 25d6 cebc 7b2b c83c d63b 78be
00000130: a3d6 c83d 30cd 0a3e 7ee1 4e3e c7fe 44be
00000140: 3412 1e3d 603a c43d 758d 3fbe 48a0 c0bd
00000150: 66d2 6a3e 01d7 b23d 6493 173d 8ce7 063e
00000160: 7d3f 7bbe 784f c7bd 2fdb 5dbe edd6 d4bd
00000170: 5c59 8a3c c7a1 46be db2f dbbd e88c 75be
00000180: 18d6 34bc c555 ba3d 2593 0d3e 9668 56be
00000190: adce 39be 2167 6c3d 0b07 4abe 9859 05be
000001a0: 7c6d 603e 9cdd 793e 56b8 b13c c78d d7bd
000001b0: 893f 273e ab1b 0d3e 7fb3 093e 38ad 483d
000001c0: 7d63 c33d b15b 4b3e abd9 a8bd de8c 663e
000001d0: fa16 57be 33f4 22bb 750e eebd 4ea4 343d
000001e0: c523 cb3d e8f3 2ebe 1d5d acbd c223 033d
000001f0: ab79 f33d b6f3 543d d064 81bd 77f7 4cbe
00000200: b1e4 2c3e fa01 03be 43d7 f4bd d856 fa3b
00000210: 218c 9c3c 4065 313d 16bb 7bbe ad6d 70be
00000220: fa91 093e fa5c 293e 8551 bcbd 32e7 443d
00000230: 14b5 89bd cb3c dc3d 271f 8c3d 6a53 48be
00000240: d2b9 a53c 7649 073e fcd0 99bd 6914 333d
00000250: e0ec 103e 3bbb 713d 5ade 3bbe 7e95 4b3e
00000260: 6534 bc3d 4301 403d 686b ee3d 3ed2 7b3e
00000270: 6422 dd3d 1324 2d3e 5bf3 183e 5f10 c4bd
00000280: 0e4b 053e 3595 3b3e c05a 22be c6ec 76be
00000290: cfaa 3bbe 2eca fcbc d88d 5e3e 7d8e b13c
000002a0: b9fb 013e 2379 a53d 7f8e 203d ba23 153e
000002b0: 7f6c d9bb a821 95bd 6ed2 babd b80f 113e
000002c0: 376c e0bd c088 593e c99b 77be bb72 f3bd
000002d0: c3ae fcbd ffd6 4ebe 86d7 02be bb46 663c
000002e0: 1ddc 61be 52c1 f93d 7366 033e 8460 c6bd
000002f0: 1bfe 69be 424e 7dbd 4474 923d 0770 43be
00000300: fb98 b13d 4305 013c 787d 10be 31f4 8f3d
00000310: 2bb5 733e 0122 4f3e e4f5 74be c5d6 373e
00000320: 127e 2fbe 9e39 2ebe 8cb9 70be c2f7 353d
00000330: f81f 4c3d 5000 96bd 7b88 3cbd 6f0d 4c3e
00000340: abb1 80bd 598c 2ebe a4cf 833d 7874 5c3e
00000350: 3829 173e 4288 5c3e 86fa 0c3e e1f1 f83b
00000360: 19df 713e c1a4 6bbe 58bd 353e c6dc 6dbd
00000370: 7325 06bd 7cb2 6dbe bc14 4cbe 6538 08be
00000380: 6c76 343d f20a b7bd c1c2 f63d a7b9 043d
00000390: 7e09 483e b2ae 65be 7f0f 41be fd73 483e
000003a0: 8698 55be 2f47 f9bc 3c36 26bd 5504 0f3d
000003b0: 314e 393e 4342 b43c 9a5a 423e 57cc 0e3e
000003c0: 0acb 663e a3d0 1bbe 6ba7 e7bd 521d 1cbe
000003d0: 51b7 3cbc 45b5 a1bc 897d 8abd c4d7 e1bd
000003e0: 6fca 01be 6696 2dbd ec04 02be 4030 4a3e
000003f0: a0d2 73be ba70 d8bd 1d3d 04bd f0ac ad3d
-0.05108584 0.11133939 -0.098843604 -0.029053444 -0.19846745 -0.014116725 -0.20288095 0.15649214
-0.16578937 -0.14867717 0.0926255 0.13529119 -0.10411511 0.092662245 0.13693331 -0.12760784
-0.11326088 0.1265397 0.022646194 0.22979613 0.034098096 -0.23896906 0.1128644 -0.06846584
0.17007332 0.039602622 -0.014247468 0.010030466 -0.052101403 -0.021469075 -0.15252465 0.111385554
0.14676903 -0.07207832 -0.22443214 -0.03783985 0.0023346362 0.22271635 0.15930218 -0.034365628
-0.061269674 -0.0919724 -0.19865397 -0.044143766 0.16747776 -0.15042645 -0.12777673 0.09852023
0.21085772 -0.1946627 -0.23525499 0.07439969 -0.21403812 -0.21650109 -0.20271558 0.20803763
-0.081791066 -0.051639594 -0.23222144 -0.11641351 -0.003505564 0.015922964 0.12802817 0.03627737
0.14631873 -0.016268382 0.18512833 -0.21292451 -0.15900418 -0.030776335 -0.045509238 0.15989637
0.041279588 -0.025248596 0.024434796 -0.24241576 0.09806564 0.13554835 0.20203206 -0.19237815
0.03859158 0.09581447 -0.18706305 -0.09405571 0.22931823 0.08732415 0.037005797 0.13174266
-0.24535938 -0.09731954 -0.21665643 -0.10392556 0.016888313 -0.1939765 -0.10702487 -0.23979533
-0.011037372 0.090983905 0.13825662 -0.20938334 -0.18145247 0.05771554 -0.19729249 -0.13022459
0.21916765 0.24400944 0.021694344 -0.10525089 0.1633283 0.13780086 0.13447379 0.04899332
0.0954046 0.19859196 -0.08244642 0.22514674 -0.21004859 -0.0024864792 -0.11623851 0.044102006
0.09918932 -0.1708523 -0.084161974 0.032016523 0.11888441 0.051990233 -0.063180566 -0.20016275
0.16884114 -0.12793723 -0.119551204 0.007639747 0.019109787 0.04330945 -0.24583086 -0.23479338
0.13434592 0.16539374 -0.09195236 0.048072048 -0.06723991 0.10753783 0.06841879 -0.1956307
0.020230208 0.13211617 -0.07510564 0.043720637 0.1415286 0.059016448 -0.18346539 0.19881245
0.09189681 0.046876203 0.1164158 0.2459192 0.10797575 0.16908292 0.14936583 -0.09573435
0.13016912 0.18318637 -0.15854931 -0.2411376 -0.18326877 -0.030858126 0.21733797 0.021674389
0.12693681 0.080797456 0.039198395 0.1456441 -0.006635248 -0.0728181 -0.091221675 0.14166152
-0.1095814 0.21243572 -0.24180521 -0.118871175 -0.12338021 -0.20199202 -0.12777528 0.014054949
-0.22056623 0.12195076 0.1283205 -0.09686378 -0.2285084 -0.06184221 0.07151082 -0.19085704
0.08671757 0.00787479 -0.14110363 0.07028998 0.23799579 0.20227815 -0.23921925 0.17953022
-0.17137936 -0.17014167 -0.2350828 0.044425733 0.049835175 -0.07324278 -0.046028595 0.19927
-0.062838875 -0.17045726 0.06436089 0.21528804 0.14761817 0.21536353 0.13767442 0.0075971936
0.23620261 -0.23012067 0.1774801 -0.058071874 -0.032750558 -0.23212618 -0.19929785 -0.13302763
0.04405825 -0.089376345 0.12048865 0.032403614 0.19534871 -0.22429922 -0.18853568 0.19575496
-0.20858964 -0.03042945 -0.040579066 0.03491624 0.18096234 0.022004252 0.18979874 0.13945137
0.22538391 -0.15216307 -0.11311229 -0.1524556 -0.011518315 -0.019739756 -0.06762225 -0.11027482
-0.12674879 -0.04237976 -0.1269719 0.19744968 -0.23810816 -0.10568376 -0.032284845 0.08480251

conv01.bias f4 [6]
00000000: e01a df3d c7b1 793f 1004 873d d688 643f
00000010: 0e19 c93e a7ad 6c3f
0.10893798 0.9753689 0.06592572 0.89271295 0.39276928 0.9245247
