utests/models/conv2d_4_8x8x4_k5x5s1,1_g4_p2,2.onnx (onnx, 738 bytes, 2 tensors)

conv.weight f4 [4, 1, 5, 5]
0	0x3ba865ed	0.0051391036
1	0xbe193f55	-0.14965566
2	0xbe3e55db	-0.18587439
3	0xbdf71446	-0.12064414
4	0xbe4459f1	-0.19174935
5	0xbe0ed9b2	-0.13950232
6	0x3e604268	0.21900332
7	0x3d297e86	0.041380428
8	0x3d8a44fe	0.067514405
9	0xbe513ebd	-0.20434089
10	0xbe135868	-0.14389193
11	0xbd9559bb	-0.07292505
12	0x3d0c535e	0.034259193
13	0xbe456868	-0.19278109
14	0xbdc1548d	-0.09439955
15	0xbe064f41	-0.1311617
16	0x3a1f294d	0.0006071523
17	0xbda6f5e9	-0.081523724
18	0xbc78bdad	-0.015181941
19	0xbe180638	-0.14846122
20	0xbe19fda5	-0.15038164
21	0xbe02e271	-0.12781693
22	0xbd999640	-0.07499361
23	0xbe3112ab	-0.17292278
24	0x3e3c1bbb	0.18369953
25	0xbd321970	-0.04348129
26	0x3e41070e	0.18850347
27	0x3d8bce1c	0.068264216
28	0xbe3df9fb	-0.18552391
29	0x3e1b4191	0.1516173
30	0xbd76e96d	-0.060281206
31	0xbdabff08	-0.08398253
32	0xbe3a3955	-0.18185933
33	0xbe5f0980	-0.21780968
34	0x3d806050	0.0626837
35	0xbd44076f	-0.04785865
36	0x3daeafe3	0.085296415
37	0xbe381d0f	-0.17979835
38	0x3e268fd6	0.16265807
39	0xbe24aed0	-0.1608231
40	0xbd1af481	-0.037830833
41	0x3d3b6ff2	0.045761056
42	0x3de7a3a5	0.113105096
43	0x3e351e27	0.17687283
44	0x3e4c5f01	0.19958116
45	0xbe31e3cc	-0.17372054
46	0x3d61d7e5	0.055137534
47	0xbdc0febd	-0.094235875
48	0xbcc4ae29	-0.024008827
49	0xbe27ebef	-0.16398595
50	0x3e4c593a	0.19955912
51	0xbe24a8e2	-0.16080049
52	0x3defce24	0.1170924
53	0x3d9db05f	0.07699656
54	0x3d91ce4e	0.071194276
55	0xbdf295ba	-0.11844964
56	0x3e4bebb2	0.1991413
57	0x3d453396	0.0481449
58	0x3ce6e158	0.028183624
59	0xbe45b4fe	-0.19307324
60	0x3dbc5b51	0.09197105
61	0xbd06a074	-0.032867864
62	0xbdcd8ec9	-0.10037
63	0x3e40b3c4	0.18818575
64	0x3d48125b	0.04884563
65	0xbdf84082	-0.12121679
66	0xbde31a06	-0.11088948
67	0xbc2b6bf8	-0.0104627535
68	0x3dfa8896	0.12233083
69	0xbd65502a	-0.055984654
70	0xbe0001c1	-0.12500669
71	0xbd99a6f4	-0.07502547
72	0xbe279aa7	-0.16367589
73	0x3da004da	0.07813425
74	0x3e2da75a	0.16958371
75	0xbe53359f	-0.20625924
76	0x3d506b4c	0.050883576
77	0x3de7cab3	0.11317959
78	0x3d22b911	0.039727274
79	0xbd9fca85	-0.078022994
80	0x3dea3145	0.11435179
81	0x3debcb76	0.115134165
82	0x3da7c76e	0.08192335
83	0xbd1db0bd	-0.03849863
84	0xbd6da130	-0.05801505
85	0x3cc001c5	0.023438344
86	0xbd1e8702	-0.038702972
87	0xbd85b61d	-0.06528876
88	0x3e0f677d	0.14004321
89	0x3e40cdc9	0.18828501
90	0xbcb1ad9e	-0.021689232
91	0xbd48ec29	-0.049053345
92	0x3b5184ef	0.0031970104
93	0xbc565373	-0.013081419
94	0x3d57be0a	0.05267147
95	0x3d7b7a7c	0.061396107
96	0xbe4bc3cb	-0.19898908
97	0xbda595cb	-0.08085211
98	0x3e3cedea	0.18450132
99	0x3daeca86	0.08534722

conv.bias f4 [4]
0	0x3ef34466	0.4751312
1	0x3e4b4ff0	0.19854712
2	0x3e46c17c	0.19409746
3	0x3d557830	0.052116573
