utests/models/conv2dt_32_8x8x32_k4,4_s2,2_p1,1_op0,0.onnx (onnx, 66022 bytes, 2 tensors)

convt.weight f4 [32, 32, 4, 4]
-0.039422672 -0.018304149 -0.019182859 0.036073033 0.010319493 0.014372096 -0.009397088 -0.032406643
-0.028800633 0.030205471 0.026786583 -0.03180302 -0.0063524307 0.03834359 -0.009525562 -0.027330592
0.01864004 0.00019537698 -0.008347172 -0.01049024 -0.033035133 -0.0038602245 0.031035364 -0.0009980479
-0.011048722 0.021876669 0.043380365 0.037584715 0.026537478 0.036788635 0.03955429 -0.043955937
0.0029371716 0.031073986 -0.018248927 0.010663268 -0.020104958 -0.037744403 -0.022332018 0.03614521
0.013468773 0.03523455 -0.040471565 0.024192434 0.03352443 -0.018212032 -0.028083341 0.03502863
-0.024109272 -0.004404841 0.035878032 0.008039679 -0.015779126 -0.0023260582 -0.005584036 0.036788456
0.035633937 -0.04369441 0.013602616 0.021153234 0.0024185495 0.043571953 0.037171092 -0.005858891
0.0045602997 0.03132988 -0.03647308 0.03826528 0.005666428 0.013204918 0.0022255906 -0.0061740866
0.01438865 -0.037717223 0.03582951 -0.019756734 0.017594818 0.0014933893 -0.023715904 -0.030583443
-0.024615087 -0.027615521 -0.017307267 -0.004605007 -0.0006905234 -0.026941087 0.0037425768 0.013984008
-0.0027253786 -0.044193782 0.035292257 -0.001293766 0.02021583 -0.017310048 -0.0005570654 -0.011182507
-0.018304788 -0.022163263 -0.030702488 0.026858874 -0.01858009 -0.031917397 0.012415861 0.03855963
-0.024779923 -0.035912517 0.015558145 -0.032007273 0.0151736345 0.017480664 -0.008525459 0.029770859
-0.02275638 0.020954786 0.03116548 0.009439814 -5.8436606e-05 -0.040276956 -0.04310905 0.0006686334
-0.02934538 0.026882518 0.005169021 0.03798727 -0.011912728 0.030224405 -0.023595639 -0.0267783
-0.022084475 0.0013218252 -0.009812914 0.005790234 0.022353413 0.016567674 -0.029973168 -0.038696043
0.022070033 -0.018338172 0.028129976 -0.0025167358 0.013617709 -0.039552245 -0.012206834 -0.024205029
0.024696698 -0.03478474 0.042577583 0.0161733 0.025808912 0.022228727 0.03385253 -0.0006600091
0.03550088 0.028975388 0.0155302705 0.008177358 -0.035950836 0.01749601 -0.020085935 -0.012971077
-0.034266535 0.03064691 0.02457284 0.043779273 0.026086913 -0.041178834 0.013106547 0.034395996
0.03237113 -0.042716973 -0.024181733 0.03598638 -0.018220741 0.031792052 0.04008649 -0.022124587
-0.04157941 0.010470805 -0.029350938 0.03334535 -0.03471677 0.037022293 0.004884082 0.022762839
-0.013066919 -0.035539053 0.033943843 0.0060676606 -0.01068793 0.036933556 0.03723428 0.03947354
-0.0058672205 -0.039086886 -0.0048901145 0.024028582 0.031240776 -0.013884409 0.035714574 0.033885635
0.015151929 0.0033836544 -0.0016867906 0.027437309 -0.0019143994 -0.02573908 -0.009617821 -0.0051795156
-0.020037133 0.021255782 0.0047672563 -0.017986542 0.01657928 0.027402963 0.033198394 -0.03811536
0.012513958 -0.039732892 -0.03950241 0.015213421 0.0048877383 -0.028732749 -0.018195147 0.0016146668
-0.014636599 0.02348848 0.035873175 -0.035558563 0.043123074 0.00089276506 0.04077779 -0.020502318
-0.026823709 0.043241113 0.011586706 0.0016456658 0.0054246946 -0.03381969 -0.013849807 0.016422203
0.028521804 0.022750437 -0.0038622213 0.019238962 0.017260151 0.0160395 -0.043406744 0.03919622
-0.023302391 0.03810592 -0.00976465 0.008547444 -0.024980495 -0.02292484 0.004930159 0.025659723
00000000: ab79 21bd 95f2 95bc 5f25 9dbc 51c1 133d
00000010: 1713 293c f178 6b3c 3ef6 19bc d4bc 04bd
00000020: 4eef ebbc 7771 f73c 896f db3c e243 02bd
00000030: 0d28 d0bb 2b0e 1d3d 1a11 1cbc 68e4 dfbc
00000040: ffb2 983c 1cde 4c39 94c2 08bc 41df 2bbc
00000050: d94f 07bd d2fb 7cbb e03d fe3c eed0 82ba
00000060: b305 35bc b336 b33c 9caf 313d 6ef2 193d
00000070: 2065 d93c aeaf 163d ae03 223d 240b 34bd
00000080: 907d 403b df8e fe3c c67e 95bc fdb4 2e3c
00000090: 27b3 a4bc e099 1abd a3f1 b6bc 000d 143d
000000a0: 21ac 5c3c 1a52 103d 83c5 25bd 362f c63c
000000b0: ea50 093d 6631 95bc 090f e6bc 2e7a 0f3d
000000c0: cf80 c5bc 7c56 90bb d8f4 123d dcb8 033c
000000d0: 3a43 81bc c870 18bb 4afa b6bb 7eaf 163d
000000e0: e4f4 113d e9f8 32bd 82dd 5e3c 8c49 ad3c
000000f0: 8780 1e3b 8178 323d b740 183d f1fb bfbb
00000100: 916e 953b c353 003d cc64 15bd 0ebc 1c3d
00000110: 71ad b93b 7159 583c 37db 113b fe4f cabb
00000120: 5fbe 6b3c 607d 1abd f7c1 123d e0d8 a1bc
00000130: 0223 903c d4bd c33a db47 c2bc 218a fabc
00000140: 94a5 c9bc f239 e2bc f8c7 8dbc 99e5 96bb
00000150: 3e04 35ba 8eb3 dcbc 0546 753b 2e1d 653c
00000160: 449c 32bb 8a04 35bd 9d8e 103d 9593 a9ba
00000170: ab9b a53c cdcd 8dbc 0708 12ba d536 37bc
00000180: ecf3 95bc bb8f b5bc c983 fbbc 2407 dc3c
00000190: 4635 98bc d1bb 02bd e56b 4b3c b4f0 1d3d
000001a0: 44ff cabc 0119 13bd 97e7 7e3c 0f1a 03bd
000001b0: d69a 783c 9c33 8f3c 5eae 0bbc 04e2 f33c
000001c0: 966b babc 5fa9 ab3c c04e ff3c 73a9 1a3c
000001d0: d419 75b8 73f9 24bd 1d93 30bd 3a47 2f3a
000001e0: b965 f0bc ba38 dc3c e460 a93b 8a98 1b3d
000001f0: 9a2d 43bc 2c99 f73c a44b c1bc 2a5e dbbc
00000200: 80ea b4bc 1841 ad3a 58c6 20bc 01bc bd3b
00000210: 811e b73c eeb8 873c 4a8a f5bc be7f 1ebd
00000220: 37cc b43c ef39 96bc d670 e63c d2ef 24bb
00000230: d01c 5f3c 8901 22bd 2cff 47bc a049 c6bc
00000240: bb50 ca3c 727a 0ebd d565 2e3d de7d 843c
00000250: 366d d33c 0519 b63c f3a8 0a3d 7604 2dba
00000260: 5f69 113d cb5d ed3c ad72 7e3c 53fa 053c
00000270: 2f41 13bd cb53 8f3c 428b a4bc a484 54bc
00000280: 115b 0cbd 3b0f fb3c fb4c c93c e551 333d
00000290: 39b4 d53c 23ab 28bd d8bc 563c d1e2 0c3d
000002a0: 9797 043d fef7 2ebd c518 c6bc 7466 133d
000002b0: aa43 95bc 6238 023d bb31 243d 9f3e b5bc
000002c0: 2c4f 2abd bd8d 2b3c 6171 f0bc 2295 083d
000002d0: 2c33 0ebd b0a4 173d a60a a03b 2279 ba3c
000002e0: a116 56bc 6691 11bd b308 0b3d 3ad3 c63b
000002f0: 6d1c 2fbc a447 173d f982 183d 02af 213d
00000300: d041 c0bb 9219 20bd 413d a0bb 97d7 c43c
00000310: a8ec ff3c 6f7b 63bc 7249 123d aacb 0a3d
00000320: cc3f 783c 4dc0 5d3b 4d17 ddba 35c4 e03c
00000330: 96ec faba c3da d2bc 1194 1dbc edb8 a9bb
00000340: ea24 a4bc 9b20 ae3c a536 9c3b 8358 93bc
00000350: 45d1 873c 2e7c e03c 0afb 073d da1e 1cbd
00000360: 5807 4d3c f5be 22bd 47cd 21bd b641 793c
00000370: 5229 a03b f160 ebbc fd0d 95bc 3aa3 d33a
00000380: 59ce 6fbc ea6a c03c c0ef 123d dba5 11bd
00000390: d2a1 303d 7308 6a3a 9d06 273d 7af4 a7bc
000003a0: 65bd dbbc 981d 313d 2bd6 3d3c 62b3 d73a
000003b0: a3c1 b13b 8486 0abd 4dea 62bc db87 863c
000003c0: 8fa6 e93c 205f ba3c 521d 7dbb 079b 9d3c
000003d0: 2965 8d3c 4565 833c 45cb 31bd 378c 203d
000003e0: a8e4 bebc f414 1c3d e9fb 1fbc 940a 0c3c
000003f0: e5a3 ccbc e0cc bbbc 2c8d a13b 5734 d23c

convt.bias f4 [32]
-0.00946515 0.019249003 0.042103715 0.025827283 0.024457105 -0.014750617 -0.024555681 -0.010948613
-0.026381167 -0.022175016 0.0083302455 -0.0322691 0.021608572 0.035906173 -0.026467714 0.02464675
0.035229538 -0.021107426 0.03987186 0.025090203 0.020760061 -0.01493118 -0.008287846 0.018429436
0.037850987 -0.04284626 -0.021806147 -0.024149906 -0.008972247 0.0322797 -0.015640263 0.0066915127
00000000: b713 1bbc 16b0 9d3c f274 2c3d bd93 d33c
00000010: 445a c83c 92ac 71bc ff28 c9bc d061 33bc
00000020: 511d d8bc 61a8 b5bc 957b 083c 9b2c 04bd
00000030: 7604 b13c 5a12 133d d2d2 d8bc fbe7 c93c
00000040: d94c 103d 7be9 acbc ad50 233d f889 cd3c
00000050: 0111 aa3c e8a1 74bc bfc9 07bc 54f9 963c
00000060: a309 1b3d 8f7f 2fbd cea2 b2bc 06d6 c5bc
00000070: 5500 13bc b837 043d 0220 80bc 7a44 db3b
