utests/models/conv2d_8x8x1_g1_3s1x3s1x4.onnx (onnx, 1799 bytes, 1 tensors)

conv.weight f4 [4, 1, 3, 3]
0.21156463 -0.20996338 -0.3220109 -0.3056864 0.024968192 0.12516308 0.3076693 -0.26328564
-0.11500508 0.008133756 0.18002765 -0.30144817 0.13676953 0.103896074 0.30570465 -0.22125168
-0.26090455 0.27999458 -0.14485894 0.17602436 0.16167195 -0.34445137 0.19595455 0.14076711
-0.1171142 0.15971367 0.086486444 0.31548083 0.11539837 0.21924081 -0.12267473 -0.077123776
0.22184302 -0.2886955 0.05332151 0.04235462
00000000: 66a4 583e a400 57be 9dde a4be ee82 9cbe
00000010: 188a cc3c c02a 003e d586 9d3e 60cd 86be
00000020: c987 ebbd 7243 053c 2b59 383e 6a57 9abe
00000030: 500d 0c3e 77c7 d43d 5285 9c3e cd8f 62be
00000040: 4895 85be 735b 8f3e e755 14be bb3f 343e
00000050: 558d 253e ee5b b0be 4fa8 483e 4125 103e
00000060: 92d9 efbd fb8b 233e ce1f b13d b486 a13e
00000070: fb55 ec3d aa80 603e e43c fbbd 12f3 9dbd
00000080: d12a 633e e6cf 93be a867 5a3d 0a7c 2d3d
