utests/models/conv2d_8x7x1_g1_3s1x3s1x4.onnx (onnx, 1799 bytes, 1 tensors)

conv.weight f4 [4, 1, 3, 3]
00000000: 6faf fbbc 3665 8ebe b8ba a83e 926d 5f3b
00000010: 5255 a9be 359d 9fbe afaf bbbc 6877 b73e
00000020: 1da5 9c3e 9361 023d 62df b8be 53f4 ff3d
00000030: 7bbd aabe d95f 913e caca d2bd 2821 ddbd
00000040: 609d 8a3e b20e c1bd f37d 4f3d 08aa 6b3e
00000050: 310c 783e 5e1d b13e 445a bd3d 15e6 95bc
00000060: 7efb 8ebe cc7e d7bc 0e86 a4be 9edf 5e3d
00000070: 8169 7abe e5e7 97be 0c0c 25ba d3a7 2e3e
00000080: 235e a63e 0bbb 85be e2f1 19be f904 9e3e
-0.030723302 -0.27811593 0.32954955 0.0034092409 -0.33072907 -0.31174627 -0.02291092 0.35833287
0.3059472 0.031831335 -0.36107928 0.12497773 -0.33347687 0.28393438 -0.10292585 -0.1079734
0.27073193 -0.09426631 0.050657224 0.2301408 0.242234 0.34592718 0.092457324 -0.018298188
-0.27926248 -0.026305579 -0.32133526 0.054412477 -0.24454309 -0.2966911 -0.00062960456 0.17056207
0.32493696 -0.26119265 -0.15033677 0.3086317
