utests/models/conv2d_4_9x8x4_k3x3s1,1_g1_p1,1.onnx (onnx, 914 bytes, 2 tensors)

conv.weight f4 [4, 4, 3, 3]
0	0x3e86a42c	0.26297128
1	0xbe6a63f3	-0.2288969
2	0x3d94c991	0.07265008
3	0xbdfe4b18	-0.12416667
4	0xbd019315	-0.03163441
5	0xbe5d4194	-0.21607047
6	0x3e86a05d	0.26294222
7	0xbe58f54d	-0.21187325
8	0x3e1dfc4e	0.15428278
9	0x3dcfc600	0.101451874
10	0x3dc01dba	0.0938067
11	0xbe1fd11b	-0.15607111
12	0x3e865834	0.2623917
13	0x3d81eafc	0.06343648
14	0x3d181b10	0.037135184
15	0xbe82403d	-0.25439635
16	0x3df82e87	0.121182494
17	0xbd3162e8	-0.043307215
18	0xbe076c4e	-0.13224909
19	0x3e7de850	0.24795651
20	0x3d83cf0e	0.06435977
21	0xbe238ce4	-0.15971714
22	0xbe159dc9	-0.14610972
23	0xbc61de35	-0.013785888
24	0x3e250daf	0.16118501
25	0xbd9712c3	-0.073766254
26	0xbe28a9f1	-0.16471078
27	0xbdca745b	-0.09885474
28	0xbe5cd67b	-0.21566193
29	0x3dd2d7ef	0.10295092
30	0x3e64cf12	0.22344616
31	0xbe8b257e	-0.27177042
32	0x3d894ee3	0.067044996
33	0x3e18b4cd	0.1491272
34	0x3d566801	0.05234528
35	0xbdd28b13	-0.102804326
36	0x3e1a49b0	0.15067172
37	0x3e1b57ec	0.15170258
38	0x3ddd117a	0.10794349
39	0xbd4fc67c	-0.0507264
40	0xbd9c8d62	-0.07644154
41	0x3cfcfdc8	0.030882731
42	0xbd50e0cf	-0.050995644
43	0xbdb02e22	-0.08602549
44	0x3e3cf3a2	0.18452314
45	0x3e7e0a97	0.24808727
46	0xbcea1c91	-0.028578075
47	0xbd845e8c	-0.06463346
48	0x3b8a086f	0.004212431
49	0xbc8d331b	-0.017236283
50	0x3d8e21fc	0.06940076
51	0x3da5ad0d	0.080896474
52	0xbe863deb	-0.26219115
53	0xbdda2d76	-0.10653202
54	0x3e78efb0	0.24310184
55	0x3de64eb8	0.11245483
56	0xbc6b3dd1	-0.014358
57	0xbe323890	-0.1740439
58	0xbe34da04	-0.17661291
59	0xbe846555	-0.2585856
60	0xbdc0b60e	-0.09409724
61	0x3dc7a729	0.0974868
62	0x3e3c7bab	0.1840655
63	0x3e087ab2	0.13328055
64	0xbe82a5fe	-0.25517267
65	0xbe31c3c7	-0.1735984
66	0xbd3a9ac1	-0.04555774
67	0x3e8ef9d3	0.27924976
68	0x3d2b0b82	0.04175902
69	0xbd991af0	-0.07475841
70	0x3df49759	0.1194293
71	0xbde12e01	-0.10995103
72	0xbe3f54b8	-0.18684661
73	0x3e57c1d1	0.21070029
74	0xbe06694f	-0.1312611
75	0xbd6d08d9	-0.057869766
76	0xbe9308a2	-0.28717524
77	0x3e45d6b0	0.19320178
78	0x3e5ff596	0.21871027
79	0x3dd776d6	0.10520713
80	0xbe4e1dd8	-0.20128572
81	0xbe91df12	-0.28490502
82	0xbe701533	-0.23445587
83	0x3e5c6e75	0.21526511
84	0x3e0debbe	0.1385946
85	0x3e78c064	0.24292141
86	0x3e1adb91	0.1512282
87	0x3d95a139	0.073061414
88	0xbb394397	-0.0028269046
89	0xbe60cee1	-0.21953918
90	0xbe7d43c4	-0.24732882
91	0xbe8a3eff	-0.27001187
92	0x3df2047c	0.118172616
93	0xbe1121bc	-0.14173025
94	0xbd6df6b7	-0.058096614
95	0xbe2a1f0c	-0.16613406
96	0xbd5776ac	-0.05260341
97	0xbe500e52	-0.20317963
98	0xbe4126e0	-0.18862486
99	0x3dc41c12	0.095756665
100	0xbdafb459	-0.085793205
101	0x3e367d1c	0.17821163
102	0xbdbdaa0e	-0.09260951
103	0xbe58d84d	-0.21176262
104	0xbd509fad	-0.05093353
105	0xbe0f4aff	-0.13993452
106	0xbdb4dfec	-0.08831772
107	0xbe8cb4e0	-0.27481747
108	0x3e25632b	0.16151111
109	0xbe4dcce6	-0.20097694
110	0x3e149352	0.14509323
111	0x3e0623e0	0.13099623
112	0x3e53304e	0.20623896
113	0xbe62be3f	-0.22142886
114	0x3e5498d3	0.20761423
115	0xbe0bbf38	-0.13647163
116	0x3ddb60eb	0.10711845
117	0x3e8acd7f	0.27109906
118	0xbd26c209	-0.04071239
119	0xbb124e71	-0.0022324587
120	0xbd881d25	-0.06646184
121	0xbe76d300	-0.24103928
122	0x3e0ddc63	0.13853602
123	0xbe92b9b1	-0.28657296
124	0x3e3782b1	0.17920949
125	0x3e5d2d86	0.21599397
126	0x3e8bc6e8	0.2730019
127	0xbd8b741c	-0.068092555
128	0xbe72e14e	-0.2371876
129	0x3d84ebd1	0.06490291
130	0x3e234ca2	0.15947202
131	0xbe931bb9	-0.28732088
132	0xbd8631bb	-0.06552454
133	0xbe313377	-0.17304789
134	0xbcced62a	-0.025248606
135	0xbe117ffd	-0.1420898
136	0xbdf1aa87	-0.11800104
137	0xbdbbaf0d	-0.09164248
138	0xbe8c74de	-0.27432913
139	0x3e728b75	0.23686011
140	0x3e77d042	0.24200538
141	0xbd397beb	-0.045284193
142	0xbd06a7da	-0.03287492
143	0xbdf14881	-0.11781407

conv.bias f4 [4]
0	0x3d468700	0.04846859
1	0x3c5c0040	0.013427794
2	0x3f2f9281	0.6858292
3	0x3e66e36c	0.22547692
