utests/models/conv2dt_32_8x8x32_k5,5_s2,2_p2,2_op1,1.onnx (onnx, 102911 bytes, 2 tensors)

convt.weight f4 [32, 32, 5, 5]
000000 ee 1d 61 3c c7 d6 41 3a 97 60 4f bb 20 e9 ce 3b
       0.013740046 0.000739437 -0.0031643265 0.0063144118
000010 6f 80 e9 bc 28 bc 69 3c 9c 03 7e 3c 1b b7 b9 3b
       -0.028503625 0.014266051 0.01550379 0.00566758
000020 59 62 e6 3c 95 34 d0 3c 3c 9b e4 3b 7f a7 06 bd
       0.028123068 0.025415698 0.006976513 -0.03287458
000030 13 f9 d2 bc 53 0d 88 bc c7 e8 cf bc 29 b3 27 3c
       -0.025753533 -0.016607916 -0.025379552 0.010235586
000040 27 21 45 bc f4 4b 81 3a 3a 4a d1 3c df 15 bc bb
       -0.01203183 0.0009864555 0.02554809 -0.005739912
000050 a7 6f 42 bc 0d 1c 67 3b 1b 98 0d bd 62 38 fb 3c
       -0.01186744 0.0035264522 -0.034568887 0.030666534
000060 10 36 aa bc a0 2d 00 3d 18 60 09 3d 88 5d 3b bb
       -0.020777732 0.03129351 0.033538908 -0.0028589685
000070 75 34 71 bc 2a 42 3b 3b 13 a8 53 3c e4 38 f6 3c
       -0.014721979 0.0028573372 0.01291849 0.030056424
000080 11 27 a5 3c 99 79 62 3c c4 d6 18 bc 89 0b f8 bb
       0.02016023 0.013822936 -0.009328548 -0.0075697345
000090 94 c7 c4 3c 90 01 b0 3c b1 ab cf bc d6 aa 0a 3d
       0.024020948 0.02148512 -0.025350424 0.033854328
0000a0 d5 2a ac bc 9d 52 c5 bc 12 d0 54 bc db f9 c3 3c
       -0.021016518 -0.024087245 -0.012989061 0.023922851
0000b0 c5 a1 ec 3c c7 df 0c 3d 40 f0 43 3c 42 f0 2a bc
       0.028885731 0.0343931 0.0119591355 -0.0104332585
0000c0 26 bb a8 3c a4 20 38 3c d4 ac e9 3c 44 ec 08 3d
       0.020597052 0.011238251 0.028524794 0.033428445
0000d0 9f 89 03 3d 55 4c d7 bc 16 73 73 3c 6a 57 46 bc
       0.032113668 -0.026281515 0.014858982 -0.012105802
0000e0 db 6e 79 bc 5e 0d 35 3b c5 73 d1 3c e7 f3 93 bc
       -0.015224184 0.0027626376 0.025567899 -0.018060638
0000f0 8a a9 a1 3c a3 f2 cb 3c 1e 7b 20 bb 1c 53 dd bc
       0.019734163 0.024895972 -0.0024487446 -0.027017169
000100 1b 00 ee bc d7 fd a4 3c f8 00 f4 3b 25 eb 72 bb
       -0.029052785 0.020140572 0.0074464045 -0.0037066427
000110 f0 2b f0 3c ec 64 81 3c 81 65 8f 3c e9 c3 e6 3c
       0.029317826 0.015795194 0.017504456 0.02816959
000120 51 27 35 bb 4b a6 46 bc 0c 76 27 bb 97 d4 91 bc
       -0.0027641843 -0.012124608 -0.002555254 -0.017801566
000130 05 62 53 3c 96 24 08 3d 9f 73 95 bc fa 09 47 bb
       0.012901788 0.033238016 -0.018243609 -0.0030370937
000140 15 f5 b0 3a 73 c2 7f 3c cf 1a 76 3c cc 72 a3 bc
       0.0013500775 0.015610325 0.01502104 -0.0199522
000150 05 9a a0 3a 5b 29 7c 3c 83 48 dc bb 83 63 03 3d
       0.0012252933 0.015390719 -0.0067225113 0.032077324
000160 1f da 7d bc 95 a3 8b 3c 18 13 9f 3b e6 32 07 39
       -0.015493899 0.017045775 0.004854571 0.00012893564
000170 3b ee 85 bb 3f 25 a5 bb 4d 55 fe bc 43 5a 8d 3b
       -0.004087237 -0.0050398405 -0.031046534 0.0043137386
000180 a5 64 04 3d f2 31 e6 3c 2e 5d eb bc 01 1c ea 3b
       0.032322545 0.028099988 -0.028730955 0.0071444516
000190 74 84 13 3c e8 20 ef bc 43 e5 d6 bb f2 2c 10 3d
       0.009003747 -0.029190496 -0.006558092 0.035199113
0001a0 4c f2 fc 3b e2 cf 95 3c 30 e8 f7 bc 0a 65 00 bd
       0.0077193137 0.018287603 -0.030262083 -0.03134636
0001b0 53 bf d0 3c 6d d6 06 bd de e7 66 3a d3 cf be bb
       0.025481855 -0.032919336 0.00088083546 -0.0058231144
0001c0 d4 7c db bb 4f ec cc bc 99 e7 21 bc 2f b1 c0 ba
       -0.0066982303 -0.025015024 -0.009881877 -0.0014701242
0001d0 c1 93 07 bd 8d 67 d3 3b db 00 4e 3c df a4 57 3c
       -0.033099893 0.006451553 0.012573446 0.013161867
0001e0 96 c0 04 bd dd de c0 3c d6 ef df 3b b8 1f d1 3c
       -0.032410227 0.02354377 0.0068340106 0.02552782
0001f0 8e cd 0f 3c d6 5c 29 3c 4c 6f 07 3d fc 6f f4 3c
       0.008777035 0.010337075 0.033065125 0.029838555
000200 cf f7 6c bc 81 35 62 bc d8 3f 64 3c 51 a1 0d 3d
       -0.014463379 -0.013806702 0.013931237 0.03457767
000210 24 28 c9 bc 86 76 ec 3c a1 fb df 3c 08 17 0f 3c
       -0.024555273 0.02886511 0.027341666 0.008733518
000220 39 e3 c1 bb a0 f0 e6 3c 9f b3 b0 bc c6 0d 3e 3c
       -0.0059169796 0.02819091 -0.021570025 0.0115999635
000230 ad b7 5f 3c 4e 74 e9 bc 5d ee bd 3a 41 3a 7a 3c
       0.013654632 -0.028497841 0.0014490593 0.015272678
000240 df 06 a7 3c 60 07 08 3d cf fa d2 bc b1 68 0e bd
       0.020389019 0.03321016 -0.02575436 -0.03476781
000250 26 11 2c bc 27 ea 0d 3d fe 85 29 bc 98 a1 cc 3c
       -0.010502135 0.034647133 -0.010346888 0.024979398
000260 3e 53 0f bc cd 70 d0 bc 93 91 79 bb 70 46 e4 3c
       -0.008747874 -0.025444413 -0.0038081154 0.027865618
000270 41 8a c7 3c 00 04 88 bc 2a 22 7f bc c0 4c de 3c
       0.024357917 -0.01660347 -0.01557211 0.027136207
000280 0a b0 85 bb c7 4e f0 3c 9b 81 01 3c 77 dc af 3c
       -0.0040798234 0.029334439 0.0079044355 0.02146743
000290 a6 68 dd bc ee bd ec bc ea d7 2c 3c 63 a2 e5 bc
       -0.02702744 -0.02889916 0.010549525 -0.028031534
0002a0 bd d6 38 bc 53 d7 0a bc c8 64 44 bc b6 1c 4b 3c
       -0.011281666 -0.008474189 -0.011986919 0.012396982
0002b0 b9 68 e4 bc c0 99 09 3d 83 fa 0b bc 8e a2 0c 3d
       -0.027881967 0.033593893 -0.008543613 0.03433471
0002c0 a5 c9 f4 3a a0 57 1c bc 45 92 71 bc d9 88 db bc
       0.0018675817 -0.009542376 -0.014744346 -0.026798652
0002d0 b9 73 9e bc 2e 5b 1a 3c 1b 9f d2 bc ad 26 dc bc
       -0.01934229 0.009421153 -0.025710633 -0.02687391
0002e0 1c 4c a5 3c 27 7d d6 3c 2c b2 79 3b b4 06 f5 bc
       0.020177893 0.026182724 0.0038100583 -0.029910423
0002f0 e2 e3 84 3c 12 9e d3 bb b6 49 a8 bc bd 55 89 3c
       0.016221944 -0.0064580524 -0.02054296 0.016764516
000300 52 fd a3 bb 67 f2 3a bb d5 38 bb ba 4f b1 c0 bc
       -0.0050045634 -0.002852583 -0.0014283905 -0.023522047
000310 c4 a6 d2 3c 51 e2 0c 3d ca a6 ae bc 56 db ed 3c
       0.025714286 0.03439552 -0.021319766 0.029035252
000320 1f 4d f8 bb 69 a1 48 3a 89 4e 60 3c f1 02 0b 3d
       -0.007577553 0.00076534465 0.013690599 0.033938352
000330 10 2f dd bb 80 9c ee bc 31 33 d0 bc 05 48 b5 bc
       -0.006749995 -0.02912736 -0.025415035 -0.022129068
000340 6d 47 e5 3c b2 a7 05 bd 42 8e 26 bb 43 bc ff bb
       0.02798816 -0.03263063 -0.0025414382 -0.007804425
000350 59 57 eb bc 5f 92 05 3d 13 67 dd 3c e0 11 b6 3c
       -0.028728174 0.032610293 0.027026689 0.02222532
000360 c5 d4 89 bc f7 d1 22 ba 74 8c 1d 3c 16 34 9a bc
       -0.01682509 -0.0006211097 0.009616006 -0.018823665
000370 2b d7 94 bc 70 30 4b bc 58 ac 2a 3c 5d d8 87 3a
       -0.018169006 -0.012401685 0.0104170665 0.0010364164
000380 9a 43 35 3c 65 a5 81 3c 8d 22 db bc cd 6e e5 bc
       0.011063481 0.015825937 -0.026749874 -0.028006935
000390 6d c5 df bc e7 88 5b bc ab 57 e7 3c 5f d5 d6 bc
       -0.02731582 -0.013399339 0.028240046 -0.02622479
0003a0 1a 38 ec 3c 22 2e a1 3c 00 2a fa 3c 2a 51 86 bc
       0.028835345 0.019675318 0.030537605 -0.016396124
0003b0 ad 74 33 bc 4b 09 7f 3b bd 62 03 3c 61 49 04 3c
       -0.010953111 0.003891545 0.0080191465 0.0080741355
0003c0 e3 74 d5 bc 51 ea 8c bc 25 bd 76 3b 45 c9 ce 3c
       -0.026056712 -0.017201575 0.003764936 0.025242457
0003d0 ee 21 07 3b ca 0a 28 bc 3a 79 cc bc f3 fb a5 3c
       0.002061959 -0.010256479 -0.02496015 0.02026174
0003e0 c1 d7 c4 bc ab 51 b2 3c b7 db bb bb cf 49 75 bc
       -0.02402866 0.021767458 -0.005732979 -0.014971211
0003f0 39 83 ce bc 74 62 02 bd 8e 4d 07 bd 4b 9c dc bc
       -0.025209056 -0.031832173 -0.033032946 -0.026929995

convt.bias f4 [32]
000000 d2 70 09 3d 72 b9 50 bc be be e1 bb 39 d0 fa 3c
       0.03355486 -0.012739526 -0.0068891933 0.030616866
000010 8f 28 a8 bb eb 5f b9 3a 80 ff 6a bc a4 73 cc bc
       -0.005131788 0.0014142966 -0.0143431425 -0.024957485
000020 05 bf 53 3c eb 34 c5 3c 42 cd 33 bc 25 07 ac 3b
       0.012923961 0.024073085 -0.01097423 0.005249875
000030 12 79 88 bc 49 12 85 3b 4f 1b 25 bc 82 af 14 bc
       -0.016659293 0.0040610177 -0.010077312 -0.009075047
000040 a3 ad f3 3b 75 2d 22 3c 39 7c ec 3b d7 52 b3 3c
       0.0074364706 0.009898533 0.007216957 0.021890087
000050 32 70 e0 bc 15 60 c7 bc 25 d3 ea bc cb bc 0e bd
       -0.027397249 -0.024337808 -0.028665135 -0.034848016
000060 18 2c 50 bc 59 46 fc bc af 07 03 3d 52 6b d9 3c
       -0.012705825 -0.030795263 0.03198975 0.026540432
000070 71 3b ab 3c 6e dd 05 3d 47 a8 06 bd f4 5a d5 3c
       0.020902367 0.032681875 -0.032875326 0.026044346
