utests/models/conv2d_4_8x8x4_k5x5s2,1_g1_p2,2.onnx (onnx, 1938 bytes, 2 tensors)

conv.weight f4 [4, 4, 5, 5]
-0.042625863 -0.15685274 -0.16285737 -0.08279464 -0.088043846 0.053962667 -0.05042186 -0.06776166
0.16513889 0.06033129 0.1234783 -0.083850786 -0.07074852 0.06365988 -0.11540224 -0.11322486
-0.008365748 -0.06335161 -0.12984458 0.10273814 0.13928509 0.028097905 -0.030157303 -0.16043518
-0.063088 0.044095524 0.08167155 -0.021896156 -0.06847712 0.09651438 -0.13794048 0.10946872
-0.06719574 0.002650973 -0.03422807 0.0209992 -0.0523423 0.12594208 -0.0045028403 0.1352038
0.1665333 -0.08438395 -0.12635468 0.13896278 0.13572592 -0.13225026 -0.013389322 -0.17080209
-0.14178552 0.033453267 0.046078544 0.036716197 -0.047140308 0.15979515 0.024764508 -0.10220568
-0.0098057985 0.041594367 0.060655147 -0.12246999 0.06491546 -0.0884873 -0.14392309 -0.0946059
0.1670406 0.14806572 0.15510245 0.10167332 0.13084769 -0.023183454 -0.09530226 0.08654305
-0.089751884 -0.11689019 -0.055310275 0.03634869 0.08916539 -0.067274414 -0.10194267 0.023364162
-0.102092825 -0.112767145 0.090283476 -0.029095786 0.15827219 0.16849089 0.051806595 0.05960986
0.039886314 0.0027125443 -0.01259763 0.0023805506 0.064679064 0.16104102 -0.04488767 -0.07321652
-0.041944183 -0.08367957 0.029451566 0.12928866 0.13544247 0.07952287 -0.12746708 -0.09295999
-0.038055133 -0.03192588 0.014245725 -0.15899733 0.053909168 -0.13213332 -0.10959459 -0.14399967
0.150917 -0.16401479 0.13066015 -0.005822618 -0.020143542 0.108336054 -0.016008932 0.108626276
0.12522987 -0.15037839 0.06664654 0.03269748 0.03724112 0.02528646 0.04737695 -0.08332322
-0.022160053 0.16456561 0.11636774 -0.0065070465 -0.16290472 0.0075911926 -0.11794807 0.1408489
-0.10515062 -0.012505685 -0.038441595 0.030822508 0.16299076 0.016457811 0.10031415 0.13444553
0.1398304 -0.059816625 -0.038738467 0.08347407 -0.04726207 0.0811057 -0.03783972 -0.11747675
0.070501976 0.026555464 0.0772232 0.17207682 0.118252814 0.16419515 0.009270425 -0.14899318
-0.12150808 -0.107590444 -0.15263669 -0.08681861 -0.15944701 -0.15980165 -0.10349949 -0.17075144
-0.106315434 0.0660446 0.14446218 -0.051522072 -0.05038168 0.09248342 -0.085454345 -0.081897
0.10671676 -0.15091386 0.021178609 0.15300624 0.029702332 0.04710205 -0.100873105 -0.0023896357
0.009523586 0.042510465 0.06729814 0.15050271 -0.13220735 0.0051918733 -0.086539544 -0.13701628
-0.013869856 -0.1524615 0.12087969 0.020059712 -0.09335028 0.09051335 -0.16392612 -0.06699559
-0.033743594 -0.14718106 -0.11013909 -0.028270293 0.13142188 0.16725622 0.110203885 -0.10342491
-0.11331443 0.15115489 0.06126566 0.00460166 0.023440208 -0.13920435 -0.05783065 0.16673034
-0.042717952 -0.008688677 -0.14381756 -0.096892156 -0.003536778 -0.10758797 -0.021479094 0.070487395
-0.16942528 0.051444 -0.11452461 -0.084532924 0.06649511 0.13771886 -0.047338445 -0.07111265
-0.15661824 -0.08931453 -0.15166476 -0.039641533 0.035343435 -0.16227163 0.1512277 0.108667284
-0.16955839 -0.08272846 0.056491733 -0.035586644 -0.01887528 -0.07820481 0.13912171 -0.09682133
0.14363495 0.011175584 0.034817994 0.13512279 -0.028538238 -0.09861316 -0.028013188 0.14047857
00000000: 7598 2ebd 019e 20be 15c4 26be 3c90 a9bd
00000010: 5550 b4bd f507 5d3d 2787 4ebd a0c6 8abd
00000020: 2b1a 293e f11d 773d 31e2 fc3d f6b9 abbd
00000030: 9ae4 90bd 1c60 823d 0258 ecbd 6fe2 e7bd
00000040: 7e10 09bc 7dbe 81bd faf5 04be 6068 d23d
00000050: c0a0 0e3e 942d e63c 730c f7bc 1f49 24be
00000060: 4834 81bd 829d 343d 6a43 a73d 915f b3bc
00000070: bb3d 8cbd 55a9 c53d 4540 0dbe 2331 e03d
00000080: ec9d 89bd f2bb 2d3b bc32 0cbd 8406 ac3c
00000090: e164 56bd f6f6 003e 908c 93bb dd72 0a3e
000000a0: b587 2a3e 7ed1 acbd 1f63 01be 424c 0e3e
000000b0: bcfb 0a3e 9d6c 07be e35e 5bbc bee6 2ebe
000000c0: 3930 11be 4b06 093d dbbc 3c3d b963 163d
000000d0: 3216 41bd 57a1 233e f0de ca3c 3651 d1bd
000000e0: 80a8 20bc db5e 2a3d 8871 783d 8cd1 fabd
000000f0: 66f2 843d d438 b5bd 9360 13be bdc0 c1bd
00000100: b10c 2b3e 8a9e 173e 2dd3 1e3e 1a3a d03d
00000110: f0fc 053e 3aeb bdbc d52d c3bd 7c3d b13d
00000120: d6cf b7bd 2064 efbd 078d 62bd 5de2 143d
00000130: 589c b63d 2bc7 89bd 52c7 d0bd 3366 bf3c
00000140: 0b16 d1bd 76f2 e6bd 8be6 b83d 495a eebc
00000150: 1b12 223e e088 2c3e 2733 543d 7829 743d
00000160: d55f 233d f1c4 313b 4a66 4ebc 0303 1c3b
00000170: 7576 843d f0e7 243e 22dc 37bd 8bf2 95bd
00000180: aacd 2bbd 3260 abbd 6944 f13c 3f64 043e
00000190: 6eb1 0a3e e3dc a23d bb86 02be cf61 bebd
000001a0: b3df 1bbd b6c4 02bd e766 693c 32d0 22be
000001b0: dccf 5c3d f54d 07be 2173 e0bd a674 13be
000001c0: fc89 1a3e 7ef3 27be c6cb 053e a9cb bebb
000001d0: 1204 a5bc 4bdf dd3d 2a25 83bc 7477 de3d
000001e0: 423c 003e cbfc 19be fb7d 883d cbed 053d
000001f0: 258a 183d 8d25 cf3c 550e 423d 5da5 aabd
00000200: 0089 b5bc e383 283e 3652 ee3d 1039 d5bb
00000210: 7fd0 26be 8abf f83b c28e f1bd b23a 103e
00000220: 3559 d7bd a5e4 4cbc ef74 1dbd 7c7f fc3c
00000230: 0de7 263e 88d2 863c 8171 cd3d 17ac 093e
00000240: b32f 0f3e 4702 75bd 3aac 1ebd 74f4 aa3d
00000250: df95 41bd bf1a a63d d2fd 1abd a697 f0bd
00000260: 5763 903d d88a d93c 3227 9e3d e834 303e
00000270: 882e f23d c622 283e fbe2 173c ab91 18be
00000280: 3ad9 f8bd 6158 dcbd cb4c 1cbe f5cd b1bd
00000290: 1446 23be 0ba3 23be 8af7 d3bd 77d9 2ebe
000002a0: e8bb d9bd 6442 873d e5ed 133e cf08 53bd
000002b0: 055d 4ebd f367 bd3d b002 afbd 9db9 a7bd
000002c0: 518e da3d 2a89 1abe c37e ad3c abad 1c3e
000002d0: 4e52 f33c 14ee 403d 8f96 cebd 6f9b 1cbb
000002e0: d108 1c3c 741f 2e3d 9bd3 893d 621d 1a3e
000002f0: 5d61 07be 9720 aa3b a53b b1bd ff4d 0cbe
00000300: 643e 63bc de1e 1cbe c58f f73d 4454 a43c
00000310: 6e2e bfbd 105f b93d 40dc 27be fc34 89bd
00000320: b936 0abd a2b6 16be 9a90 e1bd 1a97 e7bc
00000330: 7593 063e 3745 2b3e 93b2 e13d 70d0 d3bd
00000340: 6511 e8bd 59c8 1a3e b3f1 7a3d 86c9 963b
00000350: ae05 c03c 968b 0ebe d5df 6cbd 5cbb 2a3e
00000360: 05f9 2ebd f45a 0ebc e944 13be 656f c6bd
00000370: 4ac9 67bb 1557 dcbd edf4 afbc b25b 903d
00000380: d27d 2dbe f2b6 523d e18b eabd 991f adbd
00000390: 972e 883d 2c06 0d3e f5e5 41bd 82a3 91bd
000003a0: 8860 20be 89ea b6bd 024e 1bbe 295f 22bd
000003b0: 47c4 103d 892a 26be 6fdb 1a3e f48c de3d
000003c0: b7a0 2dbe 8a6d a9bd e063 673d 4dc3 11bd
000003d0: 55a0 9abc d829 a0bd ec75 0e3e 434a c6bd
000003e0: 0a15 133e cc19 373c 509d 0e3d a15d 0a3e
000003f0: 06c9 e9bc b2f5 c9bd ea7b e5bc 9dd9 0f3e

conv.bias f4 [4]
0.34460813 0.11966437 0.5731115 0.7422309
00000000: 7a70 b03e 9812 f53d 6fb7 123f d802 3e3f
