utests/models/conv2d_4_9x8x4_k1x1s2,1_g1_p0,0.onnx (onnx, 400 bytes, 2 tensors)

conv.weight f4 [4, 4, 1, 1]
0	0xbecc4afd	-0.39900962
1	0xbdcfff5b	-0.10156127
2	0xbeb417b7	-0.35174343
3	0x3f13122d	0.5744961
4	0xbf2f015e	-0.6836146
5	0xbecc6a0f	-0.39924666
6	0xbe7a69a9	-0.24454369
7	0xbf054db9	-0.5207172
8	0x3da76659	0.08173818
9	0xbf5af88f	-0.8553552
10	0x3f4838b7	0.7821154
11	0xbf3c5448	-0.73566103
12	0x3f2b2910	0.6685953
13	0x3e139509	0.14412321
14	0xbe8ff9c2	-0.28120238
15	0x3f090045	0.53516036

conv.bias f4 [4]
0	0x3f13f2eb	0.5779254
1	0x3f676b58	0.9039817
2	0x3f0dfe30	0.55465984
3	0x3eaf43b4	0.3423134
