utests/models/conv2d_4_9x8x4_k3x1s1,1_g1_p1,0.onnx (onnx, 530 bytes, 2 tensors)

conv.weight f4 [4, 4, 3, 1]
-0.38351142 0.41026944 0.14401567 0.20710677 0.15813059 -0.008697987 0.39130414 -0.3552568
0.031481862 -0.3412701 0.154176 -0.17219114 0.15320814 -0.10417074 0.41469592 -0.29635096
-0.298199 -0.298217 0.4497214 0.16662556 0.48112535 -0.41263813 -0.49593806 -0.3911819
-0.33634454 0.20252007 0.17903793 0.4154622 -0.2582127 -0.3408559 0.26528907 -0.20210224
0.3034619 -0.11865032 0.28602296 -0.388484 -0.25232488 0.15243822 0.10570377 -0.12747937
0.29803473 0.3399046 -0.36258668 -0.2669341 0.45783097 -0.16871625 -0.1772582 -0.4837973
00000000: 9c5b c4be d60e d23e d878 133e cc13 543e
00000010: fcec 213e 0082 0ebc 0459 c83e 38e4 b5be
00000020: 20f3 003d f4ba aebe 50e0 1d3e e052 30be
00000030: 98e2 1c3e 7857 d5bd 0653 d43e 50bb 97be
00000040: 8aad 98be e6af 98be e241 e63e e49f 2a3e
00000050: 1056 f63e 4e45 d3be 98eb fdbe fe48 c8be
00000060: 5a35 acbe 6c61 4f3e b855 373e 76b7 d43e
00000070: 7434 84be aa84 aebe f8d3 873e e4f3 4ebe
00000080: 5c5f 9b3e f0fe f2bd 9a71 923e 60e7 c6be
00000090: ba30 81be c418 1c3e 387b d83d f489 02be
000000a0: 0298 983e fa07 ae3e f6a4 b9be 96ab 88be
000000b0: d268 ea3e f4c3 2cbe 2c83 35be 48b4 f7be

conv.bias f4 [4]
0.21366489 0.62490183 0.4340034 0.137057
00000000: f8ca 5a3e 91f9 1f3f b235 de3e ac58 0c3e
