utests/models/EE1-1.10_model0.onnx (onnx, 229608 bytes, 72 tensors)

model/output_layer/Conv2D/ReadVariableOp:0 f4 [6, 24, 3, 3]
-0.0044829138 0.051874883 -0.0119190905 0.040319577 -0.049744453 0.008478649 0.008938741 -0.011417141
-0.02265333 0.000569224 -0.031038772 0.0040244376 -0.05250717 0.010380121 0.005508459 0.027723668
0.0098138675 -0.004674483 0.0018961099 -0.065453485 -0.022562617 0.0661748 -0.011217693 -0.0064188796
-0.0183388 0.0099712135 0.0030641267 0.031210406 -0.0035509358 0.002508369 -0.024409203 -0.0010208334
-0.005668357 0.025339298 -0.0048844945 0.0048799673 -0.004040903 0.03870728 -0.021629563 -0.059206896
0.04082207 -0.0032072398 -0.005169768 -0.008298038 0.0016636247 0.025926333 -0.003845693 -0.026308572
-0.040528968 0.07155272 -0.0246806 0.044843968 -0.019563666 -0.034896653 -0.049861345 -0.12806757
0.015730947 -0.02074069 0.09040059 -0.021297943 0.014622884 0.01853189 -0.008409285 0.028287426
-0.09300933 0.004839154 0.061745543 -0.07724651 0.018579077 -0.006259065 0.014753413 -0.009614057
-0.0043161544 -0.033227567 0.022902874 -0.023293594 -0.07113242 0.020756945 0.037413787 0.0066876225
0.03107359 0.00011235557 -0.06071297 -0.0063430974 0.020095028 0.03286632 0.0120001035 0.00039061543
0.0022168132 0.04489718 -0.0059395595 -0.0017570342 -0.009845446 0.005051646 0.023574209 -0.008835577
-0.030669225 -0.042754132 0.009944818 -0.03631236 0.019064121 -0.00023647913 0.006444999 -0.030040883
0.00032344984 0.023582531 0.014026411 0.027759615 -0.004461506 0.003002408 -0.01386171 -0.033037074
0.052798703 -0.0059188944 0.050307296 -0.010616049 -0.0398633 -0.027950982 -0.026620124 0.01579175
0.1112539 -0.041358665 -0.024836453 0.02298527 -0.001328837 -0.022575412 0.015832577 -0.08388551
0.04484052 -0.050050784 -0.060886532 0.041609228 -0.0147075895 0.029872281 0.014601519 -0.0063820016
-0.051907923 0.0021555615 0.083005875 -0.049731098 -0.008806133 -0.026984941 -0.006818695 -0.015721783
0.002888704 -0.011425766 0.013407533 0.084221505 0.012848795 0.0064595477 0.029996162 -0.00327151
0.012969424 0.005417459 -0.009842189 -0.018997865 0.012485443 0.015687894 -0.023060318 0.044505954
-0.008562737 -0.016772617 0.017688977 -0.067236915 0.036562447 0.010706481 -0.13090749 0.039939
0.06715595 0.040928103 -0.00363379 -0.014239919 0.0012034785 0.0436204 -0.035570282 -0.025114443
0.0172159 -0.027821273 0.042965155 -0.0056315437 -0.013040889 -0.06238996 0.012528907 0.010361964
-0.005096831 0.0081184935 0.026496997 -0.0045994488 0.0047672526 -0.0066067213 0.018423548 -0.011765774
-0.059702553 0.060255427 -0.03869065 0.031296227 0.02506087 0.024125742 -0.008281696 -0.046637934
0.0018644838 0.004447624 -0.016730858 0.019885378 0.03702039 0.025200495 0.0442371 0.030513383
0.050617922 0.0068632234 0.010470117 -0.020462675 0.010093538 -0.024591027 -0.014188058 -0.0031027698
-0.0053797974 -0.047918387 0.005822757 -0.030597737 0.120340616 -0.044892225 0.011342574 -0.030938128
0.02547196 -0.022780582 0.014860505 -0.031953104 0.004269611 0.11815727 0.008253581 -0.01941424
-0.02035944 -0.02896182 0.006639576 -0.014221251 0.056090146 -0.032478724 0.031290263 0.026352733
0.0068317587 0.005600445 0.016004058 -0.010584846 -0.032895695 0.012287905 -0.016070986 0.07005852
-0.010797026 -0.006566652 -0.003405889 -0.0028609629 0.0034004962 -0.006589016 -0.002750443 0.021479355
00000000: 68e5 92bb c27a 543d 4a48 43bc 2426 253d
00000010: d7c0 4bbd 08ea 0a3c cc73 123c f60e 3bbc
00000020: 7a93 b9bc fa37 153a 0645 febc 6edf 833b
00000030: c211 57bd 6211 2a3c 4e80 b43b bf1c e33c
00000040: 58ca 203c 682c 99bb e486 f83a 7a0c 86bd
00000050: 3dd5 b8bc a786 873d 6aca 37bc 7755 d2bb
00000060: 403b 96bc 4d5e 233c 84cf 483b f7ac ff3c
00000070: d1b6 68bb 7363 243b cff5 c7bc 7ccd 85ba
00000080: a0bd b9bb 5c94 cf3c 1c0e a0bb 22e8 9f3b
00000090: 8d69 84bb 868b 1e3d 7b30 b1bc ee82 72bd
000000a0: 0b35 273d 8e30 52bb 2867 a9bb 7ef4 07bc
000000b0: fb0d da3a 7663 d43c 0608 7cbb 1385 d7bc
000000c0: b401 26bd 3c8a 923d f82e cabc 4fae 373d
000000d0: fb43 a0bc cbef 0ebd 693b 4cbd 2524 03be
000000e0: 30de 803c 61e8 a9bc f223 b93d 0679 aebc
000000f0: d294 6f3c 31d0 973c 19c7 09bc 08bb e73c
00000100: ad7b bebd c491 9e3b e5e8 7c3d 6b33 9ebd
00000110: 2633 983c d818 cdbb 4db8 713c 4784 1dbc
00000120: 876e 8dbb a119 08bd cf9e bb3c 35d2 bebc
00000130: e0ad 91bd 780a aa3c 333f 193d d823 db3b
00000140: 0b8e fe3c 70a0 eb38 2aae 78bd c2d9 cfbb
00000150: 549e a43c d69e 063d 159c 443c 84cb cc39
00000160: f447 113b 1be6 373d a3a0 c2bb 494c e6ba
00000170: cb4e 21bc 4788 a53b b31e c13c 19c3 10bc
00000180: 073e fbbc f51e 2fbd 97ef 223c 45bc 14bd
00000190: 5c2c 9c3c 62f7 77b9 9230 d33b 4c18 f6bc
000001a0: b494 a939 2730 c13c 08cf 653c 2268 e33c
000001b0: d331 92bb 0cc4 443b 3a1c 63bc e251 07bd
000001c0: 7443 583d 49f3 c1bb 060f 4e3d f0ee 2dbc
000001d0: b347 23bd 75f9 e4bc 7212 dabc b35d 813c
000001e0: 16d9 e33d b467 29bd d175 cbbc 9b4b bc3c
000001f0: 5f2c aeba 12f0 b8bc 52b3 813c 2bcc abbd
00000200: b1aa 373d 0d02 4dbd 2864 79bd 706e 2a3d
00000210: 1af8 70bc b7b6 f43c 363b 6f3c 1c20 d1bb
00000220: 679d 54bd 5244 0d3b fcfe a93d d6b2 4bbd
00000230: 9947 10bc 860f ddbc 5c6f dfbb f8ca 80bc
00000240: 6950 3d3b 2333 3bbc 45ab 5b3c 537c ac3d
00000250: c183 523c 9daa d33b 83ba f53c d466 56bb
00000260: b57d 543c f184 b13b 2241 21bc 69a1 9bbc
00000270: be8f 4c3c e683 803c fee8 bcbc e04b 363d
00000280: b94a 0cbc ba66 89bc 79e8 903c 82b3 89bd
00000290: 81c2 153d 3c6a 2f3c 9d0c 06be 1497 233d
000002a0: 0f89 893d 3aa4 273d e124 6ebb 8d4e 69bc
000002b0: 0abe 9d3a 4eab 323d 25b2 11bd cebc cdbc
000002c0: 5c08 8d3c 70e9 e3bc 3bfc 2f3d d088 b8bb
000002d0: 74a9 55bc 9d8c 7fbd 0b46 4d3c 3ac5 293c
000002e0: 5103 a7bb 6e03 053c 3b10 d93c f9b6 96bb
000002f0: 9d36 9c3b 327d d8bb fbec 963c 3cc5 40bc
00000300: aa8a 74bd 65ce 763d 167a 1ebd 7930 003d
00000310: 744c cd3c 59a3 c53c f3af 07bc 6b07 3fbd
00000320: b261 f43a 60bd 913b 270f 89bc a9e6 a23c
00000330: b1a2 173d 4571 ce3c f631 353d 34f7 f93c
00000340: bd54 4f3d e4e4 e03b db8a 2b3c 57a1 a7bc
00000350: 5e5f 253c 1f73 c9bc 0775 68bc d757 4bbb
00000360: 0349 b0bb 1246 44bd d3cc be3b 1ba8 fabc
00000370: 2475 f63d e9e0 37bd 34d6 393c f571 fdbc
00000380: 92aa d03c 589e babc 7a79 733c 42e1 02bd
00000390: 18e8 8b3b 70fc f13d 073a 073c 9d0a 9fbc
000003a0: d7c8 a6bc 5741 edbc cd90 d93b 4000 69bc
000003b0: c8be 653d 6908 05bd 382a 003d b0e1 d73c
000003c0: f2dc df3b f083 b73b f11a 833c 106c 2dbc
000003d0: a3bd 06bd 3653 493c 4da7 83bc d77a 8f3d
000003e0: 02e6 30bc 122d d7bb 5635 5fbb fe7e 3bbb
000003f0: dcda 5e3b ace8 d7bb c740 34bb 79f5 af3c

model/output_layer/BiasAdd/ReadVariableOp:0 f4 [6]
-0.00010935884 -8.8811896e-05 -0.00010756385 -0.00010047153 -0.00012642115 -0.00011536261
00000000: 9557 e5b8 8640 bab8 e793 e1b8 3eb4 d2b8
00000010: eb8f 04b9 d4ee f1b8

model/hidden_9_3d_hidden_10_1/Conv2D/ReadVariableOp:0 f4 [72, 24, 1, 1]
0.0796535 0.19934036 0.020717025 -0.66145295 0.36808932 -0.8281908 0.7669852 0.032191694
0.00865882 -0.21560602 -0.28807917 0.21120304 0.41588548 -0.44605997 -0.32281002 -0.18009552
-2.4087062 0.02879411 -0.3850652 0.53849494 -0.02295192 0.5263524 0.06836003 -0.20751747
0.28366357 0.13969472 -0.0089080315 -0.04021278 0.010441899 0.09973404 0.11571333 -0.076951
0.0020593833 -0.16402698 0.009261224 0.009728076 -0.083576456 -0.055944376 0.24024692 -0.2138156
0.18815374 0.018794842 -0.10350919 0.3834541 0.11111305 0.16790111 -0.011086678 -0.6022059
0.15250301 0.0122625455 0.010395358 -0.02486335 -0.18619755 -0.14454854 -0.09148389 0.035200447
-0.063404806 0.0026222405 -0.042895272 0.005246326 -0.14085779 -0.028532533 0.21263582 0.10139441
-0.28937235 -0.00798778 0.013159791 -0.07463838 0.13796341 -0.07590055 -0.02577005 -0.774882
0.75796205 -0.1616317 0.4410268 0.10647653 -0.007760033 -0.44725022 -0.7881105 -0.13688725
-0.24225059 0.014990998 -0.0068128956 0.17009175 -0.13751945 -0.1200777 0.61478376 -0.1038065
0.49950346 -0.07547527 0.18656856 -0.2799568 0.15019995 -0.21090922 -0.13131236 -2.468498
-0.8791915 0.22736976 0.037328545 0.043883458 -0.072244525 0.9514338 0.033575427 0.2537486
0.18055955 0.17569737 -0.06291128 0.01834154 0.08795266 0.42194986 0.21482603 -0.26257375
-0.21339649 0.023694837 -0.046763994 0.38371623 0.1479132 0.11215508 -0.09121089 1.8312756
0.12174824 0.040616997 0.01590807 0.023869045 -0.008582389 0.5400859 0.31147182 -0.12520602
0.050317563 0.0021154901 -0.02214761 -0.0014850564 0.06517919 0.035581857 0.20522192 -0.31043234
0.059013665 0.022176655 -0.11157623 0.19807135 0.1635153 -0.0074101347 0.09572991 0.24173334
-0.5550533 0.14266194 0.015922865 -0.081822276 0.0046800384 0.6847563 0.45129517 -0.16654998
0.029435502 0.1639937 0.06048807 0.01631396 -0.16762829 -0.05516976 0.2685944 -0.25548866
0.022972375 0.022088632 -0.076464646 0.7593442 0.2459008 0.38443974 -0.03311196 0.980258
0.1705806 -0.16015506 0.011515268 0.15040393 -0.37101388 0.2403054 -0.24198912 0.027541732
-0.14066033 0.06064765 -0.014263191 0.35386166 -0.055832393 0.08003363 0.006714983 0.021354152
0.775205 -0.02725482 0.04735013 -0.12259425 0.10680044 -0.10803251 -0.0294833 0.20483726
2.2948968 0.14315073 -0.05123465 -0.2511151 0.06997936 -1.0401974 0.057378568 0.049821883
-0.016753014 -0.2935084 0.16593693 0.04896428 -0.10284962 -0.21743031 0.40160888 -0.0059237834
0.27673247 -0.22354925 -0.03545797 -0.6348359 0.30829376 -0.39006698 0.027050197 -4.507161
0.22968593 -0.22692372 0.041284617 -0.14399736 -0.1004605 0.14147119 -0.30824065 -0.18263143
-0.13565598 -0.10170871 0.056868725 -0.007902959 -0.14063376 -0.43815142 0.3452363 -0.19535267
0.028869733 -0.023594692 0.0467523 0.4480129 -0.06016364 0.1715976 0.044037506 -0.93653023
1.1207587 0.08884593 0.08755976 -0.09383214 0.11951532 -0.4383887 0.24561301 -0.34705088
-0.15938161 -0.17784557 0.06620697 0.3344681 -0.22636312 -0.7078855 0.4643056 -0.01099035
00000000: 6021 a33d e11f 4c3e c0b6 a93c fb54 29bf
00000010: 3476 bc3e 5004 54bf 2459 443f 70db 033d
00000020: b9dd 0d3c d3c7 5cbe 1d7f 93be 9c45 583e
00000030: f1ee d43e f961 e4be 5b47 a5be f66a 38be
00000040: 3e28 1ac0 a0e1 eb3c 4427 c5be ceda 093f
00000050: aa05 bcbc 08bf 063f 5800 8c3d 767f 54be
00000060: 5a3c 913e 220c 0f3e fef2 11bc 28b6 24bd
00000070: 8014 2b3c 5c41 cc3d 1cfb ec3d 7c98 9dbd
00000080: b8f6 063b b0f6 27be 64bc 173c 8262 1f3c
00000090: 222a abbd ee25 65bd 4a03 763e 7af2 5abe
000000a0: 60ab 403e a4f7 993c a0fc d3bd 1954 c43e
000000b0: 3d8f e33d 45ee 2b3e e6a4 35bc 2a2a 1abf
000000c0: c029 1c3e d8e8 483c 4b51 2a3c 39ae cbbc
000000d0: 92aa 3ebe 8804 14be e85b bbbd 582e 103d
000000e0: 61da 81bd e5d9 2b3b f4b2 2fbd 5fe9 ab3b
000000f0: 063d 10be 0fbd e9bc 34bd 593e dfa7 cf3d
00000100: 9d28 94be 2ddf 02bc 2a9c 573c 02dc 98bd
00000110: 4846 0d3e bf71 9bbd b61b d3bc ab5e 46bf
00000120: cd09 423f c882 25be 44ce e13e 5e10 da3d
00000130: e047 febb fbfd e4be 9cc1 49bf 2c2c 0cbe
00000140: 8a10 78be ce9c 753c b63e dfbb 882c 2e3e
00000150: e6d1 0cbe 4ceb f5bd 7862 1d3f 8198 d4bd
00000160: ebbe ff3e c792 9abd d40b 3f3e 7f56 8fbe
00000170: 04ce 193e 96f8 57be bf76 06be dffb 1dc0
00000180: b212 61bf 9ed3 683e d1e5 183d 24bf 333d
00000190: f0f4 93bd 2a91 733f 6386 093d 56eb 813e
000001a0: 9ae4 383e 03ea 333e a1d7 80bd ff40 963c
000001b0: 8620 b43d d009 d83e 5bfb 5b3e 1170 86be
000001c0: 9c84 5abe ad1b c23c 9a8b 3fbd 7476 c43e
000001d0: 8f76 173e 90b1 e53d c6cc babd 3d67 ea3f
000001e0: 2457 f93d 025e 263d a451 823c 0489 c33c
000001f0: 269d 0cbc 1243 0a3f 3c79 9f3e 0236 00be
00000200: ca19 4e3d 09a4 0a3b e86e b5bc 39a6 c2ba
00000210: ab7c 853d 48be 113d b225 523e fdf0 9ebe
00000220: 50b8 713d d1ab b53c 1482 e4bd 37d3 4a3e
00000230: 8e70 273e b7d0 f2bb 0b0e c43d f288 773e
00000240: f917 0ebf f915 123e ab70 823c 7092 a7bd
00000250: 025b 993b 304c 2f3f 2910 e73e 148c 2abe
00000260: b922 f13c f7ed 273e 57c2 773d dba4 853c
00000270: c0a6 2bbe b0f9 61bd 3585 893e 69cf 82be
00000280: 9030 bc3c 38f3 b43c 7f99 9cbd 6264 423f
00000290: 6bcd 7b3e 49d5 c43e 68a0 07bd 30f2 7a3f
000002a0: aeac 2e3e b0ff 23be 89aa 3c3c 7d03 1a3e
000002b0: 88f5 bdbe 9e12 763e ffcb 77be 339f e13c
000002c0: 4309 10be ac69 783d 29b0 69bc 5b2d b53e
000002d0: 82b0 64bd ace8 a33d 5c09 dc3b e7ee ae3c
000002e0: d673 463f 8045 dfbc 36f2 413d b212 fbbd
000002f0: 30ba da3d 2640 ddbd f686 f1bc dcc0 513e
00000300: 97df 1240 1b96 123e 6ddb 51bd 2992 80be
00000310: 5751 8f3d 3025 85bf ca05 6b3d 0812 4c3d
00000320: 9e3d 89bc bc46 96be 5feb 293e c58e 483d
00000330: d2a2 d2bd 0da6 5ebe ae9f cd3e 4c1c c2bb
00000340: e1af 8d3e 18ea 64be 603c 11bd 9b84 22bf
00000350: aed8 9d3e dcb6 c7be 6098 dd3c aa3a 90c0
00000360: ca32 6b3e b15e 68be 0f1a 293d 0b74 13be
00000370: 3cbe cdbd d3dd 103e b8d1 9dbe bc03 3bbe
00000380: 67e9 0abe a84c d0bd 2eef 683d 6a7b 01bc
00000390: 4c02 10be 6255 e0be d0c2 b03e 880a 48be
000003a0: 3880 ec3c a849 c1bc 577f 3f3d f261 e53e
000003b0: 266e 76bd 48b7 2f3e ac60 343d 72c0 6fbf
000003c0: 0575 8f3f dbf4 b53d 8852 b33d 112b c0bd
000003d0: 73c4 f43d 7c74 e0be fa81 7b3e a7b0 b1be
000003e0: ef34 23be 261d 36be 8597 873d 673f ab3e
000003f0: bccb 67be fc37 35bf 77b9 ed3e de10 34bc

model/hidden_9_3d_hidden_10_1/BiasAdd/ReadVariableOp:0 f4 [72]
-0.131859 -0.111762434 -0.20127471 -0.37256885 0.02077527 0.000530757 0.08884331 0.0949292
-0.33016914 -0.22520268 -0.38018048 0.1574679 0.13334838 -0.40852025 0.07505152 -0.19677907
-0.03061675 -0.4248395 -0.17379373 -0.34463966 -0.39238024 -0.3244643 0.043080267 -0.04189003
-0.1854374 -0.48343217 0.0682648 -0.1868175 -0.37329748 -0.36796838 -0.37674448 -0.07396477
0.09684316 -0.08373224 -0.015628297 -0.3326518 -0.3914292 -0.40705842 -0.12183796 -0.32655102
-0.041610833 -0.40424752 -0.28926682 0.08337841 -0.010857545 -0.046736795 -0.008532181 -0.4208478
0.27302563 0.30959052 -0.38655332 0.049946934 -0.124009125 -0.16412233 -0.39591336 0.051397234
-0.046126094 0.12792177 -0.42532453 -0.44746566 -0.4637199 0.08687854 -0.42173523 -0.06849119
-0.30312824 -0.34384853 0.05128123 -0.050513938 0.099322945 -0.24589974 0.1381344 0.032365598
00000000: 0c06 07be b4e3 e4bd f51a 4ebe 58c1 bebe
00000010: e630 aa3c 8022 0b3a 7bf3 b53d 3e6a c23d
00000020: ee0b a9be 889b 66be 04a7 c2be 443f 213e
00000030: 7a8c 083e 9129 d1be 9cb4 993d 7480 49be
00000040: facf fabc 9084 d9be fcf6 31be 9c74 b0be
00000050: 10e6 c8be 2f20 a6be ef74 303d e194 2bbd
00000060: 4de3 3dbe 6c84 f7be 6ace 8b3d 164d 3fbe
00000070: d920 bfbe 5a66 bcbe a7e4 c0be d77a 97bd
00000080: b555 c63d cf7b abbd ea06 80bc 5651 aabe
00000090: 6869 c8be f669 d0be 2e86 f9bd b231 a7be
000000a0: 1f70 2abd 88f9 cebe c81a 94be 4dc2 aa3d
000000b0: d8e3 31bc 156f 3fbd 90ca 0bbc 5d79 d7be
000000c0: 04ca 8b3e a682 9e3e 51ea c5be 2895 4c3d
000000d0: 7ff8 fdbd af0f 28be 28b5 cabe e885 523d
000000e0: b7ee 3cbd edfd 023e 23c4 d9be 381a e5be
000000f0: b26c edbe 60ed b13d aeed d7be 1c45 8cbd
00000100: a033 9bbe ea0c b0be 440c 523d b4e7 4ebd
00000110: d469 cb3d 24cd 7bbe 1b73 0d3e ca91 043d

model/hidden_9_3c/Conv2D/ReadVariableOp:0 f4 [24, 1, 1, 3]
0.3609514 1.2827884 0.3095835 -0.04534298 0.2839848 -0.9584968 -0.7494776 -0.80013716
0.8356501 1.0616298 0.31827503 0.3257689 1.3044071 2.0037408 1.2051077 0.51912296
1.3705735 0.43988016 0.020442456 1.4349804 0.055941578 0.09455453 1.5762193 -0.058176443
0.1030592 2.2020245 0.05078706 -0.05595455 1.0150765 -0.09296905 0.5289378 1.3549936
0.452737 0.07937586 0.7065409 0.02604302 0.8431327 0.9819454 0.74630684 0.5725356
0.27522358 0.06840401 0.23134774 1.3797932 0.20022455 0.4053388 0.22548734 0.40780094
-0.6153757 1.2016121 -0.7535814 0.440384 0.6800791 0.34929916 0.13942881 1.3732526
0.06760669 0.88804543 1.6492515 0.756688 0.028795455 0.7517336 0.026504053 0.36587045
0.6542172 0.31683883 -0.009317745 1.8701912 0.079810664 0.12897241 0.38703018 0.111144245
00000000: 9fce b83e 6932 a43f ba81 9e3e 90b9 39bd
00000010: 7566 913e 0c60 75bf c4dd 3fbf cad5 4cbf
00000020: 2aed 553f 7ce3 873f f2f4 a23e 2ecb a63e
00000030: d0f6 a63f 4a3d 0040 f840 9a3f 3ee5 043f
00000040: f46e af3f f937 e13e f076 a73c 70ad b73f
00000050: ff22 653d cea5 c13d 8ec1 c93f 6c4a 6ebd
00000060: b410 d33d f8ed 0c40 1806 503d 9930 65bd
00000070: 07ee 813f 8f66 bebd 7868 073f 6e70 ad3f
00000080: 25cd e73e d08f a23d dddf 343f 2c58 d53c
00000090: 8bd7 573f c660 7b3f f70d 3f3f b191 123f
000000a0: 1bea 8c3e 6717 8c3d 6ce6 6c3e 109d b03f
000000b0: aa07 4d3e 9188 cf3e 27e6 663e 49cb d03e
000000c0: 4389 1dbf 6dce 993f b6ea 40bf 037a e13e
000000d0: aa19 2e3f 57d7 b23e 6dc6 0e3e bec6 af3f
000000e0: 6075 8a3d f256 633f ac1a d33f 4eb6 413f
000000f0: 72e4 eb3c 9d71 403f 071f d93c 5f53 bb3e
00000100: c77a 273f b338 a23e 75a9 18bc 6d62 ef3f
00000110: c673 a33d 5811 043e d228 c63e 989f e33d

model/hidden_9_3b/Conv2D/ReadVariableOp:0 f4 [24, 1, 3, 1]
0.24210846 1.0614296 0.2732558 0.0027159657 1.0832542 0.0093123 -0.37466103 -1.644756
-0.7279629 -0.18866515 -1.3189467 0.20009185 0.47540945 0.6104901 0.37599728 0.51811004
1.5447142 0.5478642 0.020828849 1.9213964 -0.009153245 -0.01351923 1.7542259 -0.0053785993
-0.026155174 1.1045576 0.0005932551 -0.009095653 1.3817978 -0.066789806 0.43528137 -0.1183689
0.93298256 0.8942432 0.099147856 0.0023243935 0.3357947 0.45119795 0.35715717 0.19856341
1.2540098 0.23082279 0.15299515 1.168209 0.16449068 1.1228205 0.6272612 1.0581046
0.42661956 0.9999614 0.511856 0.98504746 0.7125303 -0.74708414 0.19434574 2.0384371
0.081052326 0.44814423 0.94409496 0.47242358 -0.002050276 0.22481613 0.0007638046 0.5846605
1.1694481 0.61190796 -0.019306699 0.9573198 -0.049652543 0.2961349 1.0115753 0.30231044
00000000: 48eb 773e eddc 873f 2fe8 8b3e 58fe 313b
00000010: 13a8 8a3f 9e92 183c 92d3 bfbe 5d87 d2bf
00000020: c75b 3abf 7031 41be 3fd3 a8bf e1e4 4c3e
00000030: de68 f33e 1449 1c3f b782 c03e dca2 043f
00000040: 32b9 c53f d440 0c3f 43a1 aa3c 51f0 f53f
00000050: 7ef7 15bc c37f 5dbc 798a e03f f63e b0bb
00000060: 6043 d6bc 2562 8d3f ad84 1b3a ef05 15bc
00000070: c0de b03f 18c9 88bd 33dd de3e 656b f2bd
00000080: f2d7 6e3f 1fed 643f 080e cb3d da54 183b
00000090: 48ed ab3e 6b03 e73e 4edd b63e 3554 4b3e
000000a0: 6583 a03f cf5c 6c3e c3aa 1c3e df87 953f
000000b0: 3f70 283e 95b8 8f3f 3194 203f f96f 873f
000000c0: e16d da3e 78fd 7f3f ff08 033f 122c 7c3f
000000d0: 6368 363f e840 3fbf 9202 473e c175 0240
000000e0: c3fe a53d 2973 e53e 35b0 713f 81e1 f13e
000000f0: ec5d 06bb 3336 663e 0f3a 483a 4fac 153f
00000100: 7ab0 953f 00a6 1c3f 1529 9ebc e912 753f
00000110: 7760 4bbd fe9e 973e 4d7b 813f 6fc8 9a3e

model/hidden_9_2_hidden_9_3a/Conv2D/ReadVariableOp:0 f4 [24, 72, 1, 1]
-0.013423987 0.10307178 -0.072300866 -0.9430803 0.033335723 -0.29365188 0.077489085 -0.16777232
0.19184828 -0.12034502 0.07591439 0.10485378 -0.09124231 0.03513151 -0.038731404 0.28916684
-0.112148605 -0.085497774 0.36751807 -0.09472541 -0.28985307 0.08678266 -0.31916872 0.13685784
0.10922087 0.05897062 -0.057587285 0.003938107 0.093657985 0.026688633 -0.119679876 0.017688831
0.101459175 0.03471428 -0.21313569 -0.06115206 0.38995448 -0.17450939 -0.012889683 0.033414368
0.86256784 0.13853265 -0.0831039 -0.044415426 -0.042202406 0.09120302 -0.44441748 -0.07587321
0.25769186 0.81535256 -0.050363984 -0.003309151 -0.15565108 -0.12119383 -0.57429886 0.06528203
-0.33412516 0.101865314 0.107711576 0.032292753 -0.11583314 -0.87478435 0.08569742 -0.055666532
-0.28477168 -0.03994233 -0.077195354 0.10272793 -0.03197503 -0.1435993 0.3574332 -0.0102765
0.0048898533 0.021846503 0.0032217726 -0.021320922 0.061465822 0.15719005 0.003055486 -0.020006664
0.020393921 -0.00044436503 -0.432452 -0.018288739 0.05436956 -0.003690912 -0.15530083 0.15530871
0.0072552566 -0.027803438 0.070905834 -0.020950451 0.009704377 0.00077997 -0.012778868 0.021499794
0.026866568 0.12862678 -0.13191582 0.085585445 0.011739036 -0.024410687 -0.010361064 0.079040036
-0.007156996 -0.07128957 -0.17862487 0.012143814 0.027207348 -0.016838755 0.17221431 -0.010982229
0.059322827 -0.113988526 -0.00212568 0.13514234 -0.003577958 -0.012452357 0.0020237155 -0.10814097
-0.007948798 0.19082025 0.10568415 -0.09254174 -0.10521475 0.016819682 0.03458921 -0.047397498
-0.055105433 0.010163363 -0.032943957 0.00582713 -0.18464515 0.08413288 0.027094735 -0.08968318
-0.009654718 0.02395924 -0.1149914 -0.048830118 -0.11634186 0.017339313 -0.019781865 0.0016611199
-0.08049938 -0.010286 0.0032450147 -0.40325043 -0.009043508 -0.13207042 -0.021257877 -0.26789534
0.019315956 -0.02186943 -0.019156214 0.051802505 0.000305976 -0.005969856 -0.010516521 0.060943365
-0.054799523 0.0011345258 -0.027552381 -0.0029521505 0.018985596 0.0061517013 -0.015033012 -0.00063367607
0.0067199687 -0.015966782 0.013334602 0.0021445113 0.00072207 -0.0019762674 -0.099004105 0.021332892
0.009325842 -0.0035159455 -0.08317426 0.00046498195 0.11742452 -0.059147283 -0.025339998 -0.007519033
0.48142523 -0.005688907 -0.0051826737 -0.0063937567 -0.004785288 0.029736364 -0.41366422 -0.06512816
0.10644737 0.29404986 0.006346133 -0.0042575006 0.1389028 -0.012109548 -0.3323929 0.003911252
0.028443743 -0.029015213 0.002595478 0.026105965 0.11036484 -0.4625164 0.0047883233 0.004062157
0.027211409 -0.0022211084 0.0055156667 -0.106272615 -0.0029302503 -0.12364142 0.1669131 0.008257714
-0.049276732 -0.06435987 0.20044312 -0.20466977 0.04585306 0.09439183 0.00481632 -0.28721595
-0.10167092 0.015137504 -0.13895033 0.019460805 -0.015057886 -0.21263611 0.025809975 -0.09258547
0.11535757 0.023486713 -0.07385312 0.016518345 0.08874903 -0.045038916 0.25203815 -0.00039853065
0.009208579 -0.026975768 -0.049822114 -0.025403703 -0.010470003 0.035642534 0.032429736 -0.07172645
0.04532043 0.020855663 -0.2642305 -0.047159627 -0.030315202 0.08423698 0.01685053 -0.02931524
00000000: 48f0 5bbc 4c17 d33d 7a12 94bd b66d 71bf
00000010: 0a8b 083d 8a59 96be 99b2 9e3d 82cc 2bbe
00000020: e073 443e 7377 f6bd 0179 9b3d 94bd d63d
00000030: 40dd babd 0fe6 0f3d d2a4 1ebd ad0d 943e
00000040: 2bae e5bd 7519 afbd 542b bc3e 65ff c1bd
00000050: 9f67 94be 1bbb b13d 156a a3be 7624 0c3e
00000060: 31af df3d 2d8b 713d a5e0 6bbd 3c0b 813b
00000070: c2cf bf3d 1fa2 da3c b91a f5bd 2be8 903c
00000080: d4c9 cf3d 9030 0e3d 3e40 5abe 957a 7abd
00000090: 1da8 c73e 97b2 32be 402f 53bc 81dd 083d
000000a0: 3fd1 5c3f 81db 0d3e 6132 aabd f3ec 35bd
000000b0: 6edc 2cbd a6c8 ba3d b08a e3be 6a63 9bbd
000000c0: 30f0 833e f2ba 503f 774a 4ebd 57de 58bb
000000d0: ff62 1fbe 7934 f8bd 4005 13bf 96b2 853d
000000e0: 7412 abbe c39e d03d e397 dc3d 6845 043d
000000f0: ed39 edbd def1 5fbf 2182 af3d 9702 64bd
00000100: 98cd 91be 929a 23bd 9918 9ebd 0563 d23d
00000110: 40f8 02bd b20b 13be 7c01 b73e c45e 28bc
00000120: 103b a03b 70f7 b23c 6024 533b 37a9 aebc
00000130: 96c3 7b3d 6ef6 203e 8c3e 483b 04e5 a3bc
00000140: 2711 a73c aaf9 e8b9 596a ddbe 44d2 95bc
00000150: 9eb2 5e3d 3ae3 71bb 2e07 1fbe 3f09 1f3e
00000160: 81bd ed3b 09c4 e3bc 1437 913d 48a0 abbc
00000170: 1bff 1e3c e776 4c3a 755e 51bc 5620 b03c
00000180: 4717 dc3c bdb6 033e f114 07be 6c47 af3d
00000190: 1655 403c ecf8 c7bc 74c1 29bc bedf a13d
000001a0: 3c85 eabb 4400 92bd 70e9 36be d9f6 463c
000001b0: f2e1 de3c 6ef1 89bc f358 303e cfee 33bc
000001c0: 7efc 723d d172 e9bd fe4e 0bbb c162 0a3e
000001d0: 2d7c 6abb f904 4cbc 50a0 043b 0379 ddbd
000001e0: ad3b 02bc 6266 433e ee70 d83d 8686 bdbd
000001f0: d57a d7bd 6ec9 893c 6aad 0d3d e123 42bd
00000200: 3cb6 61bd 3c84 263c 3ef0 06bd 82f1 be3b
00000210: 9e13 3dbe dc4d ac3d c7f5 dd3c d1ab b7bd
00000220: d32e 1ebc 2b46 c43c 9c80 ebbd 1702 48bd
00000230: a444 eebd 2d0b 8e3c 940d a2bc efb9 d93a
00000240: dcdc a4bd 9c86 28bc 50aa 543b d776 cebe
00000250: 392b 14bc 783d 07be 0025 aebc 9429 89be
00000260: 7f3c 9e3c 8527 b3bc 7eed 9cbc dd2e 543d
00000270: 676b a039 c89e c3bb 7c4d 2cbc c09f 793d
00000280: 7775 60bd 5eb4 943a 88b5 e1bc de78 41bb
00000290: ae87 9b3c 3694 c93b 064d 76bc 481d 26ba
000002a0: 2f33 dc3b c5cc 82bc 6079 5a3c ee8a 0c3b
000002b0: 4c49 3d3a 4484 01bb aac2 cabd 51c2 ae3c
000002c0: 6bcb 183c c76b 66bb 4457 aabd d2c8 f339
000002d0: 447c f03d 6c44 72bd d495 cfbc 3862 f6bb
000002e0: 5e7d f63e 036a babb 6bd3 a9bb b882 d1bb
000002f0: e8cd 9cbb ad99 f33c cccb d3be ea61 85bd
00000300: 1401 da3d b48d 963e 39f3 cf3b 8182 8bbb
00000310: 893c 0e3e 2067 46bc 672f aabe f629 803b
00000320: da02 e93c 50b1 edbc e518 2a3b 2ddc d53c
00000330: f606 e23d f3ce ecbe 5ee7 9c3b d81b 853b
00000340: 76ea de3c 0490 11bb c4bc b43b 75a5 d9bd
00000350: 7109 40bb b637 fdbd 45eb 2a3e 5d4b 073c
00000360: 66d6 49bd 1ccf 83bd f640 4d3e f494 51be
00000370: 6bd0 3b3d 8150 c13d 38d2 9d3b f80d 93be
00000380: d838 d0bd 4b03 783c ff48 0ebe 446c 9f3c
00000390: 5ab5 76bc 48bd 59be 716f d33c 739d bdbd
000003a0: 9740 ec3d 3567 c03c 4e40 97bd 7b51 873c
000003b0: 0dc2 b53d ba7a 38bd 250b 813e e1f1 d0b9
000003c0: 94df 163c 49fc dcbc 4612 4cbd 6d1b d0bc
000003d0: 608a 2bbc e8fd 113d 0bd5 043d 51e5 92bd
000003e0: eaa1 393d 7fd9 aa3c 3849 87be 742a 41bd
000003f0: 9657 f8bc 7084 ac3d 1f0a 8a3c 8426 f0bc

model/hidden_9_2_hidden_9_3a/BiasAdd/ReadVariableOp:0 f4 [24]
0.13331896 -0.01102307 0.180408 -0.061925445 -0.062192284 -0.07732189 0.17209277 0.07801764
0.23492621 -0.07093525 -0.1607775 -0.080127925 0.089494854 -0.108889796 0.4674769 0.09389601
0.13800286 -0.39680278 0.23982129 0.069556594 -6.1989717 -0.09589079 -0.17105742 0.25205854
00000000: c484 083e 1b9a 34bc e0bc 383e 89a5 7dbd
00000010: 56bd 7ebd f05a 9ebd 1639 303e b6c7 9f3d
00000020: 7f90 703e 8046 91bd dba2 24be 1c1a a4bd
00000030: 1449 b73d 9d01 dfbd 2259 ef3e 8d4c c03d
00000040: 9f50 0d3e bc29 cbbe b693 753e b073 8e3d
00000050: fa5d c6c0 6462 c4bd ad29 2fbe d10d 813e

model/hidden_8_3d_hidden_9_1/Conv2D/ReadVariableOp:0 f4 [72, 24, 1, 1]
0.071067356 0.74790347 -0.1093775 0.0802654 0.05822856 -1.2117544 -0.63400733 -0.26107913
-0.012537796 0.18766092 0.20858112 0.13902034 0.56970656 0.08228845 0.39765143 -0.07905441
-0.021308115 -0.8001706 0.28042632 0.13237965 -0.016505318 0.12261275 1.1139524 -0.34091234
0.15435624 0.122948274 -0.35453412 -0.11508911 -0.27614886 0.3303823 -0.29574776 0.32782578
-0.1822352 -0.16289994 -0.11712374 0.005302138 0.07603066 0.2389999 -0.009399974 -0.33606142
0.06444085 -0.50711083 0.122475795 0.28094116 -0.13720967 0.15584804 -0.32713878 -0.1576468
0.11073649 -0.10929469 0.0067450106 -0.19127971 -0.32328263 -0.1371683 -0.49250257 0.4002707
0.86631143 -0.4431629 0.27281687 -0.13008088 -0.38626936 0.30985388 -0.1836376 1.4825408
-0.5010874 -0.14847977 0.04614965 -0.06668648 0.058106724 0.21887428 0.13806014 0.21608883
1.1746968 -0.30205765 -0.6998438 -0.99480444 0.047317788 0.52483606 -1.4834999 0.11699045
0.23564668 -0.2087563 0.22715533 0.16450536 1.1065112 -0.1617024 -0.56716573 0.415933
-0.20510389 -1.4858997 0.22716443 0.24354917 0.4017437 0.025897283 -0.5596802 -0.8399286
-0.02535491 -0.018189527 -0.12175236 0.25774527 0.008080777 0.10681858 0.06674036 0.2018939
-0.042841736 0.12748928 0.10146443 0.057949387 0.058318526 0.17260924 -0.14370008 -0.3181719
0.030787364 0.06444568 0.06425228 -0.24691434 -0.14826137 0.2515151 -0.028988658 -0.344335
0.012255076 -0.1996901 0.063393675 -0.036266085 -0.045715712 0.14127484 0.019983945 0.025512226
0.068920955 0.056190137 -0.038408455 -0.09696709 -0.16983265 -0.028330479 -0.07110889 0.029692275
-0.043296978 0.33537668 0.072372906 -0.10704743 -0.041442282 -0.028388327 0.1170216 0.07577817
-0.101893745 0.038437217 -0.21453898 0.062099013 0.058358762 0.19204998 0.017416326 0.6570559
0.117419705 0.033135127 -0.50316966 0.055280104 -0.6666824 -0.023118928 -0.007262435 0.28150684
-0.115501896 1.5342541 9.598397e-05 -0.4246896 0.1055135 -0.63519025 -0.16757706 -0.38651052
-0.16306347 0.25626242 0.26520473 0.17188966 -0.065957144 0.0933963 0.26848006 -0.48005837
0.038488396 -0.02474255 0.14021298 -0.03856384 0.07949345 0.1514596 0.30401275 -0.0013381548
-0.050423622 -0.7353435 0.0110060945 0.029573388 -0.20403665 0.11606122 0.12576452 0.53532004
-0.16536605 -0.29256305 0.06284887 0.10503498 -0.018664014 0.20282567 0.12621193 0.25399837
0.043351483 0.12787642 -0.21269965 0.08333268 -0.3458442 0.055027355 -0.12926973 0.19630225
-0.089648075 1.0659461 -0.05941549 -0.19201124 0.18473876 -0.38555375 -0.1856064 -0.031716675
0.13242501 0.025722515 -0.23639168 -0.0995864 0.019755075 -0.35250476 -0.6616035 0.303855
0.0012229586 0.05003469 0.16290072 0.088971205 0.2627819 0.06077626 0.058157228 -0.024088513
0.023443185 -0.26649493 -0.07108888 0.14866893 -0.036076784 0.16018513 -0.18596885 -0.41252384
0.98071146 -0.2801284 -0.34533304 -0.62673056 0.26761162 0.12680851 -0.9739522 -0.51078165
0.16329817 -0.00498047 0.4516722 0.31064844 1.4933052 -0.116912365 -0.34629264 0.07887023
00000000: c38b 913d 9a76 3f3f 5001 e0bd 3062 a43d
00000010: 1281 6e3d c51a 9bbf 4e4e 22bf 2aac 85be
00000020: 546b 4dbc 2f2a 403e 4a96 553e 595b 0e3e
00000030: 4ad8 113f d986 a83d f898 cb3e 47e7 a1bd
00000040: 5b8e aebc fbd7 4cbf 0a94 8f3e 888e 073e
00000050: 2936 87bc 651c fb3d fe95 8e3f 108c aebe
00000060: 900f 1e3e 4ecc fb3d 7f85 b5be d7b3 ebbd
00000070: 6263 8dbe de27 a93e 406c 97be c8d8 a73e
00000080: dd9b 3abe 3ecf 26be 92de efbd 8fbd ad3b
00000090: f6b5 9b3d 64bc 743e 5902 1abc 3e10 acbe
000000a0: 90f9 833d 04d2 01bf 97d4 fa3d 85d7 8f3e
000000b0: b180 0cbe a196 1f3e bc7e a7be 2a6e 21be
000000c0: d0c9 e23d e5d5 dfbd 4005 dd3b d4de 43be
000000d0: 4d85 a5be d975 0cbe 4c29 fcbe 48f0 cc3e
000000e0: 96c6 5d3f 3fe6 e2be a7ae 8b3e ec33 05be
000000f0: 19c5 c5be 2ba5 9e3e 7f0b 3cbe e6c3 bd3f
00000100: 4447 00bf 150b 18be 6a07 3d3d ec92 88bd
00000110: 5101 6e3d 9420 603e a35f 0d3e 6446 5d3e
00000120: 775c 963f 4da7 9abe f728 33bf 81ab 7ebf
00000130: 4cd0 413d a85b 063f 53e3 bdbf b098 ef3d
00000140: 5d4d 713e 36c4 55be 689b 683e 1874 283e
00000150: 29a2 8d3f 5095 25be c631 11bf 2cf5 d43e
00000160: c106 52be f631 bebf cb9d 683e f464 793e
00000170: 5ab1 cd3e 8a26 d43c 3447 0fbf 9005 57bf
00000180: 1ab5 cfbc 3402 95bc 4d59 f9bd 30f7 833e
00000190: 3c65 043c b3c3 da3d 2baf 883d 46bd 4e3e
000001a0: d17a 2fbd 8d8c 023e 95cc cf3d 565c 6d3d
000001b0: 68df 6e3d 7ac0 303e 1d26 13be 6de7 a2be
000001c0: c835 fc3c 19fc 833d b396 833d 1dd7 7cbe
000001d0: d4d1 17be 96c6 803e 9f79 edbc ad4c b0be
000001e0: 84c9 483c 907b 4cbe 8bd4 813d bf8b 14bd
000001f0: 6640 3bbd 5aaa 103e 5fb5 a33c 04ff d03c
00000200: 6e26 8d3d a127 663d 2f52 1dbd af96 c6bd
00000210: 9ce8 2dbe 5215 e8bc 8aa1 91bd 373d f33c
00000220: 2c58 31bd 7eb6 ab3e 3f38 943d af3b dbbd
00000230: 62bf 29bd a38e e8bc 05a9 ef3d 9631 9b3d
00000240: abad d0bd 5870 1d3d 1bb0 5bbe 895b 7e3d
00000250: 9909 6f3d c0a8 443e afac 8e3c d134 283f
00000260: be79 f03d b3b8 073d bacf 00bf 646d 623d
00000270: b3ab 2abf e863 bdbc b8f9 edbb aa21 903e
00000280: 428c ecbd 7062 c43f 004b c938 ea70 d9be
00000290: 7617 d83d d49b 22bf 5299 2bbe b5e4 c5be
000002a0: 1cfa 26be d434 833e eac8 873e d803 303e
000002b0: 8a14 87bd 8f46 bf3d 3876 893e 36ca f5be
000002c0: 02a6 1d3d e3b0 cabc fe93 0f3e 1ef5 1dbd
000002d0: 76cd a23d 3a18 1b3e 8fa7 9b3e 0665 afba
000002e0: 0089 4ebd 793f 3cbf e852 343c e443 f23c
000002f0: fcee 50be 81b1 ed3d 6ac8 003e bc0a 093f
00000300: b855 29be d3ca 95be e9b6 803d 941c d73d
00000310: 46e5 98bc 88b1 4f3e b33d 013e 130c 823e
00000320: 5391 313d 09f2 023e f0cd 59be 53aa aa3d
00000330: 7e12 b1be 5d64 613d 495f 04be 7503 493e
00000340: 6999 b7bd ec70 883f a85d 73bd 989e 44be
00000350: 282c 3d3e 4d67 c5be 9b0f 3ebe 58e9 01bd
00000360: 6c9a 073e 06b8 d23c a910 72be f4f3 cbbd
00000370: 65d5 a13c 817b b4be d95e 29bf e292 9b3e
00000380: ae4b a03a 2df1 4c3d 72cf 263e 8936 b63d
00000390: 598b 863e 87f0 783d 4636 6e3d 4655 c5bc
000003a0: ec0b c03c 0672 88be 0c97 91bd ab3c 183e
000003b0: 40c5 13bd 9207 243e 9e6e 3ebe 5336 d3be
000003c0: e80f 7b3f fd6c 8fbe 7ecf b0be 6a71 20bf
000003d0: 6404 893e 17da 013e ee54 79bf 96c2 02bf
000003e0: a337 273e 3633 a3bb 9441 e73e 500d 9f3e
000003f0: a024 bf3f c06f efbd 454d b1be b786 a13d

model/hidden_8_3d_hidden_9_1/BiasAdd/ReadVariableOp:0 f4 [72]
-0.18667296 -0.54100204 -0.19296667 -1.55354 0.19302526 0.4996723 -0.26729763 0.6258373
0.4210296 -0.3033532 -1.4404821 -0.50458074 0.3567834 -0.14017108 0.4376362 -0.921441
0.7625228 -0.58858526 -1.0092509 -0.2214067 0.37917155 -0.17836453 0.4928555 -0.47189134
0.55257857 -0.4472009 0.25944763 0.2679863 -0.08010556 -0.48609358 0.7044828 -0.72822356
0.093276665 0.043841057 0.7250839 0.53670996 0.51542246 -0.025673527 0.26109582 -0.16777259
-1.2488198 -0.25860998 -0.29789793 0.1356848 -0.4218685 0.07034169 -1.2203962 0.4436561
0.64600474 -1.216918 0.035780802 -0.43358505 -1.1356676 -0.68148637 -1.1377547 -0.38149452
-0.88480806 -0.5239152 0.5145767 -0.24822949 -1.0760933 -1.1411452 -0.23632915 -0.31894466
-0.3032157 -0.38830176 -0.008911926 -1.2508438 -0.2366705 -1.0755135 0.17688248 0.56230116
00000000: 3227 3fbe 1c7f 0abf 0e99 45be 66da c6bf
00000010: 6aa8 453e 0cd5 ff3e 3cdb 88be e036 203f
00000020: 3191 d73e 1c51 9bbe b861 b8bf 342c 01bf
00000030: 50ac b63e 0289 0fbe da11 e03e 8fe3 6bbf
00000040: b234 433f 86ad 16bf 222f 81bf 70b8 62be
00000050: c622 c23e 31a5 36be 8e57 fc3e be9b f1be
00000060: ca75 0d3f 84f7 e4be 52d6 843e 8035 893e
00000070: 620e a4bd 42e1 f8be fc58 343f dc6c 3abf
00000080: d607 bf3d ae92 333d 199f 393f d365 093f
00000090: baf2 033f 4a51 d2bc 5aae 853e 94cc 2bbe
000000a0: 54d9 9fbf 8768 84be 1486 98be f5f0 0a3e
000000b0: 26ff d7be 4e0f 903d f135 9cbf e426 e33e
000000c0: 9160 253f f8c3 9bbf e48e 123d dcfe ddbe
000000d0: 8e5d 91bf e475 2ebf f2a1 91bf 4053 c3be
000000e0: c882 62bf 4e1f 06bf 4cbb 033f df2f 7ebe
000000f0: 6dbd 89bf 0c11 92bf 4500 72be b74c a3be
00000100: 173f 9bbe 7dcf c6be 5403 12bc a61b a0bf
00000110: c059 72be 6daa 89bf ae20 353e f8f2 0f3f

model/hidden_8_3c/Conv2D/ReadVariableOp:0 f4 [24, 1, 1, 3]
0.0052469405 -1.2054396 -0.018486587 0.43804243 0.5771638 0.4631183 -0.06910879 2.9673266
0.20922653 0.013461425 0.82017094 0.007862961 0.117948964 1.2241871 0.025658475 0.75651866
0.62301517 0.8089437 -0.05981246 2.0497475 0.034531556 0.09006845 1.5469292 0.16043103
-0.04752621 1.6428882 0.107461184 0.07551728 1.3717264 0.10806949 -0.0027062506 1.2731823
0.47508043 0.00052898744 1.1993424 0.0032399097 0.069543555 1.0320606 0.07790999 0.12331926
1.162841 0.027170714 0.6463931 0.64109755 0.5370338 -0.067441635 1.533312 0.11589157
-0.06376188 1.580715 -0.4592733 0.06312279 0.5139947 0.06059069 0.4676526 0.4972856
0.49450904 0.6405575 0.4383696 0.5634069 0.7253686 -0.43794748 0.026752912 -0.064152434
0.64881974 0.54720604 0.2163056 0.22539054 0.22664118 0.15671816 1.283061 0.16168512
00000000: 87ee ab3b d84b 9abf 2f71 97bc 1947 e03e
00000010: 02c1 133f d81d ed3e e988 8dbd aee8 3d40
00000020: 7b3f 563e 4f8d 5c3c b9f6 513f a6d3 003c
00000030: 3a8f f13d 2ab2 9c3f b931 d23c 35ab 413f
00000040: ec7d 1f3f ef16 4f3f e9fd 74bd 102f 0340
00000050: f670 0d3d cf75 b83d c701 c63f 0848 243e
00000060: d8aa 42bd 294a d23f 9c14 dc3d cea8 9a3d
00000070: bb94 af3f 8953 dd3d 5a5b 31bb a3f7 a23f
00000080: be3d f33e bfab 0a3a 0d84 993f aa54 543b
00000090: da6c 8e3d 901a 843f 468f 9f3d cf8e fc3d
000000a0: f9d7 943f 1e95 de3c 057a 253f f81e 243f
000000b0: 0c7b 093f d71e 8abd 9143 c43f 8f58 ed3d
000000c0: 9795 82bd de54 ca3f df25 ebbe 8546 813d
000000d0: 2895 033f f12d 783d 2970 ef3e 389c fe3e
000000e0: 4a30 fd3e 94fb 233f fb71 e03e 6f3b 103f
000000f0: c2b1 393f a73a e0be ec28 db3c 5a62 83bd
00000100: 0d19 263f b215 0c3f 377f 5d3e c7cc 663e
00000110: a014 683e ba7a 203e 583b a43f c990 253e

model/hidden_8_3b/Conv2D/ReadVariableOp:0 f4 [24, 1, 3, 1]
-0.07149437 -1.0768824 -0.06256108 0.4943575 0.72657514 0.44858557 -0.18060465 -1.5294249
-0.1169675 0.053578492 1.3403933 0.052886985 -0.1161425 1.5933003 0.15679786 0.32256937
0.28402764 0.29871926 0.0388211 0.81203467 0.021943059 0.1089522 0.67640346 0.10623496
-0.0022622023 1.6619868 0.05041664 0.17712869 1.5242659 0.14554793 0.16761863 1.1215578
0.14691293 0.0027001956 0.11792476 0.0036809884 0.11494052 1.2408818 0.13172586 0.032324977
0.5623063 0.0019617728 0.5038479 0.7913841 0.4646776 -0.010256536 1.1429882 0.012448622
0.016061217 1.7868223 0.0014472036 0.13832077 0.944735 0.15153849 0.7867195 0.8501837
0.62349415 0.5220875 0.8457636 0.50787276 0.047261905 0.8768979 0.06364579 0.002880083
0.45676842 0.0050815865 0.51514167 0.62332016 0.45735788 0.26735196 1.3335049 0.21797518
00000000: a46b 92bd 48d7 89bf 0620 80bd 6d1c fd3e
00000010: d400 3a3f 02ad e53e 6df0 38be 32c4 c3bf
00000020: a88c efbd 1f75 5b3d 0292 ab3f 06a0 583d
00000030: 1edc edbd 44f1 cb3f 9e8f 203e d027 a53e
00000040: 126c 913e bbf1 983e e002 1f3d 81e1 4f3f
00000050: eec1 b33c 5522 df3d c728 2d3f b791 d93d
00000060: 7541 14bb fcbb d43f ae81 4e3d 3961 353e
00000070: 251b c33f 840a 153e 38a4 2b3e 358f 8f3f
00000080: 5870 163e c4f5 303b 8982 f13d bd3c 713b
00000090: ef65 eb3d 37d5 9e3f 25e3 063e 3267 043d
000000a0: 4ef3 0f3f 1691 003b 2dfc 003f 2698 4a3f
000000b0: 39ea ed3e 080b 28bc 704d 923f 4ef5 4b3c
000000c0: d092 833c 98b6 e43f 18b0 bd3a f6a3 0d3e
000000d0: 27da 713f e82c 1b3e 7366 493f a4a5 593f
000000e0: 509d 1f3f 87a7 053f f783 583f f303 023f
000000f0: b395 413d 617c 603f b958 823d c6bf 3c3b
00000100: 8ddd e93e 7083 a63b 53e0 033f e991 1f3f
00000110: d02a ea3e 5be2 883e 4ab0 aa3f e334 5f3e

model/hidden_8_2_hidden_8_3a/Conv2D/ReadVariableOp:0 f4 [24, 72, 1, 1]
-0.45205632 0.10187812 -0.7269119 -0.11693412 0.13750586 0.2643579 -0.08775991 -0.21423173
0.4408799 0.330039 -0.6520471 0.24967766 -0.17453253 -0.19497956 -0.30134603 -2.3730426
-0.3111683 0.073213704 -0.06490539 -0.50598377 -0.33579716 0.7018196 0.12297764 0.20854798
0.031445358 -0.03991245 0.1146819 0.5655647 0.025226133 0.44984204 -0.40399116 0.44377863
0.21746033 -0.14485227 -0.45560423 0.36349022 -0.22915353 -0.37005857 0.8607287 0.3586879
-0.2818819 0.61046034 -0.10636614 -0.08254058 -0.053009827 -0.09111857 -0.3868425 -0.26946253
-0.15851668 0.19636297 0.31175908 0.37892035 0.14477651 -0.39939559 -0.26717684 0.123303786
-0.032762095 0.30335414 0.41759142 -0.0006829313 -0.720484 0.43824813 -0.16987419 0.0066179116
-0.4583591 -0.15095453 0.37630028 -0.010769185 0.09250289 0.104792185 0.10756682 0.11808955
-0.16643019 -0.12880276 0.15291919 -0.1856888 -0.1645012 -0.06321725 0.43943715 -0.10333818
-0.11155325 0.0749373 0.0611678 0.21863343 0.011871495 0.18753666 -0.4396596 -0.22072178
-0.047681816 0.14425936 -0.25367415 -0.11438835 -0.055583224 -0.12391245 -0.087409765 0.5777096
-0.15489888 -0.08311418 0.15729107 -0.17152552 -0.007751023 -0.2687604 -0.085682325 -0.47208866
-0.07250535 0.305277 0.038669534 -0.111117885 0.023796065 0.08695576 -0.11767881 -0.071290836
0.26441458 -0.23830487 -0.1259241 -0.054423556 0.2348729 0.16102454 0.339194 -0.050239522
0.085264705 -0.0071742316 -0.055538498 0.03155764 -0.2650679 -0.12384488 -0.3720199 -0.14534017
-0.21611448 0.15911989 -0.15964206 -0.024033707 -0.23440185 0.13353984 0.11645259 0.08359473
0.10224858 0.1356884 -0.09061259 0.14097025 -0.10245249 -0.050496407 0.47771043 -0.41039822
0.12002431 -0.05110947 0.22976562 -0.05415604 -0.03804223 -0.022668112 0.025203899 0.02035718
-0.051305722 -0.039260834 0.11920867 -0.04687145 0.011920629 -0.0066845715 0.016820736 -0.12850323
0.007240345 0.055100646 -0.0048687067 0.12534973 0.0056491224 -0.08964904 -0.077925034 0.20628633
-0.020498112 -7.2112714e-05 -0.0029420976 -0.062137906 0.0052823685 -0.02548027 -0.017507458 0.053628195
-0.05702389 -0.051121894 0.033201072 -0.08103347 -0.0028440722 -0.1945204 -0.067230575 -0.084971614
0.051512405 -0.07703246 -0.014204245 0.03899355 0.009944105 0.036871333 0.1155084 0.0026500032
-0.02363752 0.028342498 -0.026137238 -0.12377603 -0.05516339 0.009305998 0.0067877686 -0.029456055
-0.047612213 -0.045763206 -0.0861543 0.005718125 -0.02540355 -0.07041877 0.07746522 0.005254339
0.12789214 0.061176155 -0.06384293 0.030431783 0.029310694 -0.0090798745 -0.029748628 -0.017691823
-0.09638537 0.08138347 -0.18082158 0.10622592 0.2713033 0.10196396 -0.06254374 -0.25391087
0.22707492 0.20763592 -0.14637814 0.035939485 -0.17241189 -0.15320489 -0.37380397 -1.8928974
-0.43989924 0.00632046 -0.062132612 -0.054373465 -0.416909 0.5042399 0.13802026 -0.55722296
-0.0208809 0.007879107 -0.09659749 0.38876364 0.13328856 0.40848535 -0.3333084 0.7821001
-0.005348793 -0.6862358 -0.41376042 0.4677887 -0.3219528 0.27286258 0.6827572 0.54540133
00000000: ed73 e7be 7aa5 d03d e616 3abf 287b efbd
00000010: 56ce 0c3e eb59 873e 78bb b3bd 905f 5bbe
00000020: 03bb e13e dffa a83e 8fec 26bf 80ab 7f3e
00000030: a8b8 32be b9a8 47be 074a 9abe eedf 17c0
00000040: 7451 9fbe 11f1 953d 1eed 84bd 2788 01bf
00000050: 9bed abbe 73aa 333f b3db fb3d 9a8d 553e
00000060: d9cc 003d 3d7b 23bd 58de ea3d d9c8 103f
00000070: 09a7 ce3c b251 e63e eed7 cebe f436 e33e
00000080: ecad 5e3e 2754 14be f544 e9be 641b ba3e
00000090: 39a7 6abe 5178 bdbe b758 5c3f f1a5 b73e
000000a0: d352 90be 2147 1c3f 7ed6 d9bd 090b a9bd
000000b0: d520 59bd 5f9c babd 3810 c6be fef6 89be
000000c0: 3252 22be 6013 493e e39e 9f3e d901 c23e
000000d0: 4b40 143e 947d ccbe 67cb 88be b286 fc3d
000000e0: 8c31 06bd 3c51 9b3e 8bce d53e be06 33ba
000000f0: a471 38bf 0f62 e03e 80f3 2dbe 11db d83b
00000100: 0bae eabe d393 1abe 6eaa c03e 3c71 30bc
00000110: 2872 bd3d 499d d63d fe4b dc3d efd8 f13d
00000120: ad6c 2abe dfe4 03be d996 1c3e 3425 3ebe
00000130: 0173 28be 0c78 81bd e8fd e03e f8a2 d3bd
00000140: 0876 e4bd ba78 993d 168b 7a3d 71e1 5f3e
00000150: a980 423c 9c09 403e 101b e1be e404 62be
00000160: 024e 43bd bab8 133e 94e1 81be 7044 eabd
00000170: 3cab 63bd d0c5 fdbd e403 b3bd c7e4 133f
00000180: d09d 1ebe c437 aabd e910 213e 63a4 2fbe
00000190: 4bfc fdbb f79a 89be 377a afbd 9bb5 f1be
000001a0: af7d 94bd 444d 9c3e f263 1e3d c691 e3bd
000001b0: f7ef c23c dd15 b23d 9701 f1bd ee00 92bd
000001c0: 5961 873e 3106 74be 3ff2 00be 3ceb 5ebd
000001d0: 8682 703e 9ee3 243e d6aa ad3e f5c7 4dbd
000001e0: 439f ae3d d115 ebbb 567c 63bd 9542 013d
000001f0: fbb6 87be 62a2 fdbd 6479 bebe 0ed4 14be
00000200: 1d4d 5dbe 53f0 223e 3579 23be 56e2 c4bc
00000210: 0a07 70be abbe 083e b27e ee3d b733 ab3d
00000220: b467 d13d e6f1 0a3e 1893 b9bd 815a 103e
00000230: 9cd2 d1bd 52d5 4ebd 7696 f43e b71f d2be
00000240: 4ecf f53d 2a58 51bd ae47 6b3e b9d2 5dbd
00000250: 2bd2 1bbd 7ab2 b9bc 6878 ce3c 1ac4 a63c
00000260: f325 52bd f8cf 20bd ad23 f43d 47fc 3fbd
00000270: be4e 433c 400a dbbb a4cb 893c 5a96 03be
00000280: 6a40 ed3b 37b1 613d ac89 9fbb ae5b 003e
00000290: 461c b93b ea99 b7bd 2997 9fbd b93c 533e
000002a0: a8eb a7bc 383b 97b8 35d0 40bb 5184 7ebd
000002b0: b817 ad3b 00bc d0bc cd6b 8fbc 3da9 5b3d
000002c0: e291 69bd 3165 51bd d9fd 073d e0f4 a5bd
000002d0: 9d63 3abb 5b30 47be 2fb0 89bd 9905 aebd
000002e0: acfe 523d 32c3 9dbd ecb8 68bc b3b7 1f3d
000002f0: 99ec 223c 6506 173d ab8f ec3d adab 2d3b
00000300: 79a3 c1bc 872e e83c c31d d6bc 4a7e fdbd
00000310: 02f3 61bd 2f78 183c ee6b de3b d34d f1bc
00000320: 0605 43bd 3372 3bbd aa71 b0bd 1c5f bb3b
00000330: 1b1b d0bc b737 90bd 16a6 9e3d 972c ac3b
00000340: 28f6 023e d993 7a3d 15c0 82bd 134c f93c
00000350: fb1c f03c c1c3 14bc 65b3 f3bc 71ee 90bc
00000360: b165 c5bd 60ac a63d 4b29 39be fa8c d93d
00000370: 44e8 8a3e 7bd2 d03d ef16 80bd 9b00 82be
00000380: 5486 683e 839e 543e 27e4 15be 4835 133d
00000390: be8c 30be bee1 1cbe 3c63 bfbe 764a f2bf
000003a0: 793a e1be dc1b cf3b c47e 7ebd b6b6 5ebd
000003b0: 1975 d5be de15 013f 2f55 0d3e 2aa6 0ebf
000003c0: 6c0e abbc 5f17 013c e8d4 c5bd 070c c73e
000003d0: cc7c 083e fe24 d13e 66a7 aabe b637 483f
000003e0: ee44 afbb 26ad 2fbf 68d8 d3be 0082 ef3e
000003f0: ffd6 a4be a5b4 8b3e 2dc9 2e3f 6c9f 0b3f

model/hidden_8_2_hidden_8_3a/BiasAdd/ReadVariableOp:0 f4 [24]
1.5421324 0.06957425 0.2667072 0.491309 0.25806653 -0.2708271 -0.18207735 -0.65198696
0.19042781 0.31943774 -0.45820206 26.797466 -1.8635616 -1.373085 -0.31070283 -0.033061624
0.13701299 -0.95805013 -0.027366698 0.09177167 -1.2630196 1.0355341 0.27823865 0.23571698
00000000: 9864 c53f f27c 8e3d d98d 883e da8c fb3e
00000010: 4c21 843e daa9 8abe 7c72 3abe 9ee8 26bf
00000020: 82ff 423e 588d a33e 7699 eabe 3661 d641
00000030: 3089 eebf 40c1 afbf 7114 9fbe a06b 07bd
00000040: 224d 0c3e c642 75bf 2030 e0bc c9f2 bb3d
00000050: a0aa a1bf 628c 843f 4c75 8e3e cb5f 713e

model/hidden_7_3d_hidden_8_1/Conv2D/ReadVariableOp:0 f4 [72, 24, 1, 1]
-0.20079222 0.11289337 0.03060811 0.01261428 -0.7390604 0.025698408 -0.11599228 -0.53565335
0.054576762 -0.0049164197 -0.025189126 0.027598968 0.17674966 0.12455008 0.53565544 0.38274008
0.06912949 0.25737175 -0.42578372 0.9723064 -0.15242857 -0.041121226 0.2773035 0.018099166
-0.08079496 0.097028844 -0.5043438 0.019707844 -0.13158338 0.050014213 -0.0009685755 -0.4508458
-0.42751795 -0.34471002 -0.3813565 -0.07144568 -0.08031109 -0.583407 0.7488409 0.39244702
0.16740146 -0.7128483 -0.60150695 0.13641927 -0.18191308 -0.37102628 -0.30792338 0.3156498
-0.09337394 0.10275692 -0.110569544 -0.34650698 0.44353437 -0.18195848 -0.2805439 0.10244492
0.00627986 0.16363446 0.04633803 0.2678033 -0.5430305 -0.12167627 0.06995495 0.09801806
-0.024936274 -0.39913583 0.12741123 -0.13423346 0.20778848 -0.5741397 0.22318609 0.3018634
-0.0022427142 -0.0431652 -0.1301775 0.09160921 -0.122685775 -0.6326446 0.14172173 -0.041605443
-0.13653038 0.04323626 -0.019824095 0.06988484 0.12531848 -0.81333405 0.07776092 -0.04675902
0.019160941 -0.20989394 -0.070212536 -0.028127227 -0.103559725 -0.17856409 -0.072301514 0.115072936
-0.10687146 0.15651786 0.01778318 0.6693334 -1.0543934 -0.032175466 0.40802544 0.10232606
-0.08588883 0.5908971 0.46490285 0.4393164 -0.008612702 0.11315422 0.30895507 -0.05462456
-0.067125626 0.17905849 -0.03031731 0.85239947 -0.76232487 -0.14367674 0.1857708 0.048616994
-0.008320868 -0.078210205 -0.036383227 0.08224148 -0.09604198 -0.024206214 -0.28639203 -0.10667094
0.42183268 -0.05747794 0.30818486 0.08629556 0.09980273 0.18846713 -0.28607967 0.10778372
0.07923846 0.4885602 -0.07841667 0.78898793 0.090681784 0.24178188 -0.17828259 -0.15756045
-0.10664012 -0.2268571 -0.0707546 0.1907937 -0.42834267 0.04708312 0.34174702 -0.0013399718
-0.025284598 0.1874182 -0.61098486 -0.13583001 0.41270733 -0.0056640003 -0.16484877 0.10017812
0.12631533 -0.7874972 -0.26770082 0.62893444 -0.03175234 -0.54877603 -0.14119418 0.5144855
0.13158444 0.062211998 0.64495116 0.29804608 -0.24173437 0.043998316 0.35233092 0.031644806
-0.1204184 -0.069768436 0.35075873 0.018166214 0.074427605 0.18026935 -0.2914656 -0.42589793
-0.23564067 0.51344603 0.39690986 -0.21052864 -0.2179434 0.48188442 -0.20579712 -0.3326321
0.022624332 0.045720417 0.23296347 -0.23727779 0.4147058 -0.097605295 0.121881165 0.027791884
-0.3932488 0.3513294 0.015419967 0.2487238 -0.487845 0.063698 -0.26978022 -0.65797013
-0.22099696 -0.9410092 0.5151846 -1.7667618 -0.1019149 -0.41990545 -0.2750768 0.25664324
0.08620932 0.033722155 0.020324478 0.074422754 -0.128911 0.06409577 0.2502231 -0.34681582
-0.2640722 -0.098159954 0.2879649 -0.14427534 0.25944775 -0.14242992 0.48792028 0.09138858
-0.14547996 0.4301577 -0.16118968 0.025104344 -0.12034549 0.71104723 0.6337604 -0.4176921
0.116204284 -0.07919374 -0.00368046 -0.07819405 0.2856077 -0.00786888 -0.12717618 0.2893968
0.60528094 -0.3273314 -0.056012064 -0.5173264 0.07269531 0.06632408 -0.97924256 -0.37658525
00000000: 7a9c 4dbe a434 e73d dcbd fa3c 20ac 4e3c
00000010: 1033 3dbf 7885 d23c 5c8d edbd 9420 09bf
00000020: e28b 5f3d eb19 a1bb 6d59 cebc 3b17 e23c
00000030: ddfd 343e 1d14 ff3d b720 093f 82f6 c33e
00000040: c393 8d3d 3bc6 833e 5300 dabe 12e9 783f
00000050: 3c16 1cbe bb6e 28bd b9fa 8d3e b444 943c
00000060: d477 a5bd 0fb7 c63d ad1c 01bf 5872 a13c
00000070: cbbd 06be b4db 4c3d 00e8 7dba 43d5 e6be
00000080: a2e3 dabe d57d b0be 2941 c3be 1d52 92bd
00000090: 247a a4bd 295a 15bf 0ab4 3f3f d1ee c83e
000000a0: 4a6b 2b3e 3a7d 36bf 5cfc 19bf 7eb1 0b3e
000000b0: 6c47 3abe 28f7 bdbe 22a8 9dbe da9c a13e
000000c0: d63a bfbd 3872 d23d 4972 e2bd 5d69 b1be
000000d0: f016 e33e 5353 3abe 73a3 8fbe a4ce d13d
000000e0: 49c7 cd3b cb8f 273e f2cc 3d3d 841d 893e
000000f0: 0c04 0bbf 6931 f9bd 8a44 8f3d b1bd c83d
00000100: 2847 ccbc 885b ccbe 1778 023e 7f74 09be
00000110: 81c6 543e d2fa 12bf e58a 643e d78d 9a3e
00000120: 80fa 12bb fecd 30bd 404d 05be 9c9d bb3d
00000130: ae42 fbbd fff4 21bf 801f 113e 786a 2abd
00000140: 9fce 0bbe 8118 313d 2466 a2bc c81f 8f3d
00000150: 7d53 003e a936 50bf 1e41 9f3d 6386 3fbd
00000160: 68f7 9c3c 70ee 56be 97cb 8fbd 126b e6bc
00000170: 1f17 d4bd 81d9 36be d112 94bd 5cab eb3d
00000180: 6ddf dabd 3846 203e 08ae 913c 6f59 2b3f
00000190: 5df6 86bf 6cca 03bd b6e8 d03e 5390 d13d
000001a0: 7ce6 afbd 0845 173f bf07 ee3e 14ee e03e
000001b0: 4a1c 0dbc 66bd e73d 5c2f 9e3e 01be 5fbd
000001c0: 2979 89bd 1c5b 373e 025c f8bc da36 5a3f
000001d0: b927 43bf ff1f 13be b33a 3e3e 9d22 473d
000001e0: 4054 08bc ac2c a0bd 9406 15bd 396e a83d
000001f0: a8b1 c4bd 1c4c c6bc faa1 92be 4b76 dabd
00000200: 74fa d73e fd6d 6bbd 68ca 9d3e babb b03d
00000210: 6065 cc3d 87fd 403e 0979 92be b6bd dc3d
00000220: c647 a23d 9024 fa3e eb98 a0bd 1dfb 493f
00000230: 5fb7 b93d ab95 773e b68f 36be 8757 21be
00000240: 2366 dabd 3a4d 68be cae7 90bd 6c5f 433e
00000250: bb4f dbbe 3bda 403d 77f9 ae3e fea1 afba
00000260: a521 cfbc 8eea 3f3e 8169 1cbf 0617 0bbe
00000270: 604e d33e 1499 b9bb 1ece 28be 302a cd3d
00000280: ce58 013e 6b99 49bf 1510 89be d901 213f
00000290: be0e 02bd 967c 0cbf 3595 10be 52b5 033f
000002a0: 12be 063e 02d2 7e3d 851b 253f 7f99 983e
000002b0: 3789 77be 9437 343d b864 b43e fc9d 013d
000002c0: ec9d f6bd c1e2 8ebd a696 b33e 50d1 943c
000002d0: 806d 983d 8798 383e fb3a 95be 4b0f dabe
000002e0: ca4b 71be 3371 033f c537 cb3e d294 57be
000002f0: 8e2c 5fbe 8eb9 f63e 7bbc 52be c14e aabe
00000300: aa56 b93c 5545 3b3d fa8d 6e3e f3f8 72be
00000310: 5254 d43e 49e5 c7bd d59c f93d ceab e33c
00000320: e857 c9be 72e1 b33e 07a4 7c3c 74b1 7e3e
00000330: d2c6 f9be 1974 823d a220 8abe bb70 28bf
00000340: 074d 62be fbe5 70bf 23e3 033f 4025 e2bf
00000350: c2b8 d0bd d9fd d6be ded6 8cbe be66 833e
00000360: 838e b03d 3e20 0a3d 857f a63c f56a 983d
00000370: 3f01 04be a544 833d 3e1d 803e d891 b1be
00000380: 7934 87be 1608 c9bd 2370 933e eabc 13be
00000390: 56d6 843e 26d9 11be b0d0 f93e f029 bb3d
000003a0: b3f8 14be a13d dc3e e80e 25be a0a7 cd3c
000003b0: b277 f6bd 3107 363f 1f3e 223f bddb d5be
000003c0: 83fc ed3d 5430 a2bd df33 71bb 3424 a0bd
000003d0: 2c3b 923e 7aec 00bc 793a 02be d12b 943e
000003e0: b1f3 1a3f fb97 a7be e86c 65bd 816f 04bf
000003f0: 47e1 943d ebd4 873d a4af 7abf c8cf c0be
