utests/models/gridsample_bilinear_conv.onnx (onnx, 1668 bytes, 4 tensors)

conv1.weight f4 [6, 3, 3, 3]
0	0x3dcad6bd	0.09904239
1	0xbdc83228	-0.097751915
2	0x3d476eeb	0.048689764
3	0xbe033bcf	-0.12815784
4	0x3e0ebaaa	0.13938394
5	0xbd9f0990	-0.07765496
6	0x3d1300f1	0.03588957
7	0x3dd26692	0.1027347
8	0xbdd4ab3e	-0.10384224
9	0x3e1d157d	0.15340228
10	0xbe14ceff	-0.14532088
11	0x3e24ac58	0.16081369
12	0xb9000d2e	-0.00012211941
13	0xbde35d32	-0.1110176
14	0xbd5b183b	-0.053489905
15	0xbe273b7e	-0.16331288
16	0x3e346c73	0.17619495
17	0x3de385d0	0.11109507
18	0x3e245b65	0.16050489
19	0x3e30abaf	0.17252992
20	0xbe1bff7d	-0.1523418
21	0xbe15c3c6	-0.14625463
22	0x3ce818b4	0.028332092
23	0xbe13d9ce	-0.14438555
24	0xbddbba06	-0.107288405
25	0xbd1a4eb7	-0.037672725
26	0x3d095fd9	0.033538673
27	0xbcc5c093	-0.024139678
28	0xba794b88	-0.0009509851
29	0x3dbe6022	0.0929568
30	0xbdc1a72e	-0.09455715
31	0x3d2d86a7	0.042364743
32	0xbdb304f5	-0.0874118
33	0xbdf0a18b	-0.11749562
34	0x3d874f36	0.06606905
35	0x3d378e09	0.04481319
36	0x3e21e595	0.15810235
37	0x3d409e5b	0.04702602
38	0x3e1e943a	0.15486231
39	0x3ddf139e	0.108924136
40	0x3e2a8b8c	0.16654795
41	0x3e09fca0	0.13475275
42	0xbdcfeb29	-0.10152275
43	0xbce5c724	-0.02804906
44	0x3e1e0498	0.1543144
45	0x3dde84b0	0.10865152
46	0xbe1ec57f	-0.15505026
47	0xbe3a1a1f	-0.18174027
48	0xbdc3bfa5	-0.09558038
49	0xbe15ff8b	-0.14648263
50	0xbdc7c538	-0.09754413
51	0xbd2349f7	-0.03986546
52	0x3dd420db	0.10357829
53	0xbc9e089e	-0.019291218
54	0x3e3635fd	0.17794032
55	0x3e025f2d	0.12731619
56	0x3dd88125	0.10571507
57	0xbd84ef68	-0.064909756
58	0x3e1bea6b	0.15226142
59	0xbdcbb676	-0.09946911
60	0x3e0514d2	0.12996224
61	0xbe267271	-0.16254593
62	0x3e04162f	0.12899087
63	0x3e2a74c4	0.16646105
64	0xbe38a9ab	-0.18033473
65	0x3d9de1dd	0.077090956
66	0xbdf39c48	-0.11895043
67	0x3d168a78	0.036753148
68	0xbe253f8b	-0.16137521
69	0xbcacf265	-0.021111676
70	0x3de0b000	0.10971069
71	0xbd987f39	-0.07446141
72	0x3e20580c	0.15658587
73	0x3cee559b	0.029093554
74	0xbe2ef399	-0.17085113
75	0x3e34b489	0.17646994
76	0x3e2a358d	0.1662199
77	0xbe3adc96	-0.1824821
78	0x3e23b9b6	0.15988812
79	0xbe018d76	-0.1265162
80	0x3e0ce3e7	0.13758813
81	0x3e1887e4	0.14895588
82	0xbe2237c2	-0.15841582
83	0xbe0437d4	-0.12911922
84	0x3dfc2376	0.12311451
85	0xbd521555	-0.051289875
86	0x3dd384a3	0.10328033
87	0x3ceb4d75	0.028723458
88	0xbde0002c	-0.10937533
89	0xbdc952a7	-0.09830218
90	0xbdd2f0ee	-0.1029986
91	0x3e28702b	0.16449039
92	0x3e0e8522	0.13917974
93	0x3bb21cd1	0.005435564
94	0x3e1128ad	0.14175673
95	0xbd041f4c	-0.03225641
96	0x3ce8b098	0.028404519
97	0x3d492cd3	0.049115013
98	0x3bc4ab72	0.006001883
99	0xbe0c0832	-0.13675001
100	0xbe3376b7	-0.17525755
101	0x3e0318b1	0.12802388
102	0x3e2767cc	0.16348189
103	0x3c22ebc9	0.009943911
104	0x3daef1cb	0.08542212
105	0x3d639a0c	0.055566832
106	0x3d211eea	0.039336123
107	0xbd1ef3cb	-0.038806718
108	0x3ce69071	0.028145047
109	0x3db94196	0.09045713
110	0x3dec6781	0.11543179
111	0xbe2a3cc5	-0.16624744
112	0x3d24daef	0.040247854
113	0xbe0d4619	-0.13796271
114	0x3e027fe6	0.12744102
115	0xbdb8fdbc	-0.09032771
116	0x3dc12ee0	0.09432769
117	0xbe433cd3	-0.19066171
118	0xbe40148a	-0.18757835
119	0xbe0dae8a	-0.13836113
120	0xbe3a6e40	-0.1820612
121	0xbe2961aa	-0.16541162
122	0x3e21a1cb	0.15784375
123	0xbe3bb1bb	-0.18329518
124	0xbd047fb7	-0.03234836
125	0xbe0600b7	-0.1308621
126	0x3e0f50ca	0.13995662
127	0xbdbfcb34	-0.0936493
128	0x3e2fcf8f	0.17169021
129	0x3dae5116	0.0851156
130	0xbbb30cfe	-0.0054641953
131	0xbca64b99	-0.02029972
132	0xbe32e120	-0.17468691
133	0x3df55330	0.119787574
134	0xbe01c548	-0.12672913
135	0x3d8f1796	0.069869205
136	0x3dcf8fa0	0.10134816
137	0x3db7b3c7	0.08969837
138	0xbdb010b0	-0.08596933
139	0x3e137b34	0.14402467
140	0x3de55a2d	0.1119884
141	0x3e3789a3	0.17923598
142	0x3c268ad1	0.010164932
143	0xbb795b4f	-0.003804881
144	0x3dcb6048	0.099304736
145	0x3dad9d2b	0.08477243
146	0x3e126f42	0.14300254
147	0x3caba5bf	0.020953057
148	0x3d8cebf3	0.06880941
149	0xbd6bbe92	-0.05755479
150	0xbde3f74d	-0.11131153
151	0x3e40f8bc	0.18844885
152	0x3e0c8be0	0.13725233
153	0x3d1e3967	0.038628962
154	0x3e18494d	0.14871712
155	0xbc869df1	-0.016432734
156	0x3e3e9de6	0.18614921
157	0x3d7c780e	0.06163793
158	0x3d45b737	0.04827043
159	0xbd822f5a	-0.06356688
160	0x3d80d342	0.06290294
161	0x3d4478db	0.04796682

conv1.bias f4 [6]
0	0x3e1afc93	0.15135412
1	0x3d519aa5	0.05117287
2	0xbd324ee0	-0.043532252
3	0xbcc9ce69	-0.024634557
4	0x3dfd55ed	0.12369905
5	0x3c03cde4	0.008044694

conv2.weight f4 [2, 3, 3, 3]
0	0x3d87b542	0.06626369
1	0x3e23baf6	0.15989289
2	0xbd979b75	-0.07402698
3	0xbd3013ed	-0.042987753
4	0xbd7cb18c	-0.06169276
5	0xbdad0e2b	-0.08449968
6	0x3d7d5624	0.06184973
7	0x3e03a02f	0.12854074
8	0xbdb4d993	-0.088305615
9	0x3e21d2b1	0.15803029
10	0xbdddf3fd	-0.10837553
11	0x3ca7ca6d	0.020482266
12	0xbe355223	-0.17707114
13	0xbd5e9fc9	-0.0543516
14	0x3d83b5d5	0.06431166
15	0xbe19bfc1	-0.15014555
16	0xbe26544e	-0.16243097
17	0xbde5cb85	-0.11220459
18	0x3deea5ae	0.11652695
19	0xbc4ce20f	-0.012505068
20	0x3e37e3fd	0.17958064
21	0x3c20c10c	0.009811651
22	0xbe2aaf94	-0.1666854
23	0xbe28d653	-0.16488008
24	0x3dec263a	0.11530729
25	0xbe3dc016	-0.18530306
26	0xbe340538	-0.17580116
27	0x3e4418ea	0.19150129
28	0x3e40980b	0.18808
29	0xbe155832	-0.14584425
30	0x3ddb47e9	0.10707075
31	0xbcbed40f	-0.023294477
32	0xbe2632f9	-0.16230382
33	0x3db06586	0.08613114
34	0x3d901944	0.07036069
35	0xbda90f7a	-0.08254905
36	0xbe354472	-0.17701891
37	0x3cc20d18	0.023687884
38	0xbdfd5bd5	-0.12371031
39	0xbdd36a29	-0.10322983
40	0x3c75ce5e	0.015002815
41	0xbd1d995b	-0.03847633
42	0xbe1d100d	-0.15338154
43	0x3e20c46d	0.1569993
44	0xbd82c732	-0.0638565
45	0x3e3e8d4d	0.1860859
46	0x3e3b8fe4	0.18316609
47	0x3dfdc480	0.12390995
48	0x3d93379c	0.07188341
49	0xbd3d110e	-0.046158843
50	0x3e39be20	0.18138933
51	0xbd11e623	-0.035619866
52	0xbd570eeb	-0.05250446
53	0x3d24fc65	0.040279765

conv2.bias f4 [2]
0	0x3e0e3a8e	0.13889524
1	0x3c19ebde	0.009394614
