utests/models/mini_model_bb_mult.onnx (onnx, 167333 bytes, 26 tensors)

0.branches.0.0.weight f4 [8, 3, 3, 3]
00000000: a003 833b 6510 b1bd 5a0d d3bd 0364 163e
00000010: 0f65 cfbd ee6f d6bd aabb d3bd bae4 94bd
00000020: 6483 2f3e b7e1 d2bc fbf4 d5bc 504a e33d
00000030: c85b 213e 8b2c 03be 51b8 15be d2a0 833d
00000040: 7b80 efbd 6a8d 58bd fee1 423d 52e3 863c
00000050: ea09 043e 7c09 25bd e9bb d93d 0209 f13d
00000060: 7541 b83d 9433 333d 9e81 2c3d dcc2 25bd
00000070: 9bfc aa3d cef0 44be 0b97 f23d 1278 05bc
00000080: 45c8 f33d 491c 19be b525 bfbd 06af f33d
00000090: eb91 fb3d 9750 19be d7c0 1eba 0b8a 9bbd
000000a0: d865 06bb 404c 3e3e 1810 3a3d 742f 98bc
000000b0: 189f bb3d 91c0 21be 4087 d9bd f132 aa3d
000000c0: d7ae 25be df40 193e 413d 20be bbcb 613d
000000d0: d202 25bd 582b 8cbd 778c c1bd 7565 b63d
000000e0: ac1e 0d3e e4c0 20be 8ae0 343e 8d85 143e
000000f0: 9034 04be a7c7 dfbd e0e0 2b3d e3c6 3a3e
00000100: 1cdc 32be d138 3abe 1220 ccbd 43d9 803d
00000110: b7b1 c83d 9398 71bd 6f30 7f3c da69 34be
00000120: 124f d63d 2fa0 30be 2372 0e3e 6d7e 8dbc
00000130: 80c5 c8bd 615f 2abe 9516 79bd 277e 44be
00000140: 0262 ac3c 4578 dcbd 7961 1abe 9375 243e
00000150: 20a2 7f3d 3949 f4bd 5ec3 053d ed53 3d3e
00000160: 364a 4f3d 3669 ccbd 1f7e 60bc 96e9 84bd
00000170: 7ee7 41bd 1c93 b93d 04c3 d5bd 6008 363e
00000180: 8f8e 653c bfe5 18be 2996 073e ad6a 7fbd
00000190: af70 d7bc c88b 4e3d e821 02be 8a65 84bb
000001a0: 780a 8cbc b334 67bd 480c 263c 6463 35be
000001b0: 54a6 be3d 25f0 343e 9d7c acbd 6703 ffbd
000001c0: 6f2a ddbd 6938 2cbe 364e 57bd b503 02be
000001d0: a762 3b3e 1f2c 173e 1e31 fb3d c0c4 4bba
000001e0: e281 7ebd e3a3 3cbc 2e4b 0cbe 4402 acbc
000001f0: 559c 283e b761 92bd eb22 0c3e 6385 0ebd
00000200: 11b3 43bd 685e edbc 02a8 413c a574 6bbd
00000210: 6915 c83c 8c2e 1a3e d408 bd3c 58b5 fbbc
00000220: 31ff ee3d b420 e13d d505 e6bc 256e 1cbd
00000230: 73d8 983d d3cf 073e aff4 2bbe b9ca 363e
00000240: 0b7f 10be 4af8 26be 85e2 903c 4ee2 343e
00000250: 05b1 1a3e 2a23 b9bd ad2a 033e 976e ecbd
00000260: bdea d63c 8f1e 493b 1a51 d4bb e00a 65bd
00000270: b1ee a73d 34ca 7fbc 115f 083e 5a92 bebd
00000280: 9f52 fcbd 8099 183e 35be 853d 875b 2cbe
00000290: 5f1a 0cbd 1c2a 1fbc 3176 ac3d ab85 353e
000002a0: 5d64 8fbd 14b6 763d 0b59 da3d 93a9 283e
000002b0: fb5f a9bd 3d74 9bbd 3510 67bd c931 96bd
000002c0: 2225 babd 7013 c13d 87f8 93bd 41d9 eebd
000002d0: 6836 aa3c 0673 273e 0348 ca3d fb6b 8abd
000002e0: 3dc2 423c 60a7 47bd 8e88 633d f0a3 52bd
000002f0: 1894 3e3e 77c5 133e 1888 20be e3e3 febc
00000300: 4914 0cbe 87fc 113e 8a5f 25be fbae 28be
00000310: 6f2b c6bd a7b9 8dbb cee6 db3d a0c0 063e
00000320: 4238 f5bc 4c81 073e 1642 b33d 2426 383e
00000330: 9cac 5b3b 08b3 81bd bb39 1a3e a92a 803d
00000340: 0c38 b93b 09ff 33be b466 c0bd 5321 cbbd
00000350: 454c 0e3e aa0a 993d e3bf fe3d 958e d33c
0.003998235 -0.08645705 -0.10305281 0.14686589 -0.10126697 -0.10470568 -0.103385285 -0.07270189
0.17139965 -0.025742395 -0.026117792 0.11098158 0.15757668 -0.1280996 -0.14621092 0.064271584
-0.116944276 -0.052869238 0.047578804 0.016465817 0.12894407 -0.040292248 0.10631544 0.11769296
0.0899686 0.04375036 0.0421158 -0.040469036 0.08348962 -0.19232485 0.118452154 -0.008146303
0.11903433 -0.14952196 -0.09333364 0.118986174 0.12283691 -0.14972149 -0.0006055957 -0.07594689
-0.002050748 0.18583775 0.045425504 -0.018577315 0.09161204 -0.15796115 -0.106215 0.083104976
-0.16179977 0.14966153 -0.15648367 0.055125933 -0.040285893 -0.06844205 -0.0945062 0.0890607
0.13781232 -0.15698582 0.1766378 0.1450407 -0.12910676 -0.109267525 0.041962504 0.18239932
-0.17466778 -0.18185736 -0.099670544 0.062914394 0.097995214 -0.058983397 0.015575512 -0.17618504
0.104643 -0.17248605 0.13910727 -0.017272199 -0.09803295 -0.16637947 -0.06081255 -0.19188748
0.021042828 -0.10765127 -0.15076245 0.16060476 0.062410474 -0.119280286 0.03265702 0.18489046
0.050607882 -0.09981005 -0.013701945 -0.064898655 -0.04733991 0.09061262 -0.10437587 0.17776632
0.014011039 -0.14931391 0.13240875 -0.062357593 -0.026298849 0.050426275 -0.12708247 -0.0040404247
-0.017094836 -0.056446742 0.010134764 -0.17713696 0.09309068 0.17669733 -0.084222056 -0.12451821
-0.10799109 -0.16818394 -0.052564822 -0.12696727 0.18299352 0.14762925 0.12265228 -0.00077731535
-0.062135585 -0.011513683 -0.13700554 -0.020997174 0.16465886 -0.07147544 0.13685195 -0.034795176
-0.047778193 -0.02897568 0.011819841 -0.057484288 0.024424272 0.15056819 0.023075499 -0.03072612
0.11669768 0.10992566 -0.028078953 -0.03819098 0.074631594 0.13262872 -0.16792558 0.1785077
-0.14110963 -0.16305652 0.017686138 0.17664453 0.1510659 -0.0903991 0.12809248 -0.11544531
0.026234979 0.003068838 -0.0064793946 -0.055918574 0.08199824 -0.015612174 0.13317515 -0.09305258
-0.12320446 0.14902306 0.0653042 -0.1683179 -0.034204837 -0.0097146295 0.08420981 0.17726772
-0.07001565 0.060232237 0.10661515 0.16470937 -0.0827026 -0.0759053 -0.05641194 -0.073337145
-0.09089114 0.094275355 -0.07225137 -0.11662532 0.020777896 0.16352472 0.098770164 -0.06758877
0.01188713 -0.048743606 0.05555015 -0.051425874 0.18611181 0.14430796 -0.15676916 -0.031114524
-0.13679613 0.14256488 -0.16149727 -0.16473 -0.09676253 -0.00432511 0.10737382 0.13159418
-0.029934052 0.13232917 0.08752839 0.179833 0.0033519631 -0.063329756 0.15061085 0.06258137
0.0056524333 -0.17577757 -0.09394589 -0.099184655 0.13896282 0.07472737 0.12438943 0.025824824

0.branches.0.0.bias f4 [8]
00000000: 9488 943c fd07 1f3e 1ce8 ac3d c135 75bd
00000010: 1541 143c a2c4 253e bec3 00be 208f 183e
0.018131532 0.15530391 0.08442709 -0.059865717 0.00904872 0.1618829 -0.1257467 0.14898348

0.branches.1.0.weight f4 [8, 3, 3, 3]
00000000: cbfe 05be 296e b0bd 9861 13be c884 dcbc
00000010: bf1a 203d d510 0a3d 38ce bb3c 8898 42be
00000020: 4761 073c 15f4 29be 4807 40bd a118 a23d
00000030: b749 c23d 32b4 cabd adac b13d ff52 12be
00000040: 9986 0cbd cf75 253d 6dfe 873d 8cc9 d03c
00000050: b46d 3b3d 9d2a 37be ca44 e13d a482 24be
00000060: 80b1 2b3e 2698 3cbe ca27 f3bc 65ee 3c3e
00000070: 1ae1 17bd b279 0ebd 4881 d7bb 5f8a 1d3d
00000080: 4d04 41be 0a6b 0d3d 79c6 cd3d 0f3e 60bd
00000090: a6dc 143e 70ba 77bd 5c68 0c3d 8345 a6bd
000000a0: 7dde d03d 6e8c 0abd 68f9 44be 1f53 c2bd
000000b0: a242 9d3c 5e66 e63d 4db7 c03d 8680 42be
000000c0: 2d30 1cbd 35f4 25be 08ca 173e cdcb 19be
000000d0: dc18 94bd a924 0bbd 604a aebd fe8d 2dbd
000000e0: 72a3 d0bb c6a3 02be c480 bcbc 6ed7 fbbd
000000f0: bcd9 4cbd 1ce2 50bd 2ee1 303e eb8a 07bd
00000100: 9f68 c8bd e2ab cc3c 06c7 fd3d fa62 3e3e
00000110: 2c0f f93d a339 4fbb a493 09be 4ed3 723d
00000120: 4312 233e adb0 083e 59ea b73d 516b 813d
00000130: 3302 9dbd 4239 4c3d b9d1 0dbe 58be e1bd
00000140: 398c ffbd 56b2 213e 9704 8e3d fb31 a33d
00000150: cc31 e1bd 8979 113e 4a2b 25be c0ec 37be
00000160: 2641 37bd 966d 783d fed0 083e 3ea6 d33d
00000170: f805 f5bd 2146 85bc 85a8 453d f40c b4bb
00000180: e21f 17be c428 88bd 150c 3a3e 2fcd d9bd
00000190: 1032 ca3d 5406 fe3c d6c1 ccbd b1e6 143e
000001a0: 5ed7 c33d 134b 20be 532c a63b e1b4 a8bb
000001b0: c2e6 1bbd 60b8 ed3b d207 00be 1443 25be
000001c0: 4eb8 0d3e 95bf e8bd 8f9a 923c cf12 11be
000001d0: 94e4 023e 4508 e4bd f351 313d a580 cebc
000001e0: 089c 103e 0027 8abd 39d3 093d 58de e7bc
000001f0: 3402 d33d 8843 04be f81f 36be 5704 13be
00000200: 879f d63d 6c6f 673d 965a d33d 1a84 9bbd
00000210: 731a bdbd 54da e9bd 6eaa 0a3e eddf adbc
00000220: e4a7 7ebd 2832 d8bd 41a6 98bd 0df7 2d3e
00000230: 2ae8 c4bd 10a9 c03c ffaf 613d eaa3 d4bd
00000240: 02ab dc3d 9ae0 9d3d 2114 04be 8bf3 cfba
00000250: f1d6 0d3e 262a 33bd e136 f43d b657 213d
00000260: 577e 803d d60a 233e a45f 853d f5bf fabd
00000270: ea44 0cbe a5f0 26bd 42e4 dfb9 7d8e 533d
00000280: 1616 233e ea85 c03d bb4f 07be f47b 4ebd
00000290: f165 c3bd 757c 0a3e 926c c73d b298 2dbe
000002a0: ad1f 26be 080a c6bd 8d55 5bbd ab42 cb3d
000002b0: 2871 0a3e c3c1 af3d aee8 433e 8ccc 24bd
000002c0: 4f9d 44be a15d ecbc 3ff0 efbd e77c 28bd
000002d0: c909 0e3d 8c2c ebba bf58 20be d800 7e3d
000002e0: 1088 083d 8467 afbd b840 85bd 1bd4 293e
000002f0: 452e 043e 0635 b33c 989b 14be 624d 393d
00000300: cce2 593d e83c 3d3d fc16 abbd 759c 323d
00000310: 7efd 303e 2278 123d 1f87 94bd 635f dcbd
00000320: 6384 8ebd 37ce 253c e67d 103e 1186 0f3d
00000330: 7023 d3bd b976 273e bdf1 8b3c 4e91 e23d
00000340: 63ca b13d 5f72 fb3c 0c58 e53c 1cde 0a3e
00000350: 3d76 babd 6d20 ddbd 42db fd3d d281 15be
-0.13085477 -0.086147614 -0.14392698 -0.026918784 0.039088007 0.03370746 0.022925481 -0.19003499
0.008262939 -0.16597016 -0.046881944 0.07914854 0.09486716 -0.09897651 0.086755134 -0.14289473
-0.03430805 0.040395554 0.06640325 0.02548673 0.045758918 -0.1788735 0.109994486 -0.1606546
0.1676693 -0.18417415 -0.029682059 0.18450315 -0.037079908 -0.034784026 -0.006576691 0.03846204
-0.18849297 0.03452591 0.10047621 -0.054746684 0.14537296 -0.060480535 0.034279212 -0.08118727
0.10198686 -0.03382533 -0.19235766 -0.0948851 0.019196812 0.11249994 0.09409962 -0.1899434
-0.03813188 -0.16206439 0.14823163 -0.1501915 -0.07231304 -0.03397051 -0.0851028 -0.042371742
-0.0063671404 -0.12757787 -0.023010619 -0.12296949 -0.050012335 -0.050996885 0.17273399 -0.033091467
-0.0978558 0.024984304 0.12391476 0.18592444 0.12161097 -0.0031620048 -0.13435227 0.059283547
0.15924935 0.13348646 0.08980245 0.06319297 -0.07666435 0.049859293 -0.13849534 -0.11022633
-0.12477917 0.15790686 0.06934469 0.079685174 -0.10995826 0.14206518 -0.16129795 -0.17961407
-0.044739865 0.060651384 0.13360974 0.103344426 -0.11964029 -0.016268792 0.048256416 -0.005494708
-0.14758256 -0.066484004 0.18168671 -0.10634839 0.0987283 0.031008877 -0.09997909 0.14541127
0.095625624 -0.15653639 0.005071202 -0.0051485156 -0.038061865 0.007254645 -0.12502983 -0.1613887
0.13839838 -0.113646664 0.017895965 -0.14167331 0.12782508 -0.1113439 0.043291043 -0.025207827
0.14122021 -0.0674572 0.033648703 -0.028304264 0.103031546 -0.12916386 -0.17785633 -0.14357124
0.10479646 0.056502745 0.10320012 -0.07593556 -0.092335604 -0.11418596 0.13541576 -0.02122494
-0.06217183 -0.105564415 -0.074535854 0.16988774 -0.09614594 0.023518115 0.055099484 -0.103828266
0.10774805 0.07708855 -0.12898304 -0.0015865428 0.13851525 -0.043741368 0.1192453 0.03939029
0.062740974 0.15922102 0.065123826 -0.12243644 -0.13698164 -0.04075684 -0.0004270394 0.05164956
0.15926394 0.09400542 -0.13214009 -0.05041118 -0.09540928 0.13524039 0.09737505 -0.1695278
-0.16223021 -0.09669882 -0.053548384 0.09924825 0.13519728 0.08581879 0.19131729 -0.040234134
-0.19200633 -0.02885324 -0.11715745 -0.04113474 0.0346773 -0.0017942353 -0.15658854 0.062012523
0.033332884 -0.08564666 -0.06506485 0.16584818 0.12908275 0.02187587 -0.1451248 0.045239814
0.053194806 0.046200663 -0.08353993 0.04360624 0.172842 0.0357591 -0.07252335 -0.10760381
-0.069588445 0.010119966 0.14110526 0.035039965 -0.103094935 0.16353883 0.017083043 0.11062871
0.0868118 0.030694185 0.027996086 0.1356129 -0.091045834 -0.107972 0.12395336 -0.14600304

0.branches.1.0.bias f4 [8]
00000000: d099 b93d fcda 43be 8078 4cbc b385 b73d
00000010: 9c8f 35be c588 46bd 67eb 633c 7365 85bd
0.090625405 -0.19126505 -0.012479901 0.08961048 -0.17730564 -0.048470277 0.013911105 -0.065134905

0.branches.2.0.weight f4 [4, 3, 1, 1]
00000000: b734 ec3e 0a00 1abe 84f5 fc3e fd5c fc3e
00000010: 2b1b 79be c484 aa3e 8516 c03e e084 84be
00000020: 0ac8 b63e 2282 113e ac25 16ba 9025 873e
0.46133968 -0.15039077 0.49406064 0.49289694 -0.2432677 0.33304417 0.3751718 -0.25882626
0.35699493 0.14209798 -0.00057276594 0.26395845

0.branches.2.0.bias f4 [4]
00000000: 7ce6 e9be 6de8 85bd 7b96 8d3d 7826 02be
-0.45683658 -0.06538472 0.069134675 -0.12709987

1.0.weight f4 [1, 23, 1, 1]
00000000: 3743 3dbd d6e5 5c3d fe11 063d 6e08 17be
00000010: 1df3 263e 8401 383e 0e1b acbd 4858 1a3d
00000020: 7c5d 4cbe 3047 4d3e 4216 afbc a2c9 123a
00000030: ab77 aa3d 1432 5e3d 2758 fa3c a8e7 503e
00000040: 3346 4a3e 6755 53be 8fdf 10be fe5d a23c
00000050: 4edd 103e 79f2 383e ae9b 3a3e
-0.04620668 0.053930126 0.032732002 -0.1474931 0.16303678 0.17969328 -0.08403598 0.037681848
-0.19957536 0.20046687 -0.021372918 0.00055995036 0.08323606 0.054246977 0.030559612 0.2040087
0.19753341 -0.20638047 -0.14147781 0.01982021 0.14146921 0.18061246 0.1822345

2.0.weight f4 [64, 1, 3, 3]
00000000: abb3 123d d6c9 0d3e 5e8e a7be d015 e03d
00000010: 5053 e0bd c06d eabd 56a3 283d 678d 84be
00000020: 56ad 24bc d8f1 68be d6fb 2abe eb67 a73c
00000030: d6d5 f83d 1c67 a73e ae5a 3cbe e0b6 923d
00000040: 809b 43be c607 86be eb9b 59bd b347 353e
00000050: 83fb 633e e871 45be 6ba4 40bd fa5f 8abe
00000060: ee1b 083e e491 9cbe f782 9a3e ae9f 8b3e
00000070: 4b5c 1b3e 27dc 953e 00e3 aa3c bc9a 9bbe
00000080: 00f4 673c 6b44 073d 96fa 7f3d f017 ddbd
00000090: cb25 8bbd 3ba7 bebd 0b8e 58be 2bf2 e8bd
000000a0: 00be 243c fe7a 193e 7a81 a2be c771 923e
000000b0: 8072 54bd 1076 a73e 76b6 b83d 6829 0e3e
000000c0: f0fe 1d3e 800a 41be a095 cabd b3f1 953e
000000d0: 2654 a53e c0aa 3b3e 6b92 b23d 504e 903e
000000e0: e8ae 0c3e 9b33 b1bd d876 8fbe ab62 8a3c
000000f0: ab1b 373e 04c4 8a3e d0fe 32be 008f d1bd
00000100: bfc6 943e f8a8 153e 6075 6abd abc8 a33c
00000110: 3411 a0be cbdf 34be 8b2d febd 4e49 963e
00000120: 837f 19be 20e5 e03d 561f 4abe 20af b13d
00000130: 03ef 5d3e 8bcb 063d 0670 e63d 9381 123e
00000140: b324 98be 7b93 893e ab0a 3c39 af8a 8ebe
00000150: 23c3 143e 3000 423e c0c7 003d bb73 323e
00000160: 50ee d5bd bb43 833e abb6 67bb dba2 95be
00000170: 70d7 103e b07a c5bd 32b9 853e ee87 343e
00000180: 18b4 32be 5c60 9cbe 9b9d 5c3e 001c dd3b
00000190: a735 a73e 8ba0 24be 40e4 943e 46b9 053e
000001a0: 187d 793e 5635 e3b9 6673 7e3e 1885 443e
000001b0: b88c 07be a694 763e f0b3 6fbe cb0e 2a3d
000001c0: 28ce 8b3e f656 823d 6e73 7d3e 8051 543c
000001d0: 4713 98be 1e37 883e fb0e 983e 76ec 1d3e
000001e0: 831e 33be 5637 b4bd e0c8 17be 46d4 0f3e
000001f0: 509c fd3d ebd8 f43c e68d b03d eb64 b8bd
00000200: 2bfd 01bd b731 88be 263a 53be d6d9 43be
00000210: ab4e 2bbb 28a5 a5be 562a edbd ee90 4e3e
00000220: 00dc 73bd e4bc a6be a391 54be 632a 663e
00000230: 9e98 8b3e 4046 aa3d ae83 93be c0e3 d0bc
00000240: 6eda 9d3e 082d 443e 83ce 4dbe 90dc 103e
00000250: 0636 1d3e 072b 883e d05b abbd 16d5 c43c
00000260: eb01 5abd 3759 aabe e602 ee3d 7b79 693e
00000270: b070 d83d 0284 8b3e eb2b 07be 2654 f53d
00000280: 5827 86be d66d 01bd 20e6 843d 6b2c 893d
00000290: 8ea2 3bbe c6ff eb3d 20ef 3cbe 40c6 d63c
000002a0: 3010 00be c8aa 22be 00e1 bdbc 4ea5 843e
000002b0: 571a 9d3e d6c7 6cbc e6e4 e73d 9837 92be
000002c0: 0b4b 763e 202d e73d f2f2 a03e ff79 a53e
000002d0: 2b8b 7cbe f673 3fbe e664 6cbe 06bd 81be
000002e0: e8b8 833e 2e5f 8abe bc9c 9bbe 70f9 acbd
000002f0: e670 e63d 373e 8dbe 2ecb 3d3e 809b 32be
00000300: fb92 9ebd 6862 413e c639 4b3e 46f8 babd
00000310: e8e7 9dbe aae4 8bbe 5624 9bbc 58c6 2f3e
00000320: 6b70 6abe 8b0c 283d 2bbe ea3c 96ce 5b3d
00000330: 1e1d 6a3e c6d0 9b3e 33b3 383e f374 7c3e
00000340: 92ca a5be 0ba5 34bd 4f11 963e ff82 a33e
00000350: d0bb ed3d cbdd f43d 461a 38be d8d2 3abe
00000360: 2b72 fabc 0024 25be 6688 803e 1e50 813e
00000370: 76f6 333e d2a9 a5be 4bf6 4ebd febb 1ebe
00000380: ab85 c93b f0cb 883e 7b5f b53d c33f 67be
00000390: f0ab 0ebe f463 9b3e 582c 833e 1e81 8ebe
000003a0: 8a3c a9be c04b 443e 5215 853e 00de b2bb
000003b0: 2bc2 c5bd fe63 a53e d824 353e f01a 9cbe
000003c0: d6aa 983c a756 903e 784f 64be 46d8 53be
000003d0: 0bfc 24bd 3b2a b33d 3bbb 843e 5645 40bb
000003e0: 3a58 90be 4be8 cebd 50cc 9abd 802b 023c
000003f0: 3f04 88be a658 ca3d db39 193e 2baa 7cbe
0.035815876 0.13846526 -0.32725805 0.109416604 -0.109533906 -0.114467144 0.041171394 -0.2588913
-0.010051092 -0.22748506 -0.1669763 0.020435294 0.12150161 0.32695854 -0.18393967 0.07163787
-0.19102287 -0.26177806 -0.05312721 0.17703132 0.22263913 -0.19281733 -0.0470318 -0.2702635
0.13291904 -0.30580056 0.30178043 0.27270263 0.15171926 0.29269525 0.020860195 -0.3039149
0.014157295 0.033024233 0.062494837 -0.10795581 -0.06794318 -0.093092404 -0.21147935 -0.11374315
0.010055065 0.14988324 -0.31739408 0.2860243 -0.05186701 0.32707262 0.09019177 0.13882983
0.15429282 -0.18851662 -0.0989182 0.29285964 0.32290763 0.18326855 0.08719333 0.28184748
0.13738596 -0.08652421 -0.28020358 0.016892752 0.17881648 0.27102673 -0.17480016 -0.10232353
0.2905788 0.14615238 -0.057240844 0.019993147 -0.31263125 -0.17663495 -0.124110304 0.29352802
-0.14990048 0.10981202 -0.19738516 0.086759806 0.21673207 0.032908957 0.112518355 0.14307241
-0.297155 0.2687033 0.00017933051 -0.27840182 0.14527564 0.18945384 0.031440496 0.1742696
-0.10445845 0.25637612 -0.0035356681 -0.2922581 0.14144683 -0.096425414 0.26117855 0.17629978
-0.17451513 -0.30542266 0.21544497 0.0067477226 0.3265812 -0.16076867 0.2908039 0.13058957
0.24364126 -0.00043336552 0.24848709 0.19191396 -0.13237274 0.24080142 -0.23408484 0.041518014
0.27305722 0.06364243 0.24751064 0.012958884 -0.29702207 0.2660455 0.2969893 0.15422234
-0.17492108 -0.08799617 -0.14822721 0.1404582 0.1238333 0.02988859 0.08620815 -0.090036236
-0.03173558 -0.2660043 -0.2062765 -0.19126067 -0.002613942 -0.32352567 -0.115803406 0.20172474
-0.05953598 -0.32565987 -0.20758681 0.22477107 0.27264875 0.083141804 -0.288114 -0.025499225
0.3083071 0.19157803 -0.20098309 0.14146638 0.1535264 0.26595327 -0.08367121 0.024027389
-0.053224485 -0.3327119 0.116216466 0.22800247 0.105683684 0.2724915 -0.13200347 0.11978941
-0.26201892 -0.03159889 0.06489205 0.06697925 -0.18323728 0.11523394 -0.18450594 0.02621758
-0.12506175 -0.1588546 -0.023178577 0.25907367 0.30684158 -0.0144519415 0.11322956 -0.2855804
0.24052064 0.11287904 0.31435353 0.32319638 -0.24662463 -0.1869658 -0.23085365 -0.25339526
0.2572701 -0.2702574 -0.30393016 -0.08446014 0.112520024 -0.2758653 0.18534538 -0.17442131
-0.07742878 0.18885195 0.19846258 -0.09129386 -0.30840993 -0.27322894 -0.018938225 0.17165506
-0.22894447 0.041027587 0.028655132 0.053663813 0.2286267 0.3043272 0.18037109 0.24653988
-0.3238111 -0.04410271 0.2931008 0.3193588 0.11608088 0.11956366 -0.17978773 -0.18244493
-0.030572018 -0.16127014 0.25104064 0.25256437 0.17574486 -0.32356125 -0.050527852 -0.15501401
0.0061499677 0.26718092 0.08856102 -0.22582917 -0.13932776 0.30349696 0.2561977 -0.27832884
-0.33054 0.19169521 0.2599283 -0.0054585934 -0.09656175 0.3230285 0.17689836 -0.30489302
0.018636148 0.2819111 -0.2229594 -0.2068797 -0.04027943 0.08748289 0.25924096 -0.0029338202
-0.28192312 -0.101029 -0.07558501 0.0079449415 -0.2656574 0.098801896 0.14963476 -0.24674289

2.0.bias f4 [64]
00000000: 9bc1 98be fbfe 1e3e 801e 94bc c679 8a3e
00000010: ce7c 5dbe 8b9f 1fbe c064 09be 9676 10be
00000020: c3d5 653e de45 20be 2b70 1f3e a8ce 6e3e
00000030: 4813 453e 0e92 693e 23ac 50be 4b27 6cbd
00000040: 0b27 aebd 2b8c 463e 3679 b33d d092 bdbd
00000050: be07 6abe e88c 03be 36b4 5dbd 6e25 73be
00000060: 887d 2ebe 0066 cebb 560b 043b 8397 573e
00000070: 96ac 163d 74e9 84be 28b2 9fbe 06ce 91be
00000080: 80a6 f6bc b051 1f3e 507d 8cbd 864a d0bd
00000090: ebf9 8cbc eb0a 3ebe 1b82 95bd 30ac f33d
000000a0: 835f 0f3e 9880 88be 7bd4 01be bb16 643e
000000b0: 004b 203c a62f fb3d f8f3 64be 5645 223d
000000c0: 96ca 453d 189d 00be 689b a6be 8640 f63d
000000d0: b0d8 d23d fa70 8c3e 6b57 aa3c 8608 40be
000000e0: 8336 8abe eb11 e8bc b02f 25be 43d3 46be
000000f0: cbb4 a23d 83f1 253e 9752 8f3e 0011 033c
-0.2983521 0.15526955 -0.01808095 0.2704603 -0.2162964 -0.15588205 -0.1341734 -0.14107737
0.22444825 -0.15651652 0.15570132 0.2332102 0.19245636 0.22809622 -0.20378165 -0.05765466
-0.085035406 0.19389407 0.087633535 -0.09256518 -0.22854516 -0.1284672 -0.05412694 -0.23744747
-0.17040074 -0.0062987804 0.0020148358 0.21053891 0.036785685 -0.2595936 -0.3119061 -0.28477496
-0.03010869 0.15558505 -0.06859839 -0.10170464 -0.017209014 -0.18558852 -0.07300206 0.118980765
0.14001279 -0.2666061 -0.12678711 0.22274296 0.009783506 0.122649476 -0.22358692 0.039616905
0.048288904 -0.12559927 -0.3254044 0.120240256 0.10295236 0.27429944 0.020793637 -0.18753251
-0.26994714 -0.028328856 -0.16131473 -0.19416527 0.0794464 0.1620541 0.279927 0.007999659

3.0.branches.0.0.weight f4 [64, 64, 1, 1]
00000000: fedd 9b3d e679 c83d f212 8b3d e640 d6bd
00000010: b29d bb3d 2e74 be3d e4fe ef3d 5ac6 bfbd
00000020: 607a fe3b e02c aabb 00e0 8abb a6d1 973d
00000030: 30f8 2abc 1ce3 9b3d 4843 a43c 4002 9a3c
00000040: 98ce 453d 506b 1d3c 2675 a13d 14df 90bd
00000050: a0c4 983d c272 f3bd 54ae c93d 881e 6fbd
00000060: f4de ed3d 6cb5 b4bd 9e0a f83d 48d7 873d
00000070: 98c9 b1bd 3c63 6cbd 2662 e9bd e603 85bd
00000080: 48ec dbbc 6862 9ebc 4c65 85bd 6eb4 a8bd
00000090: cae6 b23d 2038 1cbc 788e fd3c 68b6 64bd
000000a0: 1025 2dbd 787a 813d 0efa dbbd 9cac 8a3d
000000b0: a28a 81bd b277 d5bd f225 8e3d 96e6 eb3d
000000c0: c828 febc fe46 cf3d f806 4c3d 0e54 fbbd
000000d0: c8f6 f93c 98ea 263d 4a54 843d 9862 1cbd
000000e0: 0087 a8bb 3496 9bbd 2016 133d 0e89 ebbd
000000f0: ac21 d7bd b287 a3bd 8a5b b63d a0a8 663d
00000100: c8f5 8a3d 0cd4 13bd 141e 3ebd b248 f0bd
00000110: acdc 1dbd f6ea c9bd 8013 8bbd 0882 51bd
00000120: bc3c 7d3d a010 b8bd 00fa 1ebb 3873 a2bc
00000130: 6039 b63d a085 8cbb a2d6 95bd 0451 293d
00000140: de7d 8d3d 0af4 afbd b68d 9b3d 60b6 d03c
00000150: 5ef9 ea3d e449 f13d 00db 9abc 1ca7 eb3d
00000160: d8dd 87bc 1c4c 4cbd 6044 b0bd ee47 f3bd
00000170: c2d4 b6bd b020 3f3c b451 7cbd 0823 b53c
00000180: 7038 39bd 0a92 babd 46af d8bd 1038 edbd
00000190: 54f0 4bbd b438 bfbd be63 a8bd 1a2e e5bd
000001a0: 6021 c4bd c019 4b3d 20f5 913d 7cff 873d
000001b0: 14b4 3f3d 3056 8f3c b6c8 d63d 98f2 cfbd
000001c0: b218 b63d f0a1 d93c 3802 9abc 283e 34bd
000001d0: bc4a 86bd 4cb1 773d 503f 17bc 247f 0d3d
000001e0: 72eb a8bd f0e3 9abc f803 7a3d d66e 943d
000001f0: 3a78 bd3d f0d3 67bc c0e4 bbbb 0e80 e53d
00000200: ec5b 943d f88b e33c 7816 e9bd a0e6 20bc
00000210: d0e2 f8bd a61d cabd 9829 d53d 4639 89bd
00000220: ac3d f5bd c0f1 bc3d 4ad0 873d 4483 b73d
00000230: 38ad 6c3d 7896 93bd 1008 6c3c 948d 303d
00000240: d825 c23d 7eac 89bd 6cea f7bd e00c d83c
00000250: 64b6 5b3d 14b6 3abd 9e56 e03d f05c 82bc
00000260: c2b4 973d 109f 243d 3060 4e3d 90de 513c
00000270: d0d8 f73c e47a a2bd 5854 c6bc 9eed d4bd
00000280: 50b0 e63c f20a d8bd e424 cd3d fa67 b3bd
00000290: 8095 ab3d a012 e83b 4a76 e9bd 96ff 81bd
000002a0: 8081 c73d 20c1 22bc 042e 4bbd 98cd f7bd
000002b0: 16d6 b9bd 605d 16bd c073 bf3b da05 853d
000002c0: dc20 523d f867 9fbc 80e6 50bb 5c09 ff3d
000002d0: 38dc aa3d a8f0 cfbc 400f 81bd 544c 843d
000002e0: 9812 d0bc e843 b2bd 385a 863c 2445 5f3d
000002f0: a8a6 ffbd 9cc6 a4bd 6094 3a3d a87e 873d
00000300: 6e0a b6bd 841e 3a3d 865f db3d 00d4 ec3b
00000310: 20a5 7abc a0f9 aa3d 3000 8dbc ac34 033d
00000320: 6a0b d0bd d092 b9bd e03c d6bd 40fa d93d
00000330: 96a5 df3d c4e1 153d dab5 f83d 52ed 993d
00000340: 32cc 953d 386b e0bd a870 6d3d a0b4 953c
00000350: c05a 79bc 408d f13c 3485 ff3d 400a b53c
00000360: 0063 ebba da78 f13d 6064 633d 44d8 e83d
00000370: e0df 6a3c 0452 b7bd e2b3 a93d 1a7f aebd
00000380: dcb6 243d 5087 79bc 0607 823d 803c 90bd
00000390: 3007 13bd 80f0 6f3c ae66 ae3d 0878 69bd
000003a0: 841a ca3d f0b3 cabc ee67 f53d f81c 51bd
000003b0: d263 e53d 00a0 9e39 845c fa3d 1e97 8abd
000003c0: 4469 21bd d059 843c 5eff e53d d4da 1abd
000003d0: 4022 5c3d 405b 9ebd 0a4c b63d aa4f a4bd
000003e0: 8029 853b 1ab5 e13d 98c3 903d 0a7b 83bd
000003f0: f0df 8dbd 0c9f 963d 10f0 da3c 7aec d1bd
0.07610701 0.09788875 0.06790723 -0.10461597 0.09160937 0.09299503 0.117185384 -0.093640044
0.007766053 -0.005193338 -0.0042381287 0.07413034 -0.010435149 0.07611677 0.020051613 0.018799901
0.048292726 0.009608105 0.078836724 -0.07073799 0.07459378 -0.11887123 0.098477036 -0.058378726
0.116147906 -0.08823666 0.121114 0.066328585 -0.08681029 -0.057711825 -0.113956735 -0.06494884
-0.026846066 -0.019334033 -0.065134615 -0.08237539 0.08735426 -0.009534866 0.030951723 -0.05583802
-0.042271674 0.06322187 -0.107410535 0.06771204 -0.0632527 -0.10423221 0.06940831 0.1151859
-0.031025305 0.101209626 0.049811333 -0.122718915 0.030513182 0.04075107 0.06461389 -0.038179964
-0.0051430464 -0.07597008 0.035909772 -0.115007505 -0.10504469 -0.07984866 0.089041784 0.056313157
0.0678516 -0.036090896 -0.046415403 -0.117326155 -0.038540527 -0.09859268 -0.06790829 -0.051149398
0.0618255 -0.08987546 -0.0024257898 -0.019830331 0.08897662 -0.0042883903 -0.073163286 0.04133703
0.06908773 -0.08591469 0.075953886 0.025477588 0.11473344 0.11781672 -0.018903255 0.11506483
-0.016585276 -0.04987727 -0.086067915 -0.11878954 -0.08927299 0.011665508 -0.061601356 0.02211143
-0.04521984 -0.09109886 -0.10580306 -0.11582959 -0.04978974 -0.09336987 -0.08222149 -0.11190434
-0.09576678 0.049585104 0.07126832 0.06640527 0.046802595 0.017497152 0.10487501 -0.10153693
0.08891429 0.026566476 -0.018799886 -0.04400459 -0.06557223 0.060471818 -0.0092314035 0.03454508
-0.08248033 -0.018907517 0.06103894 0.07247703 0.09251447 -0.014149651 -0.0057340562 0.11206065
0.07244095 0.027776703 -0.11381239 -0.00982061 -0.12152636 -0.09868936 0.10408324 -0.06700377
-0.119746536 0.09225798 0.06631525 0.08960584 0.05778238 -0.07206434 0.014406219 0.04310377
0.09479874 -0.067223534 -0.12105259 0.026373327 0.053640738 -0.0455838 0.10954021 -0.015913457
0.07407524 0.040190756 0.0503847 0.012809411 0.030254751 -0.07933596 -0.02421014 -0.103968844
0.028160244 -0.10548963 0.10016802 -0.08760066 0.08378124 0.0070822984 -0.11399515 -0.06347577
0.09741497 -0.00993374 -0.04960443 -0.12099761 -0.09074037 -0.036710143 0.005842656 0.06495257
0.05130087 -0.019458756 -0.003187567 0.12452957 0.08342785 -0.025383309 -0.06301737 0.06459871
-0.025399491 -0.08704358 0.016400442 0.054509297 -0.12482959 -0.08045694 0.045551658 0.06615955
-0.08888708 0.04543926 0.10711579 0.007227421 -0.015298158 0.083483934 -0.017212003 0.032032654
-0.10158427 -0.090612054 -0.1046083 0.106434345 0.10920255 0.03659226 0.121440604 0.075159684
0.07314338 -0.1095795 0.057968765 0.018274605 -0.01521939 0.029486299 0.12476578 0.022099614
-0.0017958581 0.11790629 0.055515647 0.113693744 0.0143356025 -0.0895119 0.08286263 -0.085203364
0.04021345 -0.015230015 0.06348996 -0.070427895 -0.035895526 0.014644742 0.08515678 -0.056999236
0.09868339 -0.024744004 0.11982714 -0.051053017 0.1120068 0.00030255318 0.12224677 -0.067671046
-0.03940703 0.016156107 0.11230348 -0.037806347 0.0537436 -0.07732248 0.08901222 -0.08023007
0.004063785 0.110208705 0.070685565 -0.06419952 -0.06927478 0.073545545 0.026725799 -0.102501824

3.0.branches.0.0.bias f4 [64]
00000000: 9097 4b3d 0069 f9ba 2ede eebd 42fe a43d
00000010: 2860 79bd d078 533c c0be 65bb f2d5 9d3d
00000020: 684f a03d 14e7 36bd ba73 b03d 302d dcbc
00000030: 2033 5f3c 8046 3bbc a84a 583d e683 f6bd
00000040: 1a28 ce3d a6ae 98bd 802e 5bbd c2d1 f3bd
00000050: 607d 31bd f4e3 7a3d f491 54bd 1057 383c
00000060: 44a9 cd3d 14d0 debd ecf3 223d 66fa e03d
00000070: 608d 3a3c 68d6 fb3d 8042 dfbd 10b7 30bc
00000080: 5c54 d23d 40de 17bd 6056 ecbc 201b 16bc
00000090: 1a5f f03d 7460 8bbd a0b5 0c3c 4a5d ac3d
000000a0: fc9f 0c3d 9460 9ebd b2d8 d03d f05d c0bc
000000b0: e064 343d 403e 083b c0f8 c4bc 6445 40bd
000000c0: 1419 d7bd 6019 15bc b251 86bd 9e76 dbbd
000000d0: 3034 df3d 087a db3c 785b b9bc f016 20bc
000000e0: 2014 463d 00f4 593a b06a 663d b0a9 773d
000000f0: 509b d4bc 9ee8 f53d f08c c2bc a4e9 213d
0.04970509 -0.0019028485 -0.11663471 0.08056308 -0.060882717 0.012907222 -0.0035056323 0.077068225
0.078276455 -0.044653967 0.08615823 -0.026877016 0.013623029 -0.011430383 0.052805573 -0.120368764
0.100662425 -0.074551865 -0.053511143 -0.119052425 -0.043332458 0.06125255 -0.051897004 0.011251226
0.100420505 -0.108795315 0.039783403 0.1098526 0.0113862455 0.12296754 -0.10901356 -0.010785833
0.102699965 -0.03707719 -0.02884978 -0.009161741 0.11736889 -0.06805506 0.008588225 0.08416231
0.03433226 -0.077332646 0.10197581 -0.023482293 0.044041514 0.0020789057 -0.024044394 -0.046941176
-0.1050283 -0.009100288 -0.06558551 -0.10715984 0.10898626 0.026791587 -0.022626624 -0.009771094
0.048359036 0.0008314252 0.05625409 0.06046456 -0.025952965 0.12007259 -0.023748845 0.039529458

3.0.branches.1.0.weight f4 [32, 32, 3, 1]
00000000: ade9 103c c164 6bbd f19b e7ba 9b7a bebc
00000010: 5ea2 76bd 1d5e be3d 9d9e 6abd 0ecc 38bd
00000020: cafe cebd 5a22 543d 61af 4e3c 41a4 403d
00000030: 940d 4c3d 7786 89bc aab2 85bd d402 c13d
00000040: 7945 c63d 01f5 a0bd a79d 15bb 6348 cdbd
00000050: e3db 84bd b19d 873d e117 9abd 6277 ccbd
00000060: 2581 c3bd 81cf 25bd 946d a13d 67bf 053d
00000070: d9b2 f33c 10c1 b2bd df65 a43d 41c9 04bd
00000080: 6c7a 1bbc bdf8 36bd c570 8ebd 15aa b4bd
00000090: 1eee ad3d 602f 393c 196b ad3d a180 8e3d
000000a0: 5a08 fd3a bdb0 b9bd 1ce3 943d e91d 5e3d
000000b0: b92a 8f3d 1355 cdbd 9248 ba3d 7451 463c
000000c0: 5f65 87bd 46a0 1cbd dfeb 2cbd 773f 863d
000000d0: 459a b63b c787 1dbd 7c1a a2bd 86b5 b03d
000000e0: 10bb bbbd bef3 d4bb 1ed6 a1bd 210a 9cbc
000000f0: 6203 43bd 648d 4f3d 5e77 feb9 ebe8 a2bd
00000100: 058c d53c 991c 813a c77b d13c e067 c83c
00000110: d380 66bb c490 1fbc 5fde 95bd f205 483d
00000120: 47ce 05bd 8d64 6f3c 3d56 cabb a07c 823d
00000130: af83 ba3d 4f4d b1bd 293f 0a3d ba83 b13c
00000140: 8698 de3c 8041 933d f25f eabb 16ea 2bbd
00000150: a016 4bbc 2415 293c 9a5c be3a 5bbf 0d3c
00000160: ded5 a6bc de17 c03d 87df 4ebd d5e7 773b
00000170: 5aef 23bd b47f ce3d c29d 1dbd 2867 acbd
00000180: 85af c23d 6d07 b63c ab74 b33c 7cda ddbc
00000190: dcf6 6abd a04e e93b 676b c6bd 877f 99bd
000001a0: 2709 353d 4604 c43d 0d45 aebd 0adc c7bd
000001b0: 4d1e 293d 8068 04bd 841f 3ebd 4723 9c3d
000001c0: 1b36 c9bd 7f8a babd a1b6 28bb 25db b03c
000001d0: 0411 88bd cf1e e0ba 2f96 bdbd 1407 c5bb
000001e0: 6e75 103d ff9d 9e3d 1b85 b13d 997e 313d
000001f0: 4bf3 c5bd eb94 d83c 95d8 cf3c 6296 a63d
00000200: f318 bfbd 4bea 0f3d fbe8 aebc b86a 4d3c
00000210: 6cc6 d63c 730c ba3d c7a6 b1bd 6ada 9b3d
00000220: d9be 31bd d129 c13c 2290 653d c188 b83d
00000230: 3096 ec3b 52de 593d 7841 613d 4f64 b23d
00000240: 6fbe 4e3c d554 0c3d 4b7b 4dbd bf64 013d
00000250: 1d8f 8a3c 83e5 12bd ee60 333d 5d02 7e3d
00000260: 00cf 8cbb 2680 d0bd e5b5 9dbd c821 b73c
00000270: d210 4b3d 958a 913d 41bf fa3c 92b4 c3bd
00000280: aebc 623d 4b3d 8c3d 6bc3 66bc d070 ba3d
00000290: f5ea a5bd 055e 5dbd 48d5 8abb d951 9d3c
000002a0: 4a5d f5bc 7a35 5dbd cd0a 22bd 51bd 67bd
000002b0: ad2f 60bd 57af 8abc e156 cebd 9863 fd3b
000002c0: 5e62 ecbc 14e7 ae3d e5cf 9fbd 1195 10bc
000002d0: d14c 2dbd 251c 9bbc cfc0 483d 95a0 2d3d
000002e0: 45e6 27bc e4ab bd3d 34ec 50bb 06a1 c2bd
000002f0: c3c7 64bc 7277 a13c 7869 69bd ece6 b63d
00000300: 76fe 94bc d44f af3d e74d aabd 7909 ab3d
00000310: 9788 a93d a78d de3c d1ec 7d3c bdf3 313d
00000320: d8de c53d b80f 123c e158 c63c 894c fbbc
00000330: a578 5dbd ad82 99bd d806 a4bd 5179 95bd
00000340: bf5f c4bd c6d2 9dbd d985 67bc c9d5 c5bd
00000350: 9609 743d 5ece 533c 632a a2bc 813c e13c
00000360: 8ed4 a03d 510d b8bc ee20 8d3d 2744 ad3d
00000370: 8abf 2b3d 1a3a 76bc a2c3 b43c 5394 bebc
00000380: be34 9fbd 695b 903d 5e1d 953d 450f a3bd
00000390: 5c37 ba3b abfa 3f3c bcef a7bd 8b4c 663d
000003a0: f1ee 8dbc 7a68 033c b768 adbc 21c6 5bbc
000003b0: 695f aabc 4168 813d d7ab dd3c 37db a53d
000003c0: afb3 5fbd 5a64 133d 7792 99bc 8704 493d
000003d0: 142d a7bc 03fc 623d be11 853c 10d1 c43c
000003e0: e1a6 963d 3fcb 51bd 87aa 583d 665c 39bd
000003f0: 96ed 203d a37b 1bbd 8e63 953d 6e01 2dbc
0.008844775 -0.057469133 -0.0017670376 -0.023251822 -0.06021344 0.092952944 -0.05728017 -0.045116477
-0.10107191 0.051790573 0.012615056 0.047031645 0.049817637 -0.01678775 -0.06528218 0.094243675
0.096812196 -0.07859231 -0.0022829564 -0.10023572 -0.064872526 0.06621874 -0.07524086 -0.09983708
-0.09546117 -0.040481094 0.078822285 0.03265324 0.029748367 -0.0872823 0.08027243 -0.032418493
-0.009489637 -0.04467081 -0.06955103 -0.08821503 0.08492683 0.011302799 0.08467693 0.06958128
0.0019304857 -0.09066913 0.0726988 0.054227743 0.069905706 -0.10025992 0.09095873 0.012104381
-0.06611132 -0.038238786 -0.04221713 0.06555074 0.0055725896 -0.038459565 -0.07915208 0.08628373
-0.09166539 -0.006498783 -0.07902168 -0.019047799 -0.047610648 0.05067195 -0.0004853559 -0.07954582
0.026067743 0.0009850442 0.025571717 0.024463594 -0.0035172 -0.009739105 -0.073178045 0.048833795
-0.032667425 0.0146113755 -0.006174831 0.063714266 0.09107148 -0.086573236 0.03375164 0.021669257
0.027172338 0.071902275 -0.007152551 -0.04197129 -0.012395531 0.010319982 0.0014523447 0.00865158
-0.020365652 0.09379552 -0.05050614 0.0037827392 -0.040023185 0.10082951 -0.038480528 -0.08418113
0.09506134 0.022220338 0.021906218 -0.02708172 -0.05736433 0.0071199685 -0.09688454 -0.07495027
0.04419818 0.095711276 -0.08509264 -0.09758766 0.041288663 -0.03232622 -0.046416774 0.07623916
-0.09824773 -0.09108447 -0.002574362 0.021588871 -0.066438705 -0.0017099025 -0.09257161 -0.0060128067
0.03526824 0.07744979 0.08667966 0.043333624 -0.09665545 0.026438197 0.025371829 0.08134152
-0.093309306 0.03513555 -0.021351328 0.012537651 0.026217662 0.09084406 -0.086743884 0.076100186
-0.043394897 0.02357951 0.05604566 0.09010459 0.007220052 0.053190537 0.054994076 0.087105386
0.012618645 0.03426059 -0.05016641 0.03159022 0.016913945 -0.03586341 0.04379361 0.062013973
-0.0042971373 -0.101806924 -0.07700709 0.022354975 0.049576588 0.071065105 0.030608775 -0.095559254
0.05535572 0.06847628 -0.014084677 0.091035485 -0.08101455 -0.054044742 -0.004236851 0.019204067
-0.02995171 -0.054006077 -0.03956108 -0.05657703 -0.054732967 -0.016929312 -0.100751646 0.0077328198
-0.028855499 0.085401684 -0.078033246 -0.008824603 -0.042309586 -0.018934319 0.049012 0.04238947
-0.010247772 0.09261301 -0.003187907 -0.09503369 -0.0139636425 0.019710276 -0.05698535 0.089307636
-0.018187743 0.08560148 -0.0831564 0.08351416 0.082780056 0.027167154 0.015498356 0.043445338
0.09661645 0.00891488 0.024212303 -0.030676143 -0.054070134 -0.074956276 -0.08009118 -0.0729853
-0.095885746 -0.077062175 -0.014131033 -0.09659917 0.059579454 0.01292762 -0.019795602 0.02749467
0.078530416 -0.022467287 0.068910465 0.08460265 0.041930713 -0.015028501 0.022065941 -0.023264086
-0.07773732 0.07048685 0.07280992 -0.07961897 0.005682869 0.011717479 -0.082000226 0.05622534
-0.01732585 0.008020515 -0.021168096 -0.013413937 -0.020797448 0.06318713 0.027059479 0.080984525
-0.05461472 0.035984375 -0.018746598 0.049076583 -0.020407237 0.05541612 0.016243812 0.02402547
0.073560484 -0.05121922 0.052897003 -0.045254134 0.03928908 -0.037959706 0.07294379 -0.010559423

3.0.branches.1.0.bias f4 [32]
00000000: e644 cf3d a732 703d c6ad 5bbd 05b9 30bd
00000010: 6911 c83d 63cd 77bd 7681 3d3d c8b3 6d3d
00000020: b62f 98bd 972f 93bd 978a d53b 4a63 333d
00000030: a51e 323d 39b6 713d 6ced b63d da08 c33d
00000040: 4066 0f3c 97dc a13d 2692 caba c599 b43d
00000050: ac02 823d f963 7a3d eb79 bebc 29ed 27bd
00000060: f71d c3bd eca4 963d de47 563c 061d b6bd
00000070: 111a 63bd 152b acbd 1394 fdbc cb80 9c3d
0.10120563 0.058642056 -0.05363252 -0.0431452 0.09768946 -0.060498606 0.04626604 0.05803278
-0.07430975 -0.071868114 0.0065167653 0.04379586 0.043486256 0.05901167 0.089320034 0.09523173
0.008752406 0.07903402 -0.0015454933 0.08818392 0.06348166 0.061130498 -0.023251494 -0.040997658
-0.095272 0.07355675 0.013078658 -0.088922545 -0.05544478 -0.08406655 -0.030954396 0.07641753

3.0.branches.1.1.weight f4 [32, 32, 1, 3]
00000000: 29d2 3fbd 9f16 c4ba c685 8bbd 34ab 143c
00000010: 84c7 693c 386a 33bd b343 c83d 1023 e33c
00000020: b224 ae3d a572 3abd d43c b7bc 4100 92bb
00000030: 964b 8a3d 6d7b b43c 6a65 7abd e214 c5bc
00000040: 8006 66bd bb33 90bd e0ab 083d 455c 2cbd
00000050: 193c b6bd 82d5 cbbc 6df0 673d 77f4 b83d
00000060: 95bf 053c 4c38 60bd c80c c23d 2487 ce3d
00000070: f7d5 073d 7a45 c33d a04f 973d 4d6d c4bd
00000080: 90f5 8bbd a7e4 c83d 9f6b 46bd 0ef5 15bd
00000090: ffae 003d 14ca c1bd 840e 2a3d 3568 8f3d
000000a0: 41d7 a5bd 6501 d13d bbfa 233d c5d0 f6bc
000000b0: 86e1 353d 0390 6c3c a9a7 d2bb a04e 7bbd
000000c0: b570 8e3d dc6c 8c3d b2ad 7c3d f9c4 b0bc
000000d0: a3d5 06bd f327 55bc 5000 bd3d a850 033d
000000e0: b8b7 62bd 623d 933d 4e25 09bc fa27 1e3c
000000f0: 62f6 55bd 639a 90bd 1e84 cebd bdfb b53d
00000100: a8bf 833d 11eb 303c a8bd 523c 32d0 6c3d
00000110: 5477 9a3d 0370 93bc 7bfb 90bd 8e6e 013c
00000120: dcdf 9bbd 2827 bfbd f144 603d 7ca3 473d
00000130: deaf 9fbc c4b7 673d 7c71 033d b006 8c3d
00000140: 845c 863d f309 53bb bd09 cc3d 0477 3cbd
00000150: 862e 6a3d 7a6e 21bd f801 c7bc 5e89 cc3d
00000160: b55d 913d 361c 703d 7a21 89bb 339a 983d
00000170: dedd e93c 3f9c 9d3d ea92 6fbd 1444 0c3d
00000180: e2c6 81bd f923 8a3c 92ec 68bd d9d0 7ebd
00000190: 3a8c bb3d 25f0 87bd 97ca 9f3d 594c ebbc
000001a0: 6ecb 103d afb7 2e3b ba86 bebc 6179 93bd
000001b0: 293e 1a3d e706 cdbd ee7a 18bd e446 c53c
000001c0: 6f6c be3d 76a0 94bd 3f3b b43d 7057 94bd
000001d0: 87c4 06bd d733 b7bd 30b8 9abd 15be c33d
000001e0: 9184 f1bc 1a95 033d d691 963c 74cd 633c
000001f0: 703f 7e3b 8bea ebbc 12c4 45bd d718 fabc
00000200: 169d 20bc da09 363c 4c49 27bd 9693 9abd
00000210: 2d85 c93d 2128 6b3d 7140 fabc 10cd cd3d
00000220: 1298 883d 4dc1 9dbc 1e14 93bd 1b60 043d
00000230: c559 d03c 83ba b9bc 57a6 c73d a9ca 813d
00000240: fbc3 1c3d 4f54 743d 373b 273c fe1a c5bd
00000250: a46b cebd 285c a0bd 6871 033c a4ab c23d
00000260: db54 b13c 25a4 31bd 70a2 bd3a 4b6d 8c3d
00000270: aaf8 3f3d e13a ca3d cbc7 afbd c779 79bd
00000280: be69 39bd 164f f2bc ec82 edbc c686 3fbc
00000290: 2b8d 85bd bca4 a63d 7ad4 95bd 2b1f 72bc
000002a0: b87f 56bd 28ee 413c 6b5e 99bd d5c8 2dbd
000002b0: 05cb 803d afd9 b03d e667 c93c 3304 563d
000002c0: 16c8 673d 3e20 433c f88b a8bb 9cdf 43bd
000002d0: 4a11 b5bd 5a3b 98bd 5c88 c2bd cd7d aabd
000002e0: f815 97bd 1725 163d 30d7 24bd 82af d63b
000002f0: 9797 7fbd cb9d 7dbd 59d4 99bb f73a 8a3a
00000300: 40ab af3d 58a4 eebc 0366 adbd e55f cb3d
00000310: 97a5 26bd a554 4abd a9ad 16bd b96d bebc
00000320: d5ea 0dba 4b30 47bd 9959 b0bd 874f 663c
00000330: 6ef7 353c 4749 a33d fd41 a4bd 0af0 3fbd
00000340: eb11 ab3b edb6 743b a893 aebc 0dce 96bc
00000350: c34e a83d 8dd3 88bc 4e7f 81bd 4539 123d
00000360: 5a7a ab3c 6f4e cc3d f177 be3d c8ab 97bb
00000370: 5643 bbbd 7201 bebd 6644 1ebd 308d 1c3d
00000380: 6d83 cf3d 5edb 973c ae9d 023c a7ef 9e3d
00000390: 73ab 6e3d 7797 ccbd 7cb9 45bb 182d 663d
000003a0: 6a04 40bd f65a 93bb 9f4d 2c3d eb6a 6b3d
000003b0: d138 dd3b e0d6 533d c997 f83b d2f3 b23d
000003c0: 4c92 31bd 9277 1a3d c84d 853b a213 9cbd
000003d0: 45aa aebd e1c2 e7bc 29fa e23c 1910 2e3b
000003e0: c8cf 0abd 0eca c1bc 7703 0b3d 85ee c0bd
000003f0: 3178 0d3d 529e 953d c470 c63d f347 91bd
-0.046831284 -0.0014960355 -0.06812625 0.009074021 0.01426876 -0.04380247 0.097785376 0.02772668
0.08503093 -0.04551949 -0.022367872 -0.0044555967 0.06752698 0.02203151 -0.061131872 -0.02405781
-0.056158543 -0.07041117 0.033367038 -0.042080183 -0.088981815 -0.024882082 0.056625772 0.09031003
0.0081633525 -0.05474119 0.09475094 0.1008437 0.033163037 0.09534736 0.07388234 -0.0959116
-0.06833947 0.09809237 -0.04844248 -0.036610655 0.03141689 -0.094623715 0.04151775 0.07002298
-0.08097697 0.10205344 0.040034037 -0.030128846 0.04440453 0.014438632 -0.006428678 -0.06135428
0.06955091 0.06856701 0.061689086 -0.021578299 -0.032918584 -0.013010013 0.09228575 0.03205934
-0.05535099 0.07189442 -0.008370711 0.009653086 -0.052236922 -0.07060697 -0.10083793 0.08885906
0.0643304 0.010798232 0.0128626 0.057815738 0.07542291 -0.017997747 -0.07079216 0.007899893
-0.07611057 -0.0933364 0.054753248 0.048739895 -0.01949304 0.056571737 0.03209065 0.06837213
0.06560615 -0.0032201975 0.09962795 -0.04601194 0.057173274 -0.039412 -0.024292931 0.09987138
0.07097951 0.058620654 -0.004184899 0.07451286 0.028548177 0.07695817 -0.058489718 0.03424461
-0.06336762 0.016862856 -0.056866236 -0.06221089 0.091576055 -0.06637601 0.07802313 -0.028722929
0.035350256 0.0026659777 -0.023257602 -0.072008856 0.037656937 -0.10011082 -0.03722661 0.024081655
0.09298026 -0.07257168 0.08800363 -0.0724324 -0.032902267 -0.089454345 -0.07554662 0.0955774
-0.029482158 0.032124616 0.018380087 0.013903964 0.0038795136 -0.028798362 -0.04828269 -0.030529423
-0.009803077 0.011110747 -0.040841386 -0.07547681 0.098398544 0.057411317 -0.030548306 0.10048878
0.0666963 -0.019257212 -0.071815714 0.032318216 0.02543343 -0.022671944 0.09748524 0.063374825
0.03827284 0.059650715 0.010206989 -0.09624289 -0.100791246 -0.078300774 0.008022644 0.09505394
0.021646908 -0.04336943 0.0014467966 0.068567835 0.046868004 0.098745115 -0.08583029 -0.06090715
-0.04526686 -0.029578727 -0.028993092 -0.011689847 -0.06521066 0.08136889 -0.07315917 -0.014777939
-0.052367896 0.011836566 -0.07488712 -0.042427856 0.06288723 0.0863527 0.024585675 0.0522501
0.0565873 0.011909543 -0.0051436387 -0.047820672 -0.08841188 -0.074331954 -0.09498665 -0.08324776
-0.07377237 0.036656465 -0.04024428 0.006551684 -0.062400427 -0.06191806 -0.0046945033 0.0010546137
0.08577585 -0.0291311 -0.08466723 0.099304 -0.040685263 -0.04939713 -0.03678671 -0.02324568
-0.0005413716 -0.04863004 -0.086108394 0.014057047 0.011106355 0.07972961 -0.08020399 -0.04685978
0.005220642 0.0037340478 -0.021310642 -0.0184088 0.082181476 -0.016702438 -0.063231096 0.035699148
0.020932365 0.099758975 0.09300221 -0.004628632 -0.09143703 -0.092776194 -0.03863945 0.038220584
0.10132489 0.01853722 0.007972164 0.07760554 0.058268975 -0.09989827 -0.0030170372 0.05619535
-0.04687921 -0.0044969274 0.042066213 0.05747501 0.006751158 0.051718593 0.0075864536 0.08737911
-0.04335241 0.037711687 0.00406811 -0.07620932 -0.0852857 -0.028291168 0.027707176 0.0026559888
-0.033889562 -0.023655917 0.03393885 -0.09420494 0.03453845 0.07305588 0.09689477 -0.07093801

3.0.branches.1.1.bias f4 [32]
00000000: 173e 13bd 52d7 54bd 1958 c2bd 3ace 3c3d
00000010: eb39 493d c087 2f3d dba5 43bd 9904 ecbc
00000020: c5c1 ba3d 8330 903c 55cd 8dbd 8c90 dbbc
00000030: bd01 9abd fd18 01bd 175a 42bc 4895 753d
00000040: 7fd4 7ebd bee3 7ebd ef72 493d b7d4 153d
00000050: a2ae 9a3c f431 46bd cca0 c9bc 8ec6 1dbc
00000060: a801 1c3c c954 2a3d 1965 793d 32fe d0bd
00000070: 5061 0a3d 0d5e 4dbd 63b6 c83c 7b2c fd3c
-0.035947885 -0.051963158 -0.094894595 0.04609511 0.0491275 0.04285407 -0.047765594 -0.028810786
0.0911899 0.017601257 -0.069239296 -0.026802324 -0.07519863 -0.03151797 -0.011862299 0.05995682
-0.06221437 -0.06222891 0.049181875 0.036579814 0.0188821 -0.048387483 -0.024612807 -0.009629859
0.009521879 0.041584764 0.06088743 -0.10204734 0.03378421 -0.050138522 0.024501031 0.030904999

3.1.0.weight f4 [64, 96, 1, 1]
00000000: 66b7 de3c d580 ebbc 953e ac3d a970 413d
00000010: 51cd b93c c866 22bc 0968 8a3d 7cba d5bc
00000020: 81a5 b03d da0c 0cbd d62c abbc b533 2dbd
00000030: 14ea 9cbc af3d d03d 190c 813d 6823 b1bc
00000040: be6c 02bd a2f5 4fbd 18a1 f13c ec91 253c
00000050: 078e f33c 6d97 de3c 0963 c5bb 9b0b 46bd
00000060: c553 a4bc 08f8 02bd 7f38 803d 5a62 bcbd
00000070: c52b 8cbd ce63 e8bc 3942 ea3c 2182 8bbd
00000080: a99b 153d 5fed 17bd 19e3 4fbd 1c34 a83d
00000090: 7849 9a3d f75d b8bd 615c 7bbd b86e d83c
000000a0: 8678 0d3d 3b34 28bd 3f12 b63d 7f32 c8bd
000000b0: 3078 c5bc 1e16 943c 7f2b 953d 590f 92bd
000000c0: cdd0 423d 19a5 403d 0cab 793c ad26 103d
000000d0: 8c6f 8cbd 80a4 91bb 5dd5 b8bd 6b6a 30bd
000000e0: 2c24 283c e0f8 263d 9ddc 70bd 7ce0 b7bd
000000f0: 1bb7 593d 1808 47bd 4789 98bd 1b60 8f3d
00000100: 3826 413b 7b9c a6bd 7526 94bd 032c dc3c
00000110: a476 943d a57c 52bd 7419 c33d 4ff6 58bd
00000120: 0cb2 a9bd cea5 a3bd e80f 97bc 3ecc 8c3a
00000130: 01b9 f03c 7fd2 02bd 2f7e a8bd 9da1 d0bd
00000140: 8e52 573d 1359 ae3c da2c 54bd abd4 25bc
00000150: 312b 8f3d 4c4a b6bd 3eb5 80bd 0f0d 583d
00000160: 0f04 b3bd 4dad 00bc 49ad 45bd 4d2a 413c
00000170: f7d0 703d 8333 013d f66d 04bb 4a19 aa3d
00000180: c570 b9bc f8e4 6bbd aa3f 853d f252 6f3d
00000190: bd0c 46bd 777e 183d fe88 9dbd 98ee 7cbd
000001a0: 03f8 5a3d 3940 203d 9f8e b83d affb 723d
000001b0: d37a 503d ba72 653d cec8 6abd 20d3 cfbc
000001c0: c07a cf3d 73a1 87bd 08f8 f83c 57ee 20bd
000001d0: c94b c5bd bd3e 663c 987c c83c 7184 953c
000001e0: 0f6a e83c 2c51 893d 374b 963d b9ce 38bc
000001f0: b9fc 553d 3bf0 94bd 1e8f d0bd 4107 6aba
00000200: fce0 84bb b6ab babc 43fd 14bd 01a0 533d
00000210: bb54 19bd 93b3 0fbd 624c 4cbd 7c19 193d
00000220: dd2b cf3d 1269 813d e312 b4bd a45a c53c
00000230: 95a7 9cbc 6192 4f3d 0537 bcbd e1c4 893c
00000240: 1d81 cbbd 65d2 79bc 5b2a 9d3d 5d28 b33d
00000250: faf0 adbd 7d47 27bd 350c cc3d 2595 b4bc
00000260: c8d5 8ebc 5619 973d 0690 c4bc 3059 4e3c
00000270: db8b 503d 684c adbd d49d 96bb fb15 043c
00000280: 37bd a23d 3d73 973c c520 2bbc 9ae4 f4bc
00000290: 370f 92bd b7dd 9a3d 57b8 3abd 939d e83c
000002a0: 0e6a 94bd dd61 ce3a 23f8 9bbc 48ca 383c
000002b0: 7201 a73d d17f 0a3d 9fda d03c 86fa 323c
000002c0: d4aa 91bb a596 12bd 9ec8 2d3d 7289 a9bd
000002d0: f6c6 de3b 6df9 b73d a4e8 acbd 39d4 bebd
000002e0: 2125 acbc bf27 c0bd 64a8 243d 3b43 2ebd
000002f0: d1a6 7cbd 2479 a4bd c826 003d be8a bdbd
00000300: 16da b7bd d092 013d e97c 953d a675 7c3d
00000310: 491c 9b3d ca0d 8e3d 452e 21bb 4688 8dbd
00000320: 4027 193d 9410 f0bc db24 89bd dfed aa3d
00000330: 1444 ff3c ffcc ce3d 8d1f c4bc 8cf9 ec3c
00000340: 7711 b63d 0b38 c9bd 10b8 b9bd bf6d 9a3c
00000350: 846f 203c 1a31 603d 4308 84bd a188 bdbd
00000360: 4d9a 83bd cdb8 103d e0f5 80bd d275 963b
00000370: 94cf 41bd dc63 223d 99cb cebd 90b9 36bd
00000380: 5209 a93d 05d7 443d c499 9d3d 36ff 0c3d
00000390: 1684 c23b fa00 2bbc 6cff aebd cd36 3dbd
000003a0: 8ad4 ca3d 437b b1bd 66e2 b73c 148b 97bd
000003b0: 4518 c73d f764 7f3a e53c cc3c d8a3 333c
000003c0: 5571 0bbd d998 3cbd 2434 1bbd 453b 58bd
000003d0: 9495 bfbd ff27 f13c e572 b7bc f26a aa3d
000003e0: faaa 78bb 5d7f 03bd 280d 833d 83aa 423c
000003f0: e0cb abbb f951 033d 8dac 933d e8fe c9bd
0.02718706 -0.028747955 0.08410374 0.04722658 0.02268091 -0.0099122 0.067581244 -0.0260899
0.08625317 -0.034191944 -0.020895403 -0.04228564 -0.019154586 0.10168015 0.063011356 -0.021623328
-0.031841986 -0.050771363 0.02949576 0.010105591 0.02973081 0.027171815 -0.006023769 -0.04835091
-0.020059476 -0.031974822 0.06260776 -0.091984466 -0.06844286 -0.028367903 0.02859603 -0.068119295
0.036525402 -0.03709161 -0.050753687 0.08213064 0.07533544 -0.09002297 -0.061367396 0.026419982
0.03453877 -0.041065436 0.08890199 -0.09775256 -0.024105161 0.018076953 0.07283687 -0.071318336
0.04756241 0.04703245 0.015238535 0.035193134 -0.068572134 -0.0044446588 -0.09025071 -0.043070238
0.01026253 0.04076469 -0.058804143 -0.08978364 0.05315314 -0.048591703 -0.074480586 0.070007525
0.0029472243 -0.08135315 -0.072338976 0.026876455 0.072491914 -0.0513884 0.09526339 -0.052969273
-0.08285913 -0.07990609 -0.018440202 0.0010742021 0.029385092 -0.031939026 -0.082271926 -0.10187075
0.052568965 0.021282708 -0.051800586 -0.010121505 0.0699066 -0.0890089 -0.06284569 0.05274683
-0.087410085 -0.007853818 -0.04826096 0.01178987 0.058793034 0.031543266 -0.0020207143 0.08305605
-0.02263678 -0.05759141 0.065062836 0.058428712 -0.048351992 0.03722998 -0.07692145 -0.06175098
0.05345918 0.039123747 0.09011578 0.059322055 0.050898384 0.056017615 -0.05732041 -0.025369227
0.101308346 -0.06622591 0.030391708 -0.0392898 -0.096335955 0.014053044 0.024473473 0.01825163
0.028370885 0.067049354 0.07338565 -0.011279755 0.05224297 -0.07272383 -0.101835474 -0.00089274725
-0.0040551405 -0.022786956 -0.03637434 0.051666263 -0.03743432 -0.035083365 -0.04987753 0.03737782
0.10115788 0.06318869 -0.08792665 0.024091072 -0.019122878 0.050676707 -0.09190182 0.016817512
-0.09936736 -0.015247916 0.07674094 0.08747933 -0.08493228 -0.04083966 0.09963266 -0.022043774
-0.017435923 0.07377879 -0.023994457 0.012594506 0.050914627 -0.08461839 -0.0045964513 0.008061881
0.07946246 0.018487567 -0.010444825 -0.029894162 -0.07131808 0.0756182 -0.045585956 0.02839545
-0.07246791 0.0015745718 -0.01903922 0.011278696 0.081545725 0.0338133 0.025494872 0.010923987
-0.004445413 -0.035788197 0.04242765 -0.08278169 0.0067986203 0.08983121 -0.0844281 -0.09317822
-0.021013798 -0.09382581 0.040199652 -0.042544585 -0.061682526 -0.08030918 0.031286985 -0.092549786
-0.089771435 0.031634152 0.07299215 0.061635636 0.07573754 0.06936224 -0.002459423 -0.06910758
0.037390947 -0.02930478 -0.06696483 0.083461516 0.031160392 0.10097694 -0.023940826 0.028927587
0.0889005 -0.098251425 -0.0906831 0.01885116 0.009792212 0.054734327 -0.06446888 -0.092545755
-0.06425915 0.03533249 -0.06296897 0.004591682 -0.047317103 0.039646015 -0.10097427 -0.04461056
0.08253731 0.04805662 0.07695344 0.034423076 0.005936156 -0.010437245 -0.085448116 -0.04619484
0.0990382 -0.086660884 0.022446822 -0.07399574 0.09721426 0.0009742523 0.02493138 0.010964356
-0.03404363 -0.046044204 -0.037891522 -0.0527909 -0.09354702 0.029438017 -0.022393653 0.083211794
-0.0037943707 -0.032103885 0.06398994 0.0118814735 -0.0052428097 0.032060597 0.07210646 -0.09863073

3.1.0.bias f4 [64]
00000000: c54d 65bc e30b e63c b4e4 3d3d de42 9ebb
00000010: 7e06 6e3d 6bb6 d83c 4a7f 873d d688 333d
00000020: bed8 fb3c 86e2 af3d f24a 2bbd 5d42 933d
00000030: 3d81 7f3c 619e 033d 243c 513d d9a1 b539
00000040: b5c8 abbd b386 81bd 4e1a 723d e6f3 b4bd
00000050: f54d ab3c a3e9 87bd 8505 65bd 70a6 89bc
00000060: 9df2 6d3d 50db b63d 19a0 683d 650f 5c3d
00000070: cd9a e5bc c4e6 6c3d 2e13 82bc 44ae 343d
00000080: d7fa 81bc f4cf 923c 8608 db3c 7163 88bd
00000090: e168 813d 1dcd 90bd cd78 aebd b7be d63c
000000a0: 2eeb d03d 469f 2bbd 56ad ae3d 904e d2ba
000000b0: cd59 69bd 110e 2abc 2feb 6f3d e7ad cbbd
000000c0: b4a4 c9bc 0c5a ac3d 7518 a43d d9bc cd3d
000000d0: 71a1 2cbc b861 a4bd 5278 9fbd c047 29bd
000000e0: 684c a03c 0352 b53c 5f3c a43c 505b d4bc
000000f0: 634a 3d3d 0523 85bc 4dfd 1dbd 5041 c23c
-0.0139955925 0.02808184 0.046360686 -0.0048297485 0.05811166 0.026454171 0.06616075 0.04383167
0.030743 0.08588128 -0.04181952 0.07190392 0.015594778 0.032133464 0.051082745 0.00034643596
-0.08387891 -0.0632452 0.059107117 -0.088355824 0.020911196 -0.066363595 -0.055913467 -0.016802996
0.058092702 0.08928549 0.056793306 0.05372562 -0.028027916 0.057837263 -0.015878286 0.044111505
-0.01586668 0.017921425 0.026737463 -0.06659592 0.06318832 -0.07070372 -0.08519135 0.026213987
0.10201107 -0.04189994 0.08529155 -0.0016045142 -0.056970406 -0.01037933 0.058573898 -0.099452786
-0.02461467 0.084156126 0.08012477 0.100457855 -0.0105365375 -0.08026451 -0.07786621 -0.04132819
0.019567683 0.022133833 0.020048318 -0.025922447 0.04621352 -0.01625205 -0.038571645 0.023712784
