utests/models/mult_4dx4d.onnx (onnx, 875 bytes, 4 tensors)

conv01.weight f4 [2, 2, 3, 3]
000000 49 45 ba be b0 98 cd be 28 a4 b5 be f6 05 1f be
       -0.36380985 -0.40155554 -0.35476804 -0.15529618
000010 b6 ed c6 bb e2 71 a9 be 26 83 09 3d 55 5d 65 3c
       -0.006070818 -0.33094698 0.03357234 0.013999303
000020 64 84 68 be 92 07 42 3d a0 21 14 3e b3 fc e6 bd
       -0.22706753 0.0473705 0.14465952 -0.11278667
000030 a5 98 e0 3d 4e dd 98 3d 6f d0 61 3e 8d 49 95 be
       0.10966615 0.074640855 0.22052167 -0.29157677
000040 c7 b3 9d be a7 af 15 3e ca fe b3 3e 1c 98 fb bb
       -0.30801222 0.14617787 0.35155326 -0.007678045
000050 ab 96 b5 be 9c 55 89 be 89 3b 62 3d f6 c6 48 3e
       -0.35466513 -0.26823127 0.05523256 0.19607148
000060 ea 88 17 3e 73 74 b1 be cb 6b cc bd 78 ab f5 3c
       0.14798322 -0.34659156 -0.099814974 0.02998899
000070 a3 46 bc 3d af 9f 2f be 81 34 c4 be 5b 48 f8 bd
       0.091931604 -0.17150758 -0.38321307 -0.12123176
000080 d4 8c 22 be ee b6 45 3d ca b6 93 3e ff 1a c8 3a
       -0.15874034 0.04827016 0.28850394 0.0015266835

conv01.bias f4 [2]
000000 f4 7f 5c 3e 80 29 e0 3d
       0.21533185 0.109454155

conv02.weight f4 [2, 2, 3, 3]
000000 19 d1 0a bd 29 bb 90 be 49 cc a3 be 21 37 ba bd
       -0.033890817 -0.28267792 -0.31991795 -0.09092546
000010 b2 af 58 be 5c 28 96 3e 68 ce 29 3e 5c 8a 8d 3e
       -0.21160772 0.29327667 0.16582644 0.27644622
000020 e3 64 00 3e 50 f0 01 3e 53 63 c0 3e 9c b5 de 3d
       0.12538485 0.12689328 0.37575778 0.10874483
000030 66 a2 cc be 8e f0 c1 3d 3f 1b 58 be f2 63 28 be
       -0.3996765 0.0946971 -0.21104144 -0.16444376
000040 78 9d bf 3e e0 8d bc 3d 78 69 cd 3e b3 f4 7e bc
       0.37424827 0.09206748 0.4011953 -0.0155612705
000050 0a a3 98 be 85 87 96 3e 89 e6 4d be 93 0e 62 be
       -0.2981189 0.29400268 -0.20107473 -0.22075872
000060 cd c2 96 be 26 c5 b8 3e 15 5b 1a 3e bb 08 83 3e
       -0.29445496 0.36087912 0.15073808 0.25592598
000070 64 74 b1 3d 8a f6 01 be cd 6a 1d bc c8 1b 58 be
       0.08664778 -0.12691703 -0.009607983 -0.21104348
000080 9a 7b 99 bd da 65 c6 be 8d 3c cf be ef a7 98 3e
       -0.07494278 -0.38749582 -0.40475884 0.29815623

conv02.bias f4 [2]
000000 b0 0a be 3d 20 07 e8 3e
       0.09279382 0.45317936
