utests/models/repeated_conv.onnx (onnx, 918 bytes, 2 tensors)

conv.weight f4 [3, 3, 3, 3]
-0.19173993 -0.067467794 -0.07554022 0.08833333 -0.015456582 -0.14198284 0.1765938 0.008749237
-0.086492546 -0.13365549 0.1315041 0.09404736 0.075864784 0.14965597 -0.047419358 -0.04477515
0.030523404 -0.021875089 0.09155033 0.13069782 -0.0869871 0.14531925 0.110790245 0.12177161
0.145314 -0.12430657 0.043105077 -0.15297551 0.0031293356 0.101658225 0.03517601 0.057966065
-0.1551632 0.0028086088 -0.1069298 -0.01517543 -0.059889324 0.08434005 -0.13588892 0.017898511
-0.1797142 -0.07549249 0.11456824 0.039177205 0.035246305 -0.16941793 -0.14271174 0.1077332
0.17270981 0.027756091 0.15776098 0.0017197661 0.013235766 -0.1054882 -0.15200563 -0.043239906
-0.15402044 -0.15724798 0.01468202 -0.12602386 0.14838056 -0.15410691 -0.11590791 -0.17185599
-0.14716604 -0.04874792 -0.1866773 -0.18714876 0.16417818 -0.033919416 0.053531386 -0.06872808
-0.021990692 -0.025514582 -0.1832292 -0.078101866 0.15522343 0.1490223 0.124619976 0.07865137
-0.17383432
00000000: 7957 44be 8e2c 8abd d5b4 9abd 1be8 b43d
00000010: 9b3d 7dbc f363 11be 01d5 343e f658 0f3c
00000020: 0123 b1bd fcdc 08be 03a9 063e e79b c03d
00000030: ff5e 9b3d 6a3f 193e cd3a 42bd 2666 37bd
00000040: 380c fa3c 6333 b3bc bd7e bb3d a6d5 053e
00000050: 4b26 b2bd 92ce 143e ffe5 e23d 6563 f93d
00000060: 31cd 143e 7194 febd f38e 303d 9da5 1cbe
00000070: 8a15 4d3b 3032 d03d b814 103d d36d 6d3d
00000080: 1ae3 1ebe a310 383b 03fe dabd 5ea2 78bc
00000090: 824e 75bd 7aba ac3d 7726 0bbe e69f 923c
000000a0: 0007 38be ce9b 9abd c1a2 ea3d 4778 203d
000000b0: 6e5e 103d e57b 2dbe 0723 12be 39a3 dc3d
000000c0: d7da 303e be60 e33c 188c 213e c669 e13a
000000d0: d4da 583c 330a d8bd 5da7 1bbe 541c 31bd
000000e0: 89b7 1dbe 9d05 21be db8c 703c 660c 01be
000000f0: 13f1 173e 34ce 1dbe 2061 edbd 04fb 2fbe
00000100: b2b2 16be e6ab 47bd 5628 3fbe eda3 3fbe
00000110: 531e 283e 16ef 0abd ba43 5b3d 4fc1 8cbd
00000120: d325 b4bc f503 d1bc 6fa0 3bbe dff3 9fbd
00000130: e4f2 1e3e 4d99 183e c238 ff3d f813 a13d
00000140: a001 32be

conv.bias f4 [3]
-0.09770544 0.18254566 -0.06343012
00000000: ca19 c8bd 40ed 3a3e a7e7 81bd
