utests/models/resahep_fixed.onnx (onnx, 1575 bytes, 2 tensors)

conv01.weight f4 [5, 5, 3, 3]
0	0xbe233674	-0.15938741
1	0x3d930eda	0.07180567
2	0xbe6f9ce2	-0.2339969
3	0xbe69aaf0	-0.22819114
4	0xbc80b870	-0.015712947
5	0x3d57e70e	0.052710585
6	0xbb9183e7	-0.004440773
7	0xbe1f60f4	-0.15564328
8	0x3e75eda5	0.24016435
9	0xbe6b83b7	-0.22999464
10	0x3db540cf	0.08850252
11	0xbe0154b5	-0.1262997
12	0xbe32cf86	-0.17461976
13	0x3dcdd796	0.100508854
14	0xbe02aaf3	-0.12760524
15	0x3c60180d	0.013677609
16	0x3de76940	0.11299372
17	0x3e78f09a	0.24310532
18	0x3e4e4bba	0.20146075
19	0xbe8045ea	-0.2505334
20	0xbe0d3577	-0.13789926
21	0xbc9a4b97	-0.018834872
22	0x3e6e9543	0.23299126
23	0xbe69289a	-0.22769395
24	0xbe31513c	-0.17316145
25	0xbdf6b16e	-0.12045561
26	0x3e7765ba	0.241599
27	0xbde1d902	-0.11027719
28	0x3defa081	0.117005356
29	0xbe484cd5	-0.19560559
30	0xbd720157	-0.05908331
31	0x3e49043b	0.1963052
32	0xbe5c9395	-0.21540673
33	0xbdf78dd2	-0.12087597
34	0xbbb5527b	-0.005533514
35	0x3cd55c9e	0.02604514
36	0x3da80e7d	0.082058884
37	0xbe010364	-0.1259895
38	0xbda12499	-0.078683086
39	0xbdfe0a75	-0.12404338
40	0x3e5d682b	0.21621768
41	0xbe0d9b0b	-0.13828675
42	0x3d4b3713	0.04961307
43	0xbe750baa	-0.2393023
44	0x3e4a1c2d	0.1973731
45	0x3e4a2a0e	0.19742605
46	0x3d82f36a	0.06394084
47	0x3e4728c4	0.19449145
48	0xbe21c705	-0.15798576
49	0x3e4acf9c	0.19805759
50	0xbdd47bcf	-0.10375177
51	0x3dc3474e	0.09535085
52	0x3e40732c	0.18793935
53	0xbd8b9f22	-0.068174616
54	0x3db9bd91	0.0906936
55	0x3e5cac96	0.21550211
56	0xbdb34edf	-0.08755278
57	0xbe649f73	-0.2232645
58	0x3e67db3c	0.22642225
59	0xbe1b9f3e	-0.15197465
60	0x3e48a6a9	0.19594826
61	0xbd02be8c	-0.03192
62	0xbdfdefdd	-0.12399266
63	0x3dc92d7f	0.09823131
64	0xbe0af7ce	-0.13571092
65	0xbe4aed7b	-0.19817154
66	0xbcf890cb	-0.03034248
67	0xbda628e9	-0.08113272
68	0x3e821a56	0.25410718
69	0x3e2b58f9	0.16733159
70	0x3bac6ce8	0.005262006
71	0x3e621504	0.2207833
72	0x3e4d9666	0.20076904
73	0xbe5c37fa	-0.21505728
74	0x3bd6d734	0.006556416
75	0x3d7712eb	0.060320776
76	0xbe1f7820	-0.15573168
77	0xbdaa9cb3	-0.08330669
78	0xbdfc6afc	-0.12325093
79	0x3e82ab6c	0.2552141
80	0xbe39f10e	-0.18158361
81	0x3d9460a8	0.07244998
82	0xbd8bf1b1	-0.06833208
83	0xbe293b29	-0.16526474
84	0x3e5e7a5e	0.21726367
85	0xbd9436c7	-0.072370104
86	0x3cb54982	0.022129778
87	0xbd0926eb	-0.03348438
88	0x3dd3917e	0.10330485
89	0x3e62336f	0.22089933
90	0x3c9dc881	0.019260647
91	0x3e24921a	0.16071358
92	0x3e588621	0.21144916
93	0x3e6433a9	0.22285332
94	0x3d5c42ab	0.053774517
95	0x3db3132a	0.0874389
96	0xbb5b1ebe	-0.0033435072
97	0xbde6c7e0	-0.11268592
98	0xbd53efa8	-0.051742226
99	0x3e520594	0.2050994
100	0x3e6e1135	0.23248751
101	0x3e7e9f32	0.24865416
102	0x3e55a311	0.20862986
103	0x3e4686b1	0.19387318
104	0x3d9e1e9d	0.07720683
105	0x3d9ec1c3	0.07751801
106	0x3e0a94f4	0.13533384
107	0x3e5a93a5	0.21345384
108	0x3e4f8ed2	0.20269325
109	0xbcefe30e	-0.029283073
110	0xbd0a9e80	-0.033842564
111	0x3e143ef4	0.1447714
112	0x3e73d59d	0.23811956
113	0xbdc64e99	-0.0968296
114	0xbe582606	-0.21108255
115	0xbe434997	-0.19071041
116	0xbadd8aef	-0.0016902367
117	0xbda480ca	-0.08032377
118	0x3be17dc9	0.00688145
119	0xbd642fe2	-0.055709727
120	0xbdf6ceee	-0.120511875
121	0xbdf39290	-0.11893189
122	0xbe1fc217	-0.15601383
123	0xbe7108d4	-0.23538524
124	0x3e3af481	0.18257333
125	0x3e81d54f	0.25358054
126	0x3e2da8a1	0.16958858
127	0x3e1f5507	0.15559779
128	0xbdcfc401	-0.10144807
129	0xbcdce6c9	-0.026965516
130	0x3e2f4115	0.1711467
131	0x3d7b2f7f	0.061324593
132	0x3d947501	0.07248879
133	0xbc3c38f2	-0.011488186
134	0xbe131dec	-0.14366883
135	0x3dea6585	0.114451446
136	0x3e3d2684	0.18471724
137	0xbe80dfc2	-0.25170714
138	0x3e7bc5ee	0.24587223
139	0x3da5d798	0.08097762
140	0x3e5fed47	0.21867858
141	0xbddf0091	-0.1088878
142	0x3cf08a90	0.029362947
143	0xbdb7b28e	-0.089696035
144	0x3e40d22c	0.18830174
145	0xbdebc882	-0.11512853
146	0x3e21c82d	0.15799017
147	0xbcf70c03	-0.030157095
148	0xbe375281	-0.17902566
149	0xbddc4037	-0.107544355
150	0x3d3a7de9	0.045530234
151	0x3e53c558	0.2068075
152	0x3ddb4489	0.107064314
153	0x3e55e2a6	0.20887241
154	0x3df608f1	0.12013424
155	0x3e471254	0.19440585
156	0x3e399bf2	0.18125895
157	0xbc68d8d4	-0.014211852
158	0xbe31f7f2	-0.1737974
159	0xbdaf7f55	-0.085692085
160	0x3dbb72af	0.091527335
161	0x3db72608	0.08942801
162	0x3e3408a6	0.17581424
163	0x3e534461	0.20631553
164	0x3d8de6aa	0.06928761
165	0xbe7df79e	-0.2480149
166	0x3e4d10e9	0.20025982
167	0x3e65bcbf	0.22435282
168	0x3e34c524	0.17653328
169	0xbe2ee229	-0.17078461
170	0x3dbb52c3	0.09146645
171	0x3d6db882	0.05803729
172	0xbe7b854d	-0.24562569
173	0x3e662b41	0.22477438
174	0xbe83eec2	-0.25768095
175	0x3e0751c1	0.1321478
176	0x3e1fdc6f	0.15611432
177	0xbe012a48	-0.12613785
178	0x3d7e62dc	0.062106
179	0x3e3a975c	0.18221802
180	0x3dafc187	0.08581834
181	0xbdf5a70d	-0.11994753
182	0xbd44f6a9	-0.048086796
183	0x3e60aad4	0.21940166
184	0xbdc26f4a	-0.09493883
185	0x3e3228f4	0.17398435
186	0xbe8429d3	-0.2581316
187	0xbd902dc2	-0.070399776
188	0xbcc00901	-0.023441793
189	0x3e547d6a	0.20750967
190	0xbe422b71	-0.18961884
191	0x3e295cfe	0.1653938
192	0xbe512415	-0.2042392
193	0xbd863a73	-0.06554117
194	0x3e5948d2	0.21219185
195	0xbdc92c77	-0.09822934
196	0xbce2ce16	-0.02768616
197	0xbe7bb3aa	-0.24580255
198	0xbdc63ef2	-0.096799746
199	0xbe1ecc91	-0.15507723
200	0x3df4bf38	0.119505346
201	0x3d344204	0.04400827
202	0x3d3c62b6	0.045992576
203	0xbe5adaa8	-0.21372473
204	0xbe0f1dea	-0.13976255
205	0xbd75bb07	-0.059992816
206	0x3e7ce1a2	0.24695447
207	0xbb1aa079	-0.0023594184
208	0xbcd83784	-0.02639366
209	0xbe159a5c	-0.14609665
210	0xbe549296	-0.20759043
211	0xbe4bad21	-0.19890262
212	0x3cb25fe5	0.021774242
213	0x3e69c772	0.22829989
214	0xbc53fef4	-0.0129392035
215	0x3d9736ca	0.07383497
216	0x3e32a73b	0.17446606
217	0xbe09dfa5	-0.1346422
218	0x3e40704b	0.18792836
219	0x3da76e21	0.08175302
220	0x3e3f880d	0.18704243
221	0xbe15ac20	-0.14616442
222	0xbe831825	-0.25604358
223	0xbe83849b	-0.25687107
224	0xbdd4a18a	-0.10382374

conv01.bias f4 [5]
0	0x3f5d799d	0.8651369
1	0x3e254c44	0.16142374
2	0x3e9d212c	0.3068937
3	0x3f2c9bbe	0.67425144
4	0x3ed678c0	0.41889
