utests/models/reshape_m1_tf2.onnx (onnx, 1736 bytes, 2 tensors)

test/conv2d/Conv2D/ReadVariableOp:0 f4 [5, 5, 3, 3]
0	0xbe5b8e3c	-0.21440977
1	0xba94d400	-0.0011354685
2	0xbdb176be	-0.086652264
3	0x3e3b10e0	0.18268156
4	0x3e6a4cc4	0.22880846
5	0x3e0c4a5e	0.13700244
6	0xbe660d85	-0.22466095
7	0xbe3f9b20	-0.18711519
8	0xbdb70118	-0.089357555
9	0xbe79ca2a	-0.24393526
10	0xbd3f1b74	-0.04665704
11	0xbe6d2984	-0.23160368
12	0x3e1afd64	0.15135723
13	0x3e78435a	0.24244443
14	0xbde2b28e	-0.11069213
15	0xbe25dce3	-0.16197543
16	0xbdc06b68	-0.09395486
17	0xbd1b70f8	-0.037949532
18	0xbe4fc5cf	-0.20290302
19	0x3e471a30	0.19443583
20	0x3e10fc2c	0.14158696
21	0xbdbbc9ba	-0.09169336
22	0x3c956740	0.01823771
23	0xbe136496	-0.14393839
24	0x3e4a5582	0.19759181
25	0xbe489d89	-0.19591345
26	0xbe0f7294	-0.14008552
27	0xbd2a2abc	-0.04154466
28	0x3d79a4c0	0.060948133
29	0xbde9a84a	-0.11409052
30	0x3b994600	0.004677534
31	0xbdb7ad3e	-0.0896859
32	0xbe77bdfd	-0.24193569
33	0xbe28ac47	-0.16471969
34	0xbe1f5152	-0.15558365
35	0x3ca31c30	0.019910902
36	0x3e531c46	0.20616254
37	0xbe32bcf5	-0.17454894
38	0xbda738ec	-0.08165154
39	0xbe706f78	-0.23480022
40	0x3d16e100	0.03683567
41	0x3d46f870	0.048576772
42	0x3d80efe4	0.062957555
43	0xbe2f9ca8	-0.17149603
44	0xbda4fd78	-0.08056158
45	0x3e2532a8	0.16132605
46	0x3e78be82	0.24291423
47	0x3ddece4c	0.10879192
48	0xbe337c40	-0.17527866
49	0xbdb7543c	-0.08951613
50	0x3df55fd0	0.119811654
51	0x3de941fc	0.11389539
52	0xbd980318	-0.07422465
53	0x3b960a40	0.0045788586
54	0x3e3834fa	0.17988959
55	0xbe5298a8	-0.20566046
56	0xbe31916e	-0.17340633
57	0x3e0960b4	0.13415796
58	0xbdb83b9c	-0.089957446
59	0xbe44e648	-0.1922847
60	0x3dfeea9c	0.12447092
61	0xbcb20228	-0.021729544
62	0xbd41abf0	-0.047283113
63	0x3e5c6bde	0.21525523
64	0x3e81fcbd	0.25388137
65	0x3bb2a640	0.0054519475
66	0x3d8feec0	0.0702796
67	0xbe46d53c	-0.1941728
68	0x3dce6ffc	0.10079953
69	0x3e63f4ca	0.22261348
70	0x3e7cc19a	0.24683228
71	0xbdf79b26	-0.12090139
72	0xbe60af78	-0.21941936
73	0x3e22b394	0.15888816
74	0x3c9e81c0	0.019348979
75	0x3da1d190	0.07901299
76	0x3c354860	0.011064619
77	0x3e0216d8	0.12704027
78	0xbe5686eb	-0.20949905
79	0xbe82ccd2	-0.2554689
80	0x3dbb9e58	0.09161061
81	0x3df5c934	0.12001267
82	0xbe08582a	-0.13314882
83	0x3dc6c518	0.097055614
84	0x3d53a390	0.051669657
85	0xbe699437	-0.22810446
86	0xbe1b075d	-0.15139528
87	0xbe0784ed	-0.13234301
88	0xbe1164b2	-0.14198568
89	0xbde1cedc	-0.110257834
90	0x3d4f89b8	0.05066845
91	0x3d7ba9c8	0.061441213
92	0x3e41e99c	0.18936771
93	0x3d44fec0	0.04809451
94	0xbe83b0b3	-0.25720748
95	0x3d8a2f80	0.06747341
96	0xbe3b9a40	-0.1832056
97	0x3ded2134	0.115785986
98	0xbde1a774	-0.11018267
99	0x3e82fc57	0.25583145
100	0x3bebef80	0.0072001815
101	0xbe5f423a	-0.21802607
102	0x3d7492e8	0.059710413
103	0x3e8021e3	0.25025854
104	0x3e14819c	0.14502567
105	0xbce76630	-0.028246969
106	0xbdd9cb4e	-0.106344804
107	0x3da2bb9c	0.0794594
108	0x3ce852d0	0.0283598
109	0x3e6de198	0.23230588
110	0xbe6830ba	-0.22674838
111	0x3de7fb94	0.113272816
112	0xbe257f19	-0.16161765
113	0xbcc6cea0	-0.024268448
114	0xbe7c1ed1	-0.2462113
115	0xbd85d37a	-0.065344766
116	0x3de1b064	0.11019972
117	0xbbe7d600	-0.0070750713
118	0x3dcfbef8	0.10143846
119	0x3a86cc00	0.0010284185
120	0x3d90f1a4	0.07077339
121	0xbdb905c0	-0.090343
122	0xbe0e6cdc	-0.13908714
123	0x3d906914	0.07051292
124	0x3e33c7ce	0.17556688
125	0xbe82343a	-0.2543047
126	0x3d768158	0.060181946
127	0x3e0ed0a8	0.13946784
128	0x3e0af2ee	0.13569233
129	0xbe5a68e8	-0.21329081
130	0xbdcf24c2	-0.10114433
131	0xbe71b702	-0.23604968
132	0xbe3b424a	-0.18287006
133	0xbd3b7ce8	-0.045773417
134	0x3c515780	0.012777209
135	0x3e1e20ba	0.15442172
136	0xbe7c2867	-0.24624787
137	0xbc8346c8	-0.016024962
138	0x3e6ed6ac	0.23324078
139	0xbdddd4c8	-0.108316004
140	0x3e0421aa	0.12903467
141	0xbd95aa3a	-0.07307859
142	0x3d9d4b80	0.07680416
143	0x3dda2720	0.10651994
144	0xbe610434	-0.2197426
145	0x3e73f4f4	0.23823911
146	0x3d2861e8	0.041108996
147	0x3e4d96e8	0.20077097
148	0xbd57c6b0	-0.052679718
149	0x3e7df856	0.24801764
150	0x3e0d7c06	0.13816842
151	0xbe769df8	-0.24083698
152	0xbe20fdff	-0.15721892
153	0xbccc7db0	-0.024962276
154	0xbd8b9778	-0.06816
155	0xbdd8e27a	-0.10590072
156	0xbbf5b3c0	-0.0074982345
157	0xbd559c44	-0.05215098
158	0xbe353162	-0.1769462
159	0x3e58a448	0.21156418
160	0xbdf86320	-0.121282816
161	0x3e0f1766	0.1397377
162	0xba42a600	-0.00074252486
163	0x3d307990	0.04308468
164	0x3df006c8	0.117200434
165	0xbdafe6ec	-0.08588967
166	0xbe25f5a0	-0.1620698
167	0xbd000b50	-0.03126079
168	0x3d8955f0	0.067058444
169	0xbd943a5c	-0.07237694
170	0x3de12584	0.10993484
171	0xbe40191c	-0.18759578
172	0xbe36664d	-0.17812462
173	0xbca30870	-0.019901484
174	0x3e6853ba	0.22688189
175	0x3e0bf6f4	0.13668424
176	0xbe4a2f53	-0.19744615
177	0xbc810c90	-0.01575306
178	0x3df46b58	0.11934537
179	0x3e65370a	0.22384277
180	0x3c6a7260	0.014309496
181	0xbd4092a0	-0.047014832
182	0x3df2f73c	0.118635625
183	0xbe17e556	-0.14833578
184	0x3e0a47aa	0.135039
185	0xbde1b07c	-0.1101999
186	0xbe2e3218	-0.17011297
187	0x3df580bc	0.11987445
188	0x3e36c20e	0.17847463
189	0x3e704746	0.23464689
190	0xbe805832	-0.25067288
191	0x3d1d0170	0.03833145
192	0xbe670575	-0.22560675
193	0xbe1bd45c	-0.15217727
194	0xbb556c00	-0.0032565594
195	0x3e07fb9a	0.13279572
196	0x3e7bf362	0.24604562
197	0x3d3971e0	0.045274615
198	0xbe468fc2	-0.19390777
199	0xbe0c3c40	-0.13694859
200	0xbdef7142	-0.11691524
201	0x3e8238c5	0.25433937
202	0x3e18be44	0.1491633
203	0xbe03550c	-0.12825412
204	0xbc872348	-0.016496316
205	0x3e0df75e	0.13863894
206	0x3db7b070	0.089692
207	0x3e51b850	0.20480466
208	0xbe3bc8fc	-0.18338388
209	0x3dda9810	0.10673535
210	0x3ddf3900	0.10899544
211	0x3e019078	0.12652767
212	0x3e3d906a	0.18512121
213	0xbb7c7000	-0.0038518906
214	0xbe0e1730	-0.13876033
215	0x3d0d5108	0.034501106
216	0x3b940900	0.0045176744
217	0xbe40cc02	-0.18827823
218	0x3e11b2fe	0.14228436
219	0x3dedd66c	0.11613163
220	0xbcd0af68	-0.025474265
221	0xbdc41ef8	-0.09576219
222	0xbe527016	-0.2055057
223	0x3e42b702	0.19015124
224	0x3e2aff22	0.16698888

test/conv2d/BiasAdd/ReadVariableOp:0 f4 [5]
0	0x39b27000	0.00034034252
1	0x3ef1b7ec	0.47210634
2	0xbeee70aa	-0.4657033
3	0xbe77dc8c	-0.24205226
4	0xbec10402	-0.3769837
