utests/models/reshape_minusone.onnx (onnx, 794 bytes, 2 tensors)

conv01.weight f4 [5, 2, 3, 3]
00000000: 085a 82bd 609a 253e c828 623c e11a 6dbe
00000010: fce6 eebc 3afe 923e 40dc 4abe 58c3 1cbe
00000020: 8189 b23d c40d 943c 2703 853e f948 3cbe
00000030: b1f6 d6bd d194 53be 89db a93d 96d0 573e
00000040: 106a 4f3d 2944 3f3e 9cad 943e 32b4 81be
00000050: c520 313e 7005 eabc fa58 883e 8f11 8f3d
00000060: 8fbb 3fbe d2bd 4c3e edfc 83be cf04 9c3e
00000070: 30c0 033e ec4b 9abe 751e 80be 5718 873e
00000080: 3d96 6cbe 6707 003e 6709 4ebd a2ab 313e
00000090: dfda 303e 21af 3e3e 0a41 80be f5b7 713e
000000a0: f60d 7cb9 c647 533e 55fd d9bd 1c4e 873e
000000b0: 8fe3 0d3e 0c53 143d 6e9a 39be a579 e3bd
000000c0: bc71 9abe 13bb b0bd 6b53 bdbd 2842 4d3e
000000d0: 621a adbc 65e7 583e 66fb 71bd 3aa2 00bd
000000e0: 6d17 03be 7c3e 0dbe 8ead 6ebe 4f95 cdbd
000000f0: 7040 9b3d 6c9f 473e 7be9 4bbd 87a2 7b3e
00000100: 11d3 8c3e 0e2f cc3d 00bd 883e fa41 0b3e
00000110: 6bb1 8b3e 619a 873e 273b 733d 5e7c 293d
00000120: ddff 04be 4d54 da3c a338 b33c efd2 03be
00000130: 88fb 063e afc2 97be e14b 0f3e 0452 743e
00000140: 4c23 303d b536 98be 998b c33d 4679 99be
00000150: d0cd 78be 98ec d73d 6cf8 3fbe 1c45 063e
00000160: ff67 75be 6d0c c73d
-0.06364828 0.1617217 0.013803668 -0.23154785 -0.029162876 0.28709584 -0.19810581 -0.15308893
0.08717633 0.01807297 0.25978968 -0.18387212 -0.104962714 -0.20662238 0.08293826 0.21075663
0.05063826 0.18678345 0.29038703 -0.2533279 0.17297657 -0.028567046 0.26630384 0.06985771
-0.18723892 0.19994286 -0.25778905 0.3047242 0.12866282 -0.3013605 -0.25023237 0.26385757
-0.23104186 0.12502824 -0.050301936 0.17350629 0.17270993 0.18621494 -0.2504962 0.2360533
-0.00024037794 0.20632848 -0.106440224 0.2642678 0.13856338 0.036212012 -0.18125317 -0.11107186
-0.30164897 -0.086294316 -0.09244426 0.20044768 -0.021130744 0.2118202 -0.059077643 -0.03140471
-0.12801905 -0.13793367 -0.23308393 -0.10038244 0.0758065 0.19494408 -0.04978321 0.24573718
0.2750478 0.099699125 0.26706696 0.13599387 0.27283797 0.2648497 0.059382584 0.04137837
-0.12988229 0.026651526 0.021877592 -0.12873434 0.13181889 -0.2964072 0.1399379 0.23859411
0.04300241 -0.29729238 0.095481105 -0.29975337 -0.24297261 0.105431736 -0.18747109 0.131123
-0.23965453 0.09719167

conv01.bias f4 [5]
00000000: dfe7 603f 9035 8d3d 90b3 253f c006 4b3e
00000010: 88ff bc3d
0.8785381 0.06894982 0.64727116 0.19826794 0.09228426
