utests/models/reshape_1_m1.onnx (onnx, 1383 bytes, 2 tensors)

conv01.weight f4 [5, 5, 3, 3]
00000000: c21f 59be 87e4 573e 7dac 0f3e a1da ee3d
00000010: 37e3 b93d e1a0 00bc f7b7 663d 15ae e5bd
00000020: a01b 3e3e 6df9 1b3b baa8 7a3e c44a 16be
00000030: bfa4 1f3e 01df 763e fa58 203c 83df 48be
00000040: f76f e03b d85f 75be b354 f53d e0e6 53bd
00000050: 7d41 f3bd b692 e4bd 60e3 7dbb c0cc 383d
00000060: 3f2e a83d 2e3e 2e3c e223 56bd d9e9 4e3e
00000070: 86b5 0bbe b534 79be 5789 dabd 7f49 3a3e
00000080: 03ae 16bd 19c5 20bd 9c94 83be 83d5 e2bd
00000090: 492e 67bd 668c 503e 2638 3cbe 6ac5 dc3d
000000a0: db7d 813e 0df5 b6bd dbd4 833d 73f0 07be
000000b0: edf8 f4bd 2e2b 7dbd e989 d33d f9d2 393e
000000c0: aa39 08be af89 333e c355 72be 535f d0bd
000000d0: 2357 413e a54c 90bc 4c67 6bbd 40b8 4cbe
000000e0: b0e5 f33d 83a0 593d 9dbb 8ebd 6dbb ec3d
000000f0: 86b5 5cbe 3f29 c8bc 593d b73d 15f2 04be
00000100: dfa0 683e d8ae 28be 6a97 86bd f15c 2e3d
00000110: 705a c53d a284 143e 545a 81bc 9a4c 15bd
00000120: 7f0f 7f3e 859e 7e3e cdc8 26bd 6195 5abd
00000130: 4a0c fcbd cfbd 1e3e d0fd 2a3d 1de9 18bd
00000140: d6c0 58be d00f fdbd 9c4f 7fbe b46f 2dbe
00000150: 2edb 3b3e 0e5a 3abe a321 1d3e f8f0 4dbe
00000160: 7795 183e 82d9 18be f188 6ebc d56f 673d
00000170: 62a6 62be 478e 073e 7b0d c2bd c7d2 ff3d
00000180: 1d96 37be aa61 27be df06 eebc eb3e 82be
00000190: 93dd 673e daf0 27be 6997 c6bd baa2 17be
000001a0: 085c 833e cf59 8f3b 0ae3 803e a655 0a3e
000001b0: 18e1 bbbd f4f7 dcbc aedf 183e 5cb1 fcbd
000001c0: 2c95 d73d 4d87 9b3c d41e 233e 92e8 383e
000001d0: 1461 e63d e557 2c3d f5c9 a53b c445 f7bd
000001e0: f3f4 033e 0890 2cbe 8e35 243d 46f1 5a3e
000001f0: 3900 663e cde1 9b3c 3ec1 343d e3cb 78bd
00000200: 4b42 67bd 8ff6 4e3e 329c 443e bc44 e4bc
00000210: 1068 1c3d bd9c 1d3b 9f35 e23d 0edf b2bd
00000220: 12b4 72be 1fd1 803e d59d b73d b656 47be
00000230: 01fb 50bd 4758 323d da6c 6a3e 3e61 383e
00000240: 9d1a eb3d 891d 3fbe e0b9 c1bc 0f30 653e
00000250: a4ab 813e 7f5c 81be ce16 823e 4185 55bd
00000260: 6317 933d 8a83 00bd 1916 00bd 385f 013e
00000270: 00a7 67be 391b 533d 979c 6d3e 6863 a5bd
00000280: 0377 4f3e 25ab 103c ec45 0e3c 8d9b 3dbe
00000290: c9f2 62bd 4910 173e fb87 80be 8e2d ad3d
000002a0: c271 4d3d 9e4d a13c da15 0d3e c9c1 cd3d
000002b0: 1bc1 93bb 21fc 493e 12ce a8bd 0d10 b3bd
000002c0: e04a a9bd 7518 a43d fbca 413d 4680 4bbd
000002d0: 6a82 48be 9ac8 c3bc 6f76 b93d a164 09be
000002e0: 7ff7 3c3d cb66 823e 4849 d83d 759c 00be
000002f0: 070e 79be 4cb9 12be 9ddd 3c3e f3ff 203e
00000300: 0c9f 71be 7554 5abe a0f9 4bbd 25d7 18be
00000310: ad84 16be 951a 733d a6e0 8abd df9f 51be
00000320: b6f5 41be 2b63 73bd 8347 593e 3ccc e3bd
00000330: 849c 25bd aac8 753e c463 c53d acf5 343e
00000340: 3a2c 7e3e 211b f7bd 2dbc 3abe ccde 32bd
00000350: 3e56 d4bd 350c 1dbe a089 dc3d 3738 553e
00000360: 16c1 b5bd b8c3 1b3e 5fc7 163e cf7e 7e3e
00000370: edd0 5ebe 1a74 613c 0de1 a9bd 4e40 9d3c
00000380: 739f 5abd
-0.21203521 0.2108327 0.14030643 0.11662794 0.09076541 -0.0078508565 0.056327786 -0.11214844
0.18565226 0.0023799792 0.24478427 -0.14676958 0.1559019 0.24108507 0.009786839 -0.19616513
0.0068492847 -0.23962343 0.11979046 -0.05173385 -0.11877725 -0.111607954 -0.0038740262 0.04511714
0.08211946 0.010634942 -0.052280314 0.20206393 -0.13643464 -0.24336512 -0.10670727 0.18192099
-0.036787044 -0.039250467 -0.25699317 -0.110758804 -0.056440625 0.20366058 -0.18380794 0.10779841
0.25291333 -0.089334585 0.06437083 -0.13275318 -0.11961541 -0.061808757 0.10329039 0.18146886
-0.13303247 0.17532991 -0.23665528 -0.10174432 0.18880896 -0.017614672 -0.05747156 -0.19992161
0.11909044 0.05313159 -0.06969378 0.11559186 -0.2155362 -0.02443373 0.08947248 -0.12982972
0.22717617 -0.16472948 -0.06571849 0.042569105 0.0963639 0.1450372 -0.015790142 -0.036450006
0.24908255 0.24865158 -0.040718842 -0.053365115 -0.123070315 0.15502094 0.04174596 -0.03733169
-0.21167311 -0.123565316 -0.24932712 -0.16937143 0.18345329 -0.18198416 0.15344863 -0.20111454
0.14900766 -0.14926723 -0.014559017 0.056503136 -0.22133783 0.13237868 -0.094752274 0.124913745
-0.17928357 -0.1634585 -0.02905601 -0.25438628 0.22643118 -0.16400471 -0.09696848 -0.14808169
0.25656152 0.0043747197 0.25173217 0.13509235 -0.091737926 -0.026973702 0.14929077 -0.12338516
0.10526499 0.018985415 0.15929729 0.18057469 0.11248985 0.04207601 0.0050594755 -0.120738536
0.1288641 -0.16851819 0.040090136 0.21381101 0.22461022 0.019028569 0.044129603 -0.060741317
-0.056459706 0.20211242 0.19200209 -0.027864806 0.03818518 0.0024049722 0.11045384 -0.087339506
-0.23701504 0.25159547 0.08965651 -0.19466671 -0.051020626 0.04354122 0.22893086 0.18005845
0.114796855 -0.1866361 -0.023648202 0.22381614 0.25326264 -0.2526588 0.25408024 -0.052129034
0.07182195 -0.031375445 -0.031271074 0.1263398 -0.22622299 0.051539633 0.23204266 -0.08075601
0.20260243 0.008829867 0.008683663 -0.18516369 -0.05540732 0.14752306 -0.25103745 0.084559545
0.050157316 0.019690331 0.13777867 0.10046727 -0.004509104 0.19725086 -0.0824243 -0.08743296
-0.082662344 0.08012477 0.047312718 -0.049682878 -0.19580999 -0.023899365 0.090557925 -0.13417293
0.04613447 0.2546905 0.10560852 -0.12559684 -0.24321757 -0.14328498 0.18443914 0.15722637
-0.23595828 -0.2132128 -0.049798608 -0.14925821 -0.1469905 0.059351522 -0.067811295 -0.20471142
-0.18941388 -0.059420746 0.21218686 -0.11122939 -0.040432468 0.24002329 0.096381694 0.17671841
0.24821559 -0.12065721 -0.18235846 -0.043669507 -0.10368012 -0.15336688 0.107684374 0.20822226
-0.08874719 0.1521138 0.14724492 0.24853061 -0.21759386 0.013760591 -0.08294878 0.019195702
-0.05337472

conv01.bias f4 [5]
00000000: 6cc3 1d3f e057 d13c fe7b ff3e e195 123f
00000010: e87b af3d
0.61626315 0.025554597 0.49899286 0.5725995 0.08568555
