utests/models/reshape_withshape.onnx (onnx, 3524 bytes, 2 tensors)

conv01.weight f4 [8, 8, 3, 3]
000000 73 f6 ca bd f1 6c 46 3e 2e 1a 09 bd f2 87 b7 bd
       -0.09910288 0.19377495 -0.033472233 -0.089614764
000010 21 c4 7a bd 7a 4b 5a 3c a0 19 7d 3d 1c a8 44 bd
       -0.0612222 0.013323659 0.061792016 -0.048011884
000020 dc b2 3f be 7b 8a 82 3d 0f d0 2c bd 9a 09 2d 3e
       -0.18720573 0.06374069 -0.042190608 0.16898194
000030 24 ca 06 be 85 b1 04 3e 9f 12 26 be 96 d8 29 3e
       -0.13163048 0.12958343 -0.16218041 0.16586527
000040 4d 7d bd bd 61 40 d1 3d 7c 33 cb bd d9 95 24 be
       -0.09252415 0.102173574 -0.09921929 -0.16072787
000050 43 b3 4c 3e f0 40 e9 3d 44 9e 4b 3c 9a 29 b7 3d
       0.19990258 0.11389339 0.01242787 0.08943482
000060 53 72 43 bd 49 04 8e 3d 80 b4 f5 bd 05 31 13 3e
       -0.04771645 0.06934411 -0.11997318 0.14374168
000070 41 6b 72 3c bf f1 f6 bd 6c 43 ea 3d 6a dd 0e 3e
       0.014796079 -0.12057828 0.11438641 0.1395165
000080 bb 19 02 3e 76 52 c1 3d 60 29 3a 3c 11 5e 2f be
       0.12705128 0.09439556 0.011362404 -0.17125727
000090 60 a4 c7 3d e1 3b f9 3d 9c 5c 04 3b 6e bf c5 bd
       0.09748149 0.12169624 0.00201968 -0.09655653
0000a0 d5 07 45 3e 37 e9 bf 3b 59 32 ac bd df 2c cd bc
       0.19241269 0.005856659 -0.084080406 -0.02504581
0000b0 1d d2 f9 3d 8e b2 1c be 1a 95 2a be 55 ad 07 3d
       0.12198279 -0.15302488 -0.1665844 0.033124287
0000c0 fd a4 2b 3c 68 46 c1 3d b5 39 cc bc 42 2e 52 3d
       0.010476348 0.09437257 -0.02492986 0.051313646
0000d0 1b bc 99 bd 5c ea fb 3d 9d d9 ba bd e3 f8 08 3e
       -0.075065814 0.1230056 -0.09123538 0.13376193
0000e0 b9 c5 3f bd 6c fe 86 bb f8 cc 2c 3e c7 25 3a 3e
       -0.046819422 -0.004119685 0.16875064 0.18178473
0000f0 68 8e ba 3d 1a 9a c9 3d 02 a4 27 be a2 14 c3 3d
       0.09109193 0.09843846 -0.16371158 0.0952542
000100 04 1e 45 3e 20 b4 b3 bd 36 13 25 bd c0 1a 3f be
       0.19249731 -0.087745905 -0.040301524 -0.18662548
000110 dd 2d 29 3d ee 56 e5 bd 51 e5 0f 3d 47 e6 07 be
       0.041303504 -0.11198221 0.035130803 -0.13271438
000120 8a 54 ef 3d 50 37 08 be 78 ba e3 bd bf 3e a7 bd
       0.116860464 -0.1330235 -0.111195505 -0.08166265
000130 da a6 7d 3d 4c 53 36 be 37 22 a5 bc d7 fd 93 3d
       0.0619267 -0.17805213 -0.020157916 0.072261505
000140 93 75 3c be 19 68 41 3d 2b 0c e1 bd d7 d2 82 bd
       -0.18404226 0.047218416 -0.10988649 -0.06387871
000150 c1 88 18 be 37 55 be bd 10 99 99 3d 15 f8 c2 bc
       -0.14895917 -0.09293597 0.074998975 -0.023799935
000160 90 12 32 3d 5d 1d 12 3e 7e ac 00 be fc 13 0b 3e
       0.043474734 0.14269014 -0.125658 0.13581842
000170 c1 c0 0e 3b af ff 12 3e 7c 6e ba 3d 18 8f 45 3e
       0.002178237 0.14355348 0.091031045 0.19292867
000180 af 37 d3 bd e4 f1 27 3e d9 ca 04 3e e5 f9 8f bd
       -0.10313355 0.16400868 0.12968005 -0.070300855
000190 1a 75 3b 3e de f9 0f be c6 8d 4f bd ae 22 f5 bd
       0.1830639 -0.1406016 -0.050672315 -0.11969505
0001a0 19 ad 40 3e 83 66 5e bc 79 3b 0f 3e bf e6 58 3d
       0.18816032 -0.013574245 0.13987531 0.05295443
0001b0 d6 9f 6b bd 50 13 01 be 27 e5 38 3d 6c 5a b8 3d
       -0.05752548 -0.12605023 0.04514041 0.090016216
0001c0 e9 7e b3 3d 2e 02 45 3e 35 27 95 bc e2 f9 01 be
       0.087644406 0.19239113 -0.018207172 -0.12692979
0001d0 4f 91 37 3d 6b 75 c1 bc a9 ac 86 3d 71 00 34 3e
       0.04481631 -0.02361556 0.06575901 0.17578293
0001e0 f6 a1 3b 3d 37 10 1b be bd fd 15 be 52 94 d3 bd
       0.045808755 -0.15142904 -0.14647575 -0.10331024
0001f0 01 f2 84 bd 12 4c f8 bd 26 1b 09 bc 7f e7 94 3d
       -0.06491471 -0.12123884 -0.008368289 0.07270717
000200 4a 07 05 3e a7 28 62 bd f3 b5 f7 bd b2 22 af 3c
       0.12991062 -0.05521455 -0.12095251 0.021378849
000210 c0 db b8 bd e8 9e 38 bc 23 68 43 3e 83 43 d3 bc
       -0.09026289 -0.011268355 0.19082694 -0.025789028
000220 a9 ac 11 be 56 a7 2c 3e 38 80 1e 3e a3 3e ef 3b
       -0.14226021 0.16860709 0.15478599 0.007301168
000230 cf be 7e bd b1 43 37 3c cb 41 da bd b3 1d 49 3d
       -0.062193688 0.0111855725 -0.1065708 0.04910059
000240 d8 0f c9 3c b4 bc c7 3d 9a 3c 88 bc 22 78 9d bd
       0.024543688 0.09752789 -0.01663046 -0.07688929
000250 df 00 1a be f1 c3 19 bd 53 79 37 3e e1 46 a6 bc
       -0.15039395 -0.03754038 0.17917375 -0.02029747
000260 c6 dc 9f bd 62 7c a6 bd d9 b5 12 3e 45 a4 5b bd
       -0.07805781 -0.08129193 0.14327182 -0.053623457
000270 3c 6c 01 bd ee 55 d9 3d 8a 96 dc 3d 2f 10 50 3e
       -0.03159736 0.10612093 0.107709005 0.20318674
000280 99 22 b7 3d 0e 35 26 be c2 95 4a 3e 2b be bf 3d
       0.08942146 -0.16231176 0.1978369 0.093624435
000290 1f bf 0e be e4 dd c6 bd d0 a6 b9 3d 18 5a 47 be
       -0.13940094 -0.09710291 0.0906502 -0.19467962
0002a0 1c 02 95 bb 27 bd 95 bd c9 7c 22 be 8f 55 0b 3e
       -0.0045473706 -0.073114686 -0.15867914 0.13606857
0002b0 96 36 74 3d 69 c2 7d bd 18 8d 36 3e 07 af b1 bd
       0.05962237 -0.061952982 0.1782726 -0.08675962
0002c0 9a dd d2 3d 53 e1 d3 bd 3d 7b d2 bd f0 63 f9 3d
       0.102961734 -0.103457116 -0.10277412 0.12177265
0002d0 57 33 3f bd 41 33 b4 3d f4 fb ed 3d 4d ac d4 3c
       -0.04667982 0.087988384 0.11620322 0.025961066
0002e0 36 35 0e 3d fb 5e 25 be 18 84 1d 3e c1 7d 9f 3d
       0.034718715 -0.16149513 0.15382421 0.077876575
0002f0 da 81 3c be 9f 16 26 3e dc 6a 51 bc fc 67 18 3d
       -0.1840891 0.16219567 -0.012781825 0.037208542
000300 1c ad 8e 3d 1e fd f1 bd 1b 78 a8 3d 67 02 0e be
       0.06966612 -0.118158564 0.08226033 -0.13868104
000310 c4 3c 42 be 37 7e 23 be 27 b7 2c 3d 21 67 6f 3d
       -0.18968493 -0.15966116 0.042166855 0.05844796
000320 01 15 ac bc f2 4f ac bc 42 9e e0 bd c1 7c ca 3d
       -0.02100611 -0.021034215 -0.10967685 0.09887076
000330 a3 6c 13 3e 5d ed cb bb 90 4c 3a 3e a9 d6 40 be
       0.1439691 -0.0062233643 0.18193269 -0.18831886
000340 15 4f c5 3d 8c 68 03 3e 17 c8 f3 bd bd 6b 72 bd
       0.09634224 0.1283285 -0.119033985 -0.05918478
000350 81 7e 3c be e4 6f 29 be 1a 1b d5 bd ca 12 86 3d
       -0.18407632 -0.16546589 -0.1040556 0.065465525
000360 aa c1 38 be 4b 6b e0 bd 8d 49 b6 bd b8 7c 30 3e
       -0.18042627 -0.109579645 -0.089007474 0.17235076
000370 ab 57 6e 3d 95 b3 ec bc 52 6e 9e bd 03 3a a8 bc
       0.058189075 -0.028894225 -0.07735886 -0.020535475
000380 af d7 ff 3c 3b ed 60 bd ec 3f 3c be a7 51 48 be
       0.031230776 -0.05491374 -0.1838376 -0.19562398
000390 58 9c 47 3e 5a a1 31 3d bd 10 b2 bd 67 37 33 3d
       0.19493234 0.043366767 -0.08694599 0.043754008
0003a0 ed 75 a7 3d b5 b0 b2 bd 0b 44 15 3e da cc ad bd
       0.081767894 -0.087251104 0.14576738 -0.08486338
0003b0 75 e0 40 bd 1e cd ae 3c 0a bc 5e 3c ee e3 00 3d
       -0.04708906 0.021338042 0.013594637 0.03146737
0003c0 f4 ae 07 3e 91 91 37 bc 2f 79 01 3e 3b dd d3 3d
       0.13250333 -0.011204139 0.12643884 0.10344931
0003d0 24 45 b0 3d 8f 93 15 be 2f f9 3e be 89 9d ac 3d
       0.086069375 -0.1460707 -0.18649743 0.08428485
0003e0 e5 06 2c be 3c 66 29 3e 63 7b 39 3d 02 3b 95 bc
       -0.16799505 0.16542906 0.045283686 -0.018216614
0003f0 d3 ea cb 3d 28 11 f7 3d 0d bd 2e be 44 4e 0c 3e
       0.099568985 0.12063819 -0.17064305 0.13701731

conv01.bias f4 [8]
000000 6b 17 07 3f 88 b4 71 3e f3 db 62 3f cc 60 bb 3e
       0.5277011 0.23604023 0.88616866 0.36597288
000010 e2 1b 45 3f 68 11 4f 3e 80 1f 0f 3d a6 8c 99 3e
       0.7699567 0.20221484 0.03494215 0.2999012
