utests/models/reshape_1234.onnx (onnx, 750 bytes, 2 tensors)

conv01.weight f4 [3, 3, 3, 3]
00000000: a0ca d6bd ffd2 8d3d 6ae9 64bd 226c e1bd
00000010: cebc 1bbd 4e2c 353d 1331 4fbd 95bb 9c3c
00000020: 0560 233e 2f46 b13d 6e9f 243e aaba 263e
00000030: 13af c03d 54cf 1f3d fdbf a2bd a7e4 43be
00000040: b66c a8bd 5bb0 02be 3f00 25bd 06f1 9a3d
00000050: 36cb e23c 9378 8ebd 89a5 f2bd a674 e8bc
00000060: f9fe 28bc 0f27 3e3e c376 133e 6a84 5fbd
00000070: 5975 3b3e 793d db3c 5836 413d 79dd 34bc
00000080: d3cc bb3d 1d46 f53c 1c71 87bc 5a05 8b3d
00000090: fab7 06be dbb2 d83d 2a18 27be 8a2f 0d3e
000000a0: 8c96 57bc f6ee f1bd 4f39 073e fc6e 16be
000000b0: 91a3 333e d521 1dbe 77ca 01be ca83 293e
000000c0: 92d5 16bc fd31 39be af30 2e3e 8820 62bd
000000d0: 7fc1 463d bc9a debd 37dc 5e3c 7985 09bc
000000e0: 5022 24be 2b25 fe3c d1c7 283e 8a1f b8bd
000000f0: ec19 aa3d dfb9 2abd bcd6 24be 4997 523d
00000100: 1f04 d43b 5730 8d3c 29b4 b3bd 0add ed3c
00000110: 55a5 873d bbfb a93d 9381 a7bd 8d82 323d
00000120: 621e 16bd ed16 fcbd ac3d 093e 9867 493d
00000130: a1e3 943d 0ecc 9b3d 31d6 36be 101d 2a3e
00000140: 8cb0 e1bd
-0.104878664 0.0692501 -0.055886663 -0.11006953 -0.038021855 0.044231705 -0.05058391 0.019132415
0.15954597 0.086559646 0.16076443 0.16282144 0.09408393 0.039016083 -0.07946775 -0.19130193
-0.0822386 -0.12762587 -0.040283438 0.07565503 0.02768479 -0.069565915 -0.118479796 -0.028375935
-0.0103146965 0.18569587 0.14400773 -0.05456964 0.18306483 0.02676271 0.047170967 -0.011039131
0.091699265 0.02994066 -0.016533427 0.0678813 -0.13156119 0.10580989 -0.16317812 0.13787666
-0.013158452 -0.11813156 0.13205455 -0.14690775 0.17542864 -0.15344937 -0.1267489 0.1655418
-0.009206193 -0.18085475 0.17010759 -0.055206805 0.048524376 -0.10869357 0.013602308 -0.008393639
-0.16028714 0.031023582 0.16482474 -0.089903906 0.083057255 -0.041681167 -0.1609754 0.051413808
0.006470218 0.017234964 -0.08774597 0.029036064 0.066233315 0.08299967 -0.08179011 0.043581534
-0.03665007 -0.1230906 0.13402432 0.04917106 0.07269979 0.0760728 -0.17855145 0.16612649
-0.11020002

conv01.bias f4 [3]
00000000: 3220 0abe f9d4 3abd c97e 5fbd
-0.13488844 -0.045613263 -0.05456427
