utests/models/scatternd_hwc_with_conv_pytorch.onnx (onnx, 11924 bytes, 4 tensors)

conv1.weight f4 [8, 8, 3, 3]
00000000: 7d74 ed3d dc84 babd 89e4 cabd f154 b1bd
00000010: b804 1cbd 2e5b 77bd 9861 e43c de19 c23c
00000020: c7ca 49bd efa7 333c 812c 6d3d 6d80 9e3d
00000030: 6d48 683d 0c86 53bd de52 86bd 881b bb3d
00000040: 1c45 cb3d 12d3 8a3b 6279 5c3d 0919 013d
00000050: 57b4 5dbd 9154 77bd bd12 273d 0c73 71bd
00000060: 9e46 013d 35e7 f23b 619b cabd 17d8 a53d
00000070: 01ea 48bb e2e5 8f3d 7d89 0b3d c4be e9bc
00000080: 4029 283d f3f3 a23d de95 a23d 5bb8 9c3d
00000090: 26bf cd3d ef94 aabd 8455 58bd 35ef fabc
000000a0: 19ba 64bd e750 d63d 1d26 60bd 0522 0ebd
000000b0: 092e 9fbd 36c3 233d 0216 debc a4dc ca3d
000000c0: d27b 4bbd 3fc8 933d 5c59 a0bd cf9a 023d
000000d0: bd51 db3d df0b bb3d 05bb d93d 14ab 58bd
000000e0: a3e7 c03d 8a88 81bc aa02 c8bb 9ac4 09b9
000000f0: 77b1 7f3d facb 843d 1690 9c3d e367 a33d
00000100: 9691 47bd 4109 9b3d f2b6 56bc a933 913a
00000110: 7c15 dd3d af4c 3f3d d51b a23c 21a3 633d
00000120: 7940 e9bd 30e7 c6bd 404f cf3c 4bda fc3c
00000130: 9515 85bc fbce c93d b759 b5bc 9c17 9dbd
00000140: d045 a83d ef6f 803c 28f0 fd3c 3917 2a3c
00000150: a3c8 9e3d 3336 c7bd 39a8 cf3d b6c6 ca3d
00000160: 653d 013d 66f3 8f3d c090 433d d89b 3cbb
00000170: ee2d 1ebd 3c55 b0bd 38de e03d fc3d a8bd
00000180: c0de 3b3c bc2b 3a3d 66d1 543c edcb c6bd
00000190: 9adf dcbd ea88 6c3c d1d9 c13b cca4 34bd
000001a0: 0aa4 3f3d b03d 2bbd 6aa6 aa3d 303b 5dbc
000001b0: 9b96 00bd 951e b43d 8aef ccbd f8db a43d
000001c0: c423 b3bb 50ba 83bd f754 f73c c38b a93d
000001d0: 1e9b 5dbd e227 b03c f204 933d 0fcd 95bd
000001e0: 9e0a c43d 55a7 79bd 52d6 ae3d 65c2 df3d
000001f0: 53a9 59bd 1061 2c3c f051 99bd 4086 d9bc
00000200: 5133 883c 85e8 8a3c 186e e9bc 297f dabd
00000210: 63a4 57bd 4f9f d33c 171c 03bd 0631 4fbc
00000220: d2b0 a73d 841f c8bd 6117 20bc cb8c eb3d
00000230: 35ce 25ba 8023 e0bd 64e2 57bd 0d36 203d
00000240: a8f6 dc3d 44a3 eebd 5826 e4bc a4ec b73d
00000250: f912 b53d c9d5 1b3b 8682 8cbb 0dcb 31ba
00000260: 88f6 d13d c227 573d b587 bfbd 4bd7 d4ba
00000270: efe7 8fbd 11ff b8bc d2c2 643d d5fd ddbd
00000280: c0b3 2c3d 5a6a bf3d 35f1 eabc 8c76 eabd
00000290: 1d4a edbd b92a 93bd cad8 1abd 5ce9 da3d
000002a0: a169 ddbd ea99 b23d de1f 1bbd 01cf 483d
000002b0: 2f98 82bc 2f1b bd3d 86b8 7a3d 5f5a a1bd
000002c0: fa93 b8bd d9f6 d53b 1599 b1bb ff99 b93d
000002d0: 068d f0bd d70f a5bd a138 27bd 6f1d 993d
000002e0: 6330 973d 33f7 b73d 29f6 de3d d2cb dd3d
000002f0: cddc 96bd 6fed 16bd 92c1 e63d a67c 4cbc
00000300: d9b7 9cbd 8017 90bd 4897 c4bd d3b6 d83d
00000310: 19f3 edbd 5bd3 303d 6797 bf3c 5413 49bd
00000320: 16d8 37bd 98ae 56bd f034 c6bd df4d cbbd
00000330: d93b 08bd a5af 86bd abd1 913c 3014 8b3d
00000340: 60ac 9a3d d8dd 363d 762a 6ebc cd10 e1bd
00000350: 92d8 30bc 7716 bc3d c6c1 e1bd d3d9 0e3d
00000360: 07f9 b2bd f5f8 eebd 2704 8bbc 9e1a 65bd
00000370: 08d8 893d 4488 663d a6f9 173d 521f eabd
00000380: 4968 35bd 36d2 10bd 7701 4d3c 482a 66bd
00000390: b435 f6bc ab0b 04bd 23e0 bbbd 62e5 d53d
000003a0: 5a80 d33d 9b30 debd cddf b93d 724f e53c
000003b0: 90f7 593c aabc 653d 4e98 ddbd b650 0a3d
000003c0: c18f 86bd d055 e7bc e70a 99bd 8730 6dbd
000003d0: c858 89bd b6ab f0bd 93bf 693d c543 673d
000003e0: 7fc0 84b9 cc1f c5bd d949 84bc 602b ae3d
000003f0: d3c1 f5bc 87e7 82bc ccc6 ad3c 1f2f 1e3d
0.11594484 -0.09107372 -0.09906871 -0.086587794 -0.038090438 -0.06038969 0.027878568 0.023693975
-0.04926565 0.010965331 0.05790377 0.07739339 0.056709696 -0.05164151 -0.065587744 0.091361105
0.09925291 0.0042365873 0.053826697 0.031518016 -0.054127064 -0.060383383 0.040789355 -0.058947608
0.031561486 0.007412816 -0.098929174 0.080978565 -0.0030657055 0.070262685 0.034066666 -0.028533347
0.041054964 0.07956686 0.07938741 0.076523505 0.10046224 -0.08329188 -0.05281593 -0.03063164
-0.05584154 0.1046465 -0.054723848 -0.034700412 -0.077724524 0.03998109 -0.027110104 0.09905365
-0.04967863 0.07215928 -0.07829544 0.03188592 0.1070895 0.091331236 0.10631374 -0.052897528
0.09419181 -0.015812177 -0.006103833 -0.00013138578 0.062425103 0.06484218 0.0764467 0.07978799
-0.048722826 0.075701244 -0.013105141 0.0011078018 0.107951134 0.04670399 0.019788662 0.055575494
-0.1138925 -0.09712064 0.025306344 0.030865809 -0.016245643 0.098539315 -0.022137506 -0.07670519
0.08216441 0.015678374 0.030998304 0.010381513 0.07753112 -0.097271346 0.10139508 0.09901182
0.03155269 0.070288464 0.047745466 -0.0028779414 -0.03861802 -0.08610007 0.10979885 -0.082149476
0.011466682 0.045451865 0.012989378 -0.097068645 -0.10784836 0.01443694 0.0059158583 -0.044102475
0.0467873 -0.041806877 0.08332522 -0.013502881 -0.03139363 0.087948956 -0.10006626 0.08049768
-0.00546691 -0.06432021 0.030191882 0.082786106 -0.05410301 0.021503393 0.071786776 -0.073145024
0.095723376 -0.060950596 0.08536972 0.1092575 -0.053139996 0.010521188 -0.074863315 -0.026553273
0.016626032 0.016956577 -0.02849488 -0.10668785 -0.052647006 0.0258328 -0.03200921 -0.012645965
0.08188023 -0.09771636 -0.009771199 0.115014635 -0.0006324978 -0.10944271 -0.052706137 0.039114047
0.107892334 -0.11652234 -0.027850315 0.089806825 0.08841509 0.002377855 -0.0042880205 -0.0006782271
0.102521 0.05252815 -0.09352056 -0.0016238479 -0.0702666 -0.022582563 0.055849858 -0.1083943
0.04216361 0.09346457 -0.02867947 -0.11448392 -0.115864016 -0.07185883 -0.037804402 0.10689041
-0.10811163 0.08720763 -0.037872188 0.04902554 -0.015941707 0.092337005 0.06121113 -0.07878565
-0.09012599 0.0065296707 -0.00541986 0.090625755 -0.11745648 -0.08059662 -0.04082549 0.07476317
0.07382276 0.089826964 0.10886795 0.10829891 -0.07366333 -0.036847528 0.11267389 -0.01248089
-0.07652254 -0.07035732 -0.09599167 0.10581746 -0.11618633 0.043170314 0.023387624 -0.0490907
-0.04488381 -0.0524126 -0.09678066 -0.09926962 -0.0332602 -0.0657647 0.017800173 0.0679096
0.07552409 0.04464516 -0.014536491 -0.109895326 -0.010793822 0.09183972 -0.110232875 0.034875702
-0.087389044 -0.116685785 -0.016969753 -0.055933587 0.06730658 0.056282297 0.037103318 -0.11431755
-0.044288907 -0.035356723 0.012512556 -0.056192666 -0.030054905 -0.03223769 -0.0917361 0.10444142
0.103272155 -0.108491145 0.0907589 0.027991984 0.013303652 0.056088127 -0.108200654 0.03376838
-0.06570388 -0.02823916 -0.074727826 -0.057907607 -0.06706387 -0.11751501 0.057067465 0.056461114
-0.00025320423 -0.096252054 -0.016148495 0.08504367 -0.02999965 -0.015979541 0.021212958 0.038619157

conv1.bias f4 [8]
00000000: 5692 2bbd 6997 133d 0a5e a1bd bd11 19bd
00000010: 9583 d43d 3d5e 3d3c a720 883d ac0f 9fbd
-0.041887604 0.036033068 -0.07879265 -0.037370432 0.1037666 0.011558113 0.06646853 -0.07766661

conv2.weight f4 [4, 4, 3, 3]
00000000: ba62 2a3e a3fd 09be 389a 10be 8684 26bd
00000010: 9ee5 d23d 47c7 04be 9b5c 25bd 000e 233e
00000020: 6be1 efbd c0a8 683c aa16 09be 8675 003e
00000030: ab88 c2bb 1b8e bd3d b82e eebd c67b cf3d
00000040: 4818 8b3d 28b4 d03d 0bdf cf3d 2b5f d93b
00000050: 9880 18be 0bba 453d d6b2 043e 40de 153d
00000060: 3314 e1bd c877 cb3d 0f1c 083e 2fa5 1e3e
00000070: 639c d33d 9b20 42bd ab0d a2bd 781b ccbd
00000080: bb5b 083e 38c2 d93d 7036 163d 6bae 9f3d
00000090: c6be 9dbd d66e e9bc 5bbe f5bd 16b0 ae3c
000000a0: 6fde 183e 2be0 a33d cf72 243e d875 c23d
000000b0: de1d f1bd 561e ffbd 98e7 05be 38a0 103e
000000c0: cba7 25be fbc5 c7bd 1007 073d 9668 ae3c
000000d0: bb5b 83bd eb5a 593d bb96 a23d 36e1 ba3d
000000e0: d226 09be d6f4 bfbb 4b6a 7fbd d7f4 20be
000000f0: 9388 0abe 3884 e4bd b04b 19bd 7ebf a23d
00000100: 9036 9abd b02e af3d 403a babd 60a3 673d
00000110: 98d2 8d3d 2b18 d23b 685b c7bd 487c af3d
00000120: 449b 273e 16d5 b2bc d0c5 163d 10f7 6e3d
00000130: cfd5 13be 68a3 293e 809f 2cbd e0cb 1bbd
00000140: 573d 0dbe f3e2 d1bd d652 e0bb 884e d93d
00000150: e667 05bd b672 96bd fe32 e23d f323 edbd
00000160: 021c 23be 6302 bcbd 3e31 f13d b6a1 1d3d
00000170: b75a 16be c8da 213e 3240 033e 404d 26bc
00000180: 5b34 693d 0be5 71bd efb8 28be 6b6b 76bd
00000190: 9bc4 2bbd a31a 17be e36c 8f3d e023 a13c
000001a0: 10e8 b9bd b34d f43d a06d 31bd 1f5e 083e
000001b0: 90d3 e4bd 5efc c23d a851 c73d d637 1cbd
000001c0: 281e 90bd 93a3 cb3d cbef 103e f685 0f3d
000001d0: 8069 30bc c0aa 82bc 6b8f 20be e6ed c43d
000001e0: 30ab 69bd 2395 83bd 5cfd 193e 566c f4bd
000001f0: 23b3 0e3e 8075 f93b 0302 a2bd 7603 703d
00000200: ab20 a3bb b889 f43d 1e55 a93d 1032 173d
00000210: bb0a 0a3d 3b0e a53d 8b2b e93c 20cb 153d
00000220: 8040 58bc 6b85 963d 00ce a93c 0b0f c63c
00000230: 97af 233e 9633 12bd 62c4 10be 6644 323d
0.16639224 -0.13475661 -0.1412133 -0.040653728 0.10297702 -0.12966643 -0.04037152 0.1592331
-0.11712917 0.014200389 -0.13387552 0.12544832 -0.0059367022 0.0925562 -0.11630005 0.1013103
0.06791741 0.10190612 0.10149964 0.0066336594 -0.14892805 0.048273128 0.12958845 0.036588907
-0.10990181 0.09934956 0.13291954 0.154927 0.10332563 -0.047394376 -0.07912763 -0.09966177
0.13316242 0.106327474 0.03667301 0.077969395 -0.07702403 -0.028495234 -0.11999198 0.021324199
0.14928602 0.08001741 0.16059421 0.09495133 -0.11773275 -0.12456958 -0.13076627 0.14123619
-0.16177289 -0.09754559 0.03296572 0.021290105 -0.064139806 0.05306522 0.07938906 0.09124987
-0.13393715 -0.005858044 -0.06235723 -0.15718399 -0.13528661 -0.11158031 -0.037425697 0.079466805
-0.07529938 0.08553827 -0.090931416 0.05655229 0.06924933 0.0064115725 -0.09734231 0.08568627
0.16367823 -0.021830123 0.036809742 0.058341086 -0.1443703 0.16566241 -0.0421443 -0.038036227
-0.1379293 -0.10248365 -0.0068458123 0.10610682 -0.03256979 -0.07346098 0.11044882 -0.115791224
-0.15928653 -0.09180143 0.1177697 0.038484298 -0.14683042 0.15806115 0.12817457 -0.010150254
0.056934696 -0.059056323 -0.16476797 -0.060161036 -0.041935544 -0.14756255 0.0700319 0.019670427
-0.090774655 0.119288824 -0.043317437 0.13317154 -0.11173165 0.095207915 0.097323716 -0.038139187
-0.07037002 0.09943309 0.14153974 0.035039864 -0.010767341 -0.01595056 -0.1567971 0.09615688
-0.057048023 -0.0642493 0.15038055 -0.11934726 0.13935523 0.007612884 -0.0791054 0.05859705
-0.0049782596 0.1194033 0.08268188 0.036912978 0.03370164 0.08059355 0.028463146 0.03657067
-0.013198972 0.07349666 0.020728111 0.024177095 0.15984951 -0.035693727 -0.14137414 0.04352226

conv2.bias f4 [4]
00000000: eeb5 01be 560b 23bc 0e2c e33d 2b39 e4bd
-0.12667057 -0.009951433 0.11092387 -0.111437164
