utests/models/scatternd_hwc_with_conv_tf2.onnx (onnx, 12785 bytes, 4 tensors)

SactterND/conv2d_1/Conv2D/ReadVariableOp:0 f4 [4, 4, 3, 3]
00000000: 3c36 a23d 2cda ed3d 5413 cd3d a0b4 1abd
00000010: e41e 9a3d a57d 63be 6032 9e3d 28ef 873e
00000020: 2030 0e3d f7c1 75be c069 cd3b 8c9f cfbd
00000030: bc6a 2c3e 20bb 43bc c015 fcbc 9acd 263e
00000040: 7ce0 1ebe ee4c 94bd 6ae8 84be 4cec 123e
00000050: fa1a d3bd e0f9 8f3c 77d4 16be c0f0 e5bc
00000060: 2222 b1bd 873d 36be f447 163e d048 e13d
00000070: 9281 823e acde dbbd 7bc5 56be a46f 60be
00000080: deba 07be fc54 903e 28d3 3c3d 68b8 5f3e
00000090: 3c1c 863d 4859 26be 00fa 143c 70fe 5a3e
000000a0: 242a 5a3e 106f 623e b178 0abe d8ef 403e
000000b0: 251d 6ebe 104b 223d b4c3 653e a898 1cbe
000000c0: 6e1e f3bd f48e 633e 98b9 8dbd c282 ecbd
000000d0: 928f 513e e0ff 1bbe d074 6ebe ced4 87be
000000e0: ba44 4c3e f0d5 1d3d 8cd8 3c3e 7464 78be
000000f0: c032 9dbc 4011 003e 9635 e3bd 841d f83d
00000100: 400f c4bc 40b4 10bc 680d 7d3e d41f 7e3e
00000110: 6a98 d7bd a8a2 6dbe 40e2 b73b 044c 3a3e
00000120: 1664 9fbd a866 79be 4c2e ef3d d003 d53d
00000130: 92fa 4c3e 00ba 6bbe 406d b1bb 004a 783d
00000140: 20c2 0dbe f04e 34bd 2ece dbbd 007e ba3a
00000150: 9acb 90be 0dd8 11be 90c7 30be 0059 723b
00000160: 620c 3c3e 1cac 893e ea16 62be 006e 04bc
00000170: e49e c1bd 6600 82be 3234 61be 4491 cd3d
00000180: 2456 053e dc95 4a3e 1ef9 58be d865 48be
00000190: e0e9 99bc 3cab f33d ce9a 8f3e a0f3 713c
000001a0: bcaa 503e e0da b83d 50fd f23c f498 a13d
000001b0: 301e 863d e081 763e 88de 4abe 904e 8fbc
000001c0: 34bb 183e 31ea 8ebe fef5 b7bd 6cac dcbd
000001d0: 9003 9f3d 4f2f 80be c080 323c 5a68 c6bd
000001e0: 1ce3 d53d fca7 73be 79d1 8dbe d61e 1a3e
000001f0: 6020 533e 0ca9 f43d 805b 4dbc 701b 79bd
00000200: 0ad3 7fbe 51d2 16be cef4 553e 8428 6e3e
00000210: 4415 5dbe 8c79 dabd 80c7 be3c 01c1 3abe
00000220: fa12 15be 48c4 843d fc18 f9bd 62a7 893e
00000230: ce91 1b3e b892 72bd 4022 823b 1e27 523e
0.07920501 0.116138786 0.10013452 -0.037769914 0.07525423 -0.22215898 0.07724452 0.2654965
0.034713864 -0.23999773 0.00626871 -0.10137853 0.16837591 -0.01194647 -0.03077209 0.16289368
-0.15515321 -0.07241236 -0.25958568 0.14347953 -0.1030788 0.017575204 -0.14729486 -0.0280689
-0.086490884 -0.17796908 0.14675885 0.11000216 0.2548948 -0.10735831 -0.2097377 -0.21917588
-0.13254878 0.28189838 0.04609981 0.21847689 0.06548354 -0.16244996 0.009092808 0.21386123
0.21305138 0.2211268 -0.13522603 0.18841493 -0.23253305 0.039622366 0.22437936 -0.15292609
-0.118710384 0.22222501 -0.06920165 -0.115483776 0.20464924 -0.15234327 -0.23286748 -0.26529545
0.19948092 0.038534105 0.18441981 -0.2425707 -0.019189239 0.1250658 -0.11094205 0.12115005
-0.023933053 -0.008832037 0.24712145 0.24816829 -0.105271176 -0.2320658 0.005611688 0.1819306
-0.07782762 -0.24355567 0.11678752 0.10401118 0.2001746 -0.23020172 -0.005414635 0.060617447
-0.13843584 -0.044020593 -0.10732685 0.0014228225 -0.28280336 -0.14242573 -0.17263627 0.0036979318
0.18364099 0.26889122 -0.22079054 -0.008082867 -0.09454134 -0.2539093 -0.21992567 0.10037473
0.13021141 0.1978373 -0.2118878 -0.195701 -0.018788278 0.11897895 0.28047794 0.014767557
0.2037763 0.09026122 0.029661804 0.078905016 0.065487266 0.24072981 -0.19811451 -0.017493516
0.14915162 -0.2791305 -0.08982466 -0.10775074 0.07764351 -0.25036094 0.010894954 -0.09687872
0.10443708 -0.2379455 -0.27698877 0.15050825 0.20617819 0.11946306 -0.012534022 -0.060817182
-0.24982849 -0.14728667 0.20894167 0.23257643 -0.21590143 -0.106677145 0.023288488 -0.18237688
-0.1455802 0.0648275 -0.121629685 0.26885515 0.15192339 -0.059221953 0.003971368 0.20522735

SactterND/conv2d_1/BiasAdd/ReadVariableOp:0 f4 [4]
00000000: bc01 533e 9125 363f fff0 3a3f 8bf8 41bf
0.2060613 0.7115107 0.7302398 -0.7576987

SactterND/conv2d/Conv2D/ReadVariableOp:0 f4 [8, 8, 3, 3]
00000000: 6844 e23c 7abd 1b3e fc21 1cbe ece6 d8bd
00000010: 7cdf 2c3e 0c5b 46bd f883 90bd e012 d4bd
00000020: ec21 003e d644 4abe df05 3abe 3643 a3bd
00000030: 402c 51bd 6454 093e cbb0 3cbe d3a4 c2bd
00000040: 182b 49bd 5c7a ab3d c085 ad3d 74e4 8b3d
00000050: 9893 37be 1638 48be fc8d cd3d c82a 07be
00000060: c811 9abc e42d 1e3e 7069 ac3d 79e1 07be
00000070: 089d 873c c08f f4bc c01b 403e a446 7abd
00000080: 40ef b73d e4a5 b23d df7f a9bd 030c b9bd
00000090: d469 033e 2c56 cd3d 30d5 efbc f83e 0b3d
000000a0: 5ff8 11be 666f 37be 21bc acbd bb53 a8bd
000000b0: 8cf0 c63d 1890 f53d 8040 14bb 7039 313c
000000c0: f4f9 07bd 8408 3a3e 31f3 28be 6aad 17be
000000d0: 1413 c33d ac08 82bd 800f 2c3b c8f2 173e
000000e0: 4450 06be 0e49 43be c4fe 3ebe deef 22be
000000f0: 3856 f53d f007 c83d 0c46 ebbd 0ae7 f8bd
00000100: a0a7 493c ccac 2d3d 0048 393e 2298 99bd
00000110: 4070 ca3c 03da d9bd f470 52bd 20ef b43c
00000120: 200c 383c 0046 fcbb 80bf c63d 80e6 ed3b
00000130: 9853 293d bece 303e fe5a 0bbe 80b8 f6bc
00000140: d2fc 283e 644d f43d 9873 e1bc c0b8 973c
00000150: ec48 403e aaa5 8dbd a8c4 ebbc 5e79 35be
00000160: c7e9 bebd c40b 0a3d db1f d6bd 448d e23d
00000170: 9a14 0ebe b079 b33d 2405 fc3d 8058 30bc
00000180: 4c5b 343d c3c3 a2bd ff04 e6bd 8061 953a
00000190: 1fbd 3fbe 04e6 b23d e07c 163e 54cb 033d
000001a0: b235 133e c8d8 503e 6822 763d 2401 3f3e
000001b0: 6cac c23d 2e24 88bd 528d a8bd 1045 e8bc
000001c0: c6dd 8bbd a888 853c 05f4 44be d664 9bbd
000001d0: 9c31 e83d c215 14be 4062 273e a424 233e
000001e0: e560 12be ccf6 4dbd 00e1 d83d 98eb bc3d
000001f0: b442 05bd b8bb 0abd 16dd a6bd c077 3ebd
00000200: c0ec 53bc 8e51 bdbd 6768 cbbd 4866 5fbd
00000210: 88a6 363e 6e03 cebd c401 fe3d fb2c 4ebe
00000220: 58f0 e43c a23a 00be 70aa b1bc c037 26bc
00000230: 1ac0 2f3e e2c1 0cbe 0348 02be b0d2 723d
00000240: 4c8e de3d f015 fa3d 1c3b 033d b85f d53c
00000250: 8c7e 3b3e 6e36 153e 788c e93d a5a8 e0bd
00000260: 50f6 9dbc e0c0 99bb 1824 1ebd 75a6 1dbe
00000270: 486e d33c 3874 a63d ec60 96bd 547e 6fbd
00000280: 6c39 40be 8cbf a13d 6499 973d 70bf 59bc
00000290: a0bc f5bc c27a 9abd 2000 e53d 3888 953c
000002a0: d2df 4d3e 8177 d5bd 009a 2abd fff1 4fbe
000002b0: 9ee7 4c3e 7025 10be 549c bb3d f2cd 2b3e
000002c0: 24c9 433e 1e90 39be 50fd 4abd 2892 50be
000002d0: ccb1 993d cc59 07be 76be 163e 8076 8c3b
000002e0: b879 2e3e 71c1 b4bd 63ce 03be 4841 2bbd
000002f0: 7a03 fdbd c4f7 bd3d 7650 96bd 604b 28be
00000300: 7a21 493e 9ff7 e6bd 582a 1c3e 3cb3 61bd
00000310: 907a fbbd c671 17be c05e f3bd e0e8 1c3d
00000320: ee80 25be 40d3 f43d d837 c63c 3086 ebbc
00000330: ec06 233e 431c f9bd 68e7 5e3d 1404 02bd
00000340: 6072 bdbc bef5 2dbe b8eb eb3d e81c 35bd
00000350: 3501 d8bd 2862 5dbd 7262 10be 4c63 ba3d
00000360: 2ab9 2f3e 756b 17be 9ea8 0abe dc8e 64bd
00000370: f02d 37be 8165 dabd 2c62 a03d 1267 133e
00000380: 9cff db3d 6642 26be 0b95 3dbe e64b a8bd
00000390: d8a0 c93d 565e acbd 9c92 fe3d a0f0 b9bc
000003a0: 047c 263e ccc9 4bbe ebcd d8bd 707f 5d3d
000003b0: f4c7 373e 085a 443d 40a4 173b 90fa f73d
000003c0: de26 abbd b281 dbbd 747d a53d 18a9 3a3e
000003d0: e484 14be b3f1 a7bd b013 2d3e 9cf7 68bd
000003e0: f4cd ce3d 9efc 40be bef3 83bd e750 b9bd
000003f0: 1804 58bd e0fe 9b3d f694 2e3e ace8 64bd
0.02762051 0.15208998 -0.15247339 -0.1059092 0.16882128 -0.048426673 -0.07056421 -0.103551626
0.1251294 -0.19752821 -0.18166302 -0.07971804 -0.05106759 0.13411099 -0.18426816 -0.09504094
-0.049113363 0.083729476 0.084727764 0.06830683 -0.17927396 -0.19552645 0.10036847 -0.13199914
-0.018807307 0.15447193 0.08418548 -0.13269605 0.01655437 -0.029853702 0.18760586 -0.061102524
0.0898118 0.087230474 -0.082763426 -0.09035494 0.12833339 0.100262016 -0.02927646 0.0339956
-0.14254902 -0.17913589 -0.0843432 -0.08219095 0.097138494 0.11990374 -0.0022621453 0.010816917
-0.03319736 0.18167311 -0.1649902 -0.14812246 0.09525123 -0.0634931 0.0026254356 0.14838707
-0.13116556 -0.19070837 -0.18651873 -0.15911815 0.119793355 0.09767139 -0.1148797 -0.12153442
0.012308031 0.04240112 0.18093872 -0.0749972 0.024711728 -0.106372856 -0.05137725 0.02208668
0.01123336 -0.0076987743 0.097044945 0.0072601438 0.041339487 0.17266366 -0.1360893 -0.030117273
0.16502693 0.119288236 -0.02752094 0.018520713 0.18777817 -0.069163635 -0.028780296 -0.17722079
-0.09321933 0.033702627 -0.10455295 0.110621005 -0.13875046 0.087634444 0.12305668 -0.010763288
0.04403238 -0.07947495 -0.11231422 0.0011396855 -0.18724488 0.08735278 0.14696074 0.03217633
0.14375952 0.20395195 0.060091406 0.18652779 0.09505543 -0.06647526 -0.0823008 -0.028353244
-0.06829409 0.016300514 -0.19233711 -0.07587592 0.11337587 -0.14461425 0.16346073 0.15931946
-0.14294775 -0.050284192 0.1058979 0.092246234 -0.032534316 -0.03387043 -0.081476375 -0.04650092
-0.012934864 -0.09244071 -0.099320225 -0.054540902 0.17836964 -0.10059248 0.124026805 -0.20134346
0.027946636 -0.12522367 -0.021687716 -0.010145128 0.17163125 -0.13745835 -0.12722783 0.05928296
0.10866985 0.122112155 0.032038793 0.026046619 0.18309993 0.14571545 0.114037454 -0.109696664
-0.01928249 -0.004692182 -0.03860864 -0.1539553 0.025809422 0.08127636 -0.07342705 -0.058470085
-0.18771905 0.07897863 0.07402304 -0.013290271 -0.02999717 -0.075429454 0.111816645 0.01825343
0.20104912 -0.10423184 -0.041650772 -0.20307158 0.2001023 -0.14076781 0.091606766 0.1677778
0.19119698 -0.18121383 -0.049557984 -0.20368254 0.07504615 -0.13217849 0.14721093 0.0042865872
0.1703862 -0.088259585 -0.12871699 -0.041810304 -0.12354179 0.09275773 -0.073395655 -0.16435003
0.19641677 -0.11277699 0.15250528 -0.05510257 -0.12279236 -0.14789495 -0.118833065 0.038308024
-0.16162464 0.11954355 0.02419655 -0.028750509 0.15920609 -0.121635936 0.054419905 -0.03174217
-0.023125827 -0.16988274 0.11519569 -0.04421702 -0.10547105 -0.054048687 -0.14100054 0.091009706
0.17160478 -0.14787085 -0.13540885 -0.055800304 -0.17888618 -0.106638916 0.07831225 0.14394787
0.10742113 -0.16236266 -0.18513887 -0.082176015 0.09845132 -0.08416431 0.12430307 -0.022697747
0.16258246 -0.19901198 -0.10586151 0.054076612 0.1794737 0.047937423 0.0023138672 0.12108338
-0.08357023 -0.10718097 0.08080569 0.18228567 -0.14503819 -0.08200397 0.16902041 -0.056876764
0.10097876 -0.18846366 -0.064429745 -0.09048634 -0.05273828 0.07616973 0.17049012 -0.055885956

SactterND/conv2d/BiasAdd/ReadVariableOp:0 f4 [8]
00000000: 52bf e0be 8820 403e 9e3e e73e 4cee 09bf
00000010: 1d6e 12bf e712 eabe f036 ba3e 6c21 bd3e
-0.43895966 0.1876241 0.4516496 -0.5387924 -0.5719927 -0.45717546 0.3637004 0.3693956
